…
I1129 22:32:10.561928  1829 net.cpp:323] The NetState phase (0) differed from the phase (1) specified by a rule in layer loss3/top-1
I1129 22:32:10.562877  1829 net.cpp:52] Initializing net from parameters:
state {
phase: TRAIN
}
layer {
name: "train-data"
type: "Data"
top: "data"
top: "label"
include {
phase: TRAIN
}
transform_param {
mirror: true
crop_size: 224
mean_file: "/home/ubuntu/digits/digits/jobs/20171129-221421-0e17/mean.binaryproto"
}
data_param {
source: "/home/ubuntu/digits/digits/jobs/20171129-221421-0e17/train_db"
batch_size: 32
backend: LMDB
}
}
layer {
name: "conv1/7x7_s2"
type: "Convolution"
bottom: "data"
top: "conv1/7x7_s2"
param {
lr_mult: 1
decay_mult: 1
}
param {
lr_mult: 2
decay_mult: 0
}
convolution_param {
num_output: 64
pad: 3
kernel_size: 7
stride: 2
weight_filler {
type: "xavier"
std: 0.1
}
bias_filler {
type: "constant"
value: 0.2
}
}
}
layer {
name: "conv1/relu_7x7"
type: "ReLU"
bottom: "conv1/7x7_s2"
top: "conv1/7x7_s2"
}
layer {
name: "pool1/3x3_s2"
type: "Pooling"
bottom: "conv1/7x7_s2"
top: "pool1/3x3_s2"
pooling_param {
pool: MAX
kernel_size: 3
stride: 2
}
}
layer {
name: "pool1/norm1"
type: "LRN"
bottom: "pool1/3x3_s2"
top: "pool1/norm1"
lrn_param {
local_size: 5
alpha: 0.0001
beta: 0.75
}
}
layer {
name: "conv2/3x3_reduce"
type: "Convolution"
bottom: "pool1/norm1"
top: "conv2/3x3_reduce"
param {
lr_mult: 1
decay_mult: 1
}
param {
lr_mult: 2
decay_mult: 0
}
convolution_param {
num_output: 64
kernel_size: 1
weight_filler {
type: "xavier"
std: 0.1
}
bias_filler {
type: "constant"
value: 0.2
}
}
}
layer {
name: "conv2/relu_3x3_reduce"
type: "ReLU"
bottom: "conv2/3x3_reduce"
top: "conv2/3x3_reduce"
}
layer {
name: "conv2/3x3"
type: "Convolution"
bottom: "conv2/3x3_reduce"
top: "conv2/3x3"
param {
lr_mult: 1
decay_mult: 1
}
param {
lr_mult: 2
decay_mult: 0
}
convolution_param {
num_output: 192
pad: 1
kernel_size: 3
weight_filler {
type: "xavier"
std: 0.03
}
bias_filler {
type: "constant"
value: 0.2
}
}
}
layer {
name: "conv2/relu_3x3"
type: "ReLU"
bottom: "conv2/3x3"
top: "conv2/3x3"
}
layer {
name: "conv2/norm2"
type: "LRN"
bottom: "conv2/3x3"
top: "conv2/norm2"
lrn_param {
local_size: 5
alpha: 0.0001
beta: 0.75
}
}
layer {
name: "pool2/3x3_s2"
type: "Pooling"
bottom: "conv2/norm2"
top: "pool2/3x3_s2"
pooling_param {
pool: MAX
kernel_size: 3
stride: 2
}
}
layer {
name: "inception_3a/1x1"
type: "Convolution"
bottom: "pool2/3x3_s2"
top: "inception_3a/1x1"
param {
lr_mult: 1
decay_mult: 1
}
param {
lr_mult: 2
decay_mult: 0
}
convolution_param {
num_output: 64
kernel_size: 1
weight_filler {
type: "xavier"
std: 0.03
}
bias_filler {
type: "constant"
value: 0.2
}
}
}
layer {
name: "inception_3a/relu_1x1"
type: "ReLU"
bottom: "inception_3a/1x1"
top: "inception_3a/1x1"
}
layer {
name: "inception_3a/3x3_reduce"
type: "Convolution"
bottom: "pool2/3x3_s2"
top: "inception_3a/3x3_reduce"
param {
lr_mult: 1
decay_mult: 1
}
param {
lr_mult: 2
decay_mult: 0
}
convolution_param {
num_output: 96
kernel_size: 1
weight_filler {
type: "xavier"
std: 0.09
}
bias_filler {
type: "constant"
value: 0.2
}
}
}
layer {
name: "inception_3a/relu_3x3_reduce"
type: "ReLU"
bottom: "inception_3a/3x3_reduce"
top: "inception_3a/3x3_reduce"
}
layer {
name: "inception_3a/3x3"
type: "Convolution"
bottom: "inception_3a/3x3_reduce"
top: "inception_3a/3x3"
param {
lr_mult: 1
decay_mult: 1
}
param {
lr_mult: 2
decay_mult: 0
}
convolution_param {
num_output: 128
pad: 1
kernel_size: 3
weight_filler {
type: "xavier"
std: 0.03
}
bias_filler {
type: "constant"
value: 0.2
}
}
}
layer {
name: "inception_3a/relu_3x3"
type: "ReLU"
bottom: "inception_3a/3x3"
top: "inception_3a/3x3"
}
layer {
name: "inception_3a/5x5_reduce"
type: "Convolution"
bottom: "pool2/3x3_s2"
top: "inception_3a/5x5_reduce"
param {
lr_mult: 1
decay_mult: 1
}
param {
lr_mult: 2
decay_mult: 0
}
convolution_param {
num_output: 16
kernel_size: 1
weight_filler {
type: "xavier"
std: 0.2
}
bias_filler {
type: "constant"
value: 0.2
}
}
}
layer {
name: "inception_3a/relu_5x5_reduce"
type: "ReLU"
bottom: "inception_3a/5x5_reduce"
top: "inception_3a/5x5_reduce"
}
layer {
name: "inception_3a/5x5"
type: "Convolution"
bottom: "inception_3a/5x5_reduce"
top: "inception_3a/5x5"
param {
lr_mult: 1
decay_mult: 1
}
param {
lr_mult: 2
decay_mult: 0
}
convolution_param {
num_output: 32
pad: 2
kernel_size: 5
weight_filler {
type: "xavier"
std: 0.03
}
bias_filler {
type: "constant"
value: 0.2
}
}
}
layer {
name: "inception_3a/relu_5x5"
type: "ReLU"
bottom: "inception_3a/5x5"
top: "inception_3a/5x5"
}
layer {
name: "inception_3a/pool"
type: "Pooling"
bottom: "pool2/3x3_s2"
top: "inception_3a/pool"
pooling_param {
pool: MAX
kernel_size: 3
stride: 1
pad: 1
}
}
layer {
name: "inception_3a/pool_proj"
type: "Convolution"
bottom: "inception_3a/pool"
top: "inception_3a/pool_proj"
param {
lr_mult: 1
decay_mult: 1
}
param {
lr_mult: 2
decay_mult: 0
}
convolution_param {
num_output: 32
kernel_size: 1
weight_filler {
type: "xavier"
std: 0.1
}
bias_filler {
type: "constant"
value: 0.2
}
}
}
layer {
name: "inception_3a/relu_pool_proj"
type: "ReLU"
bottom: "inception_3a/pool_proj"
top: "inception_3a/pool_proj"
}
layer {
name: "inception_3a/output"
type: "Concat"
bottom: "inception_3a/1x1"
bottom: "inception_3a/3x3"
bottom: "inception_3a/5x5"
bottom: "inception_3a/pool_proj"
top: "inception_3a/output"
}
layer {
name: "inception_3b/1x1"
type: "Convolution"
bottom: "inception_3a/output"
top: "inception_3b/1x1"
param {
lr_mult: 1
decay_mult: 1
}
param {
lr_mult: 2
decay_mult: 0
}
convolution_param {
num_output: 128
kernel_size: 1
weight_filler {
type: "xavier"
std: 0.03
}
bias_filler {
type: "constant"
value: 0.2
}
}
}
layer {
name: "inception_3b/relu_1x1"
type: "ReLU"
bottom: "inception_3b/1x1"
top: "inception_3b/1x1"
}
layer {
name: "inception_3b/3x3_reduce"
type: "Convolution"
bottom: "inception_3a/output"
top: "inception_3b/3x3_reduce"
param {
lr_mult: 1
decay_mult: 1
}
param {
lr_mult: 2
decay_mult: 0
}
convolution_param {
num_output: 128
kernel_size: 1
weight_filler {
type: "xavier"
std: 0.09
}
bias_filler {
type: "constant"
value: 0.2
}
}
}
layer {
name: "inception_3b/relu_3x3_reduce"
type: "ReLU"
bottom: "inception_3b/3x3_reduce"
top: "inception_3b/3x3_reduce"
}
layer {
name: "inception_3b/3x3"
type: "Convolution"
bottom: "inception_3b/3x3_reduce"
top: "inception_3b/3x3"
param {
lr_mult: 1
decay_mult: 1
}
param {
lr_mult: 2
decay_mult: 0
}
convolution_param {
num_output: 192
pad: 1
kernel_size: 3
weight_filler {
type: "xavier"
std: 0.03
}
bias_filler {
type: "constant"
value: 0.2
}
}
}
layer {
name: "inception_3b/relu_3x3"
type: "ReLU"
bottom: "inception_3b/3x3"
top: "inception_3b/3x3"
}
layer {
name: "inception_3b/5x5_reduce"
type: "Convolution"
bottom: "inception_3a/output"
top: "inception_3b/5x5_reduce"
param {
lr_mult: 1
decay_mult: 1
}
param {
lr_mult: 2
decay_mult: 0
}
convolution_param {
num_output: 32
kernel_size: 1
weight_filler {
type: "xavier"
std: 0.2
}
bias_filler {
type: "constant"
value: 0.2
}
}
}
layer {
name: "inception_3b/relu_5x5_reduce"
type: "ReLU"
bottom: "inception_3b/5x5_reduce"
top: "inception_3b/5x5_reduce"
}
layer {
name: "inception_3b/5x5"
type: "Convolution"
bottom: "inception_3b/5x5_reduce"
top: "inception_3b/5x5"
param {
lr_mult: 1
decay_mult: 1
}
param {
lr_mult: 2
decay_mult: 0
}
convolution_param {
num_output: 96
pad: 2
kernel_size: 5
weight_filler {
type: "xavier"
std: 0.03
}
bias_filler {
type: "constant"
value: 0.2
}
}
}
layer {
name: "inception_3b/relu_5x5"
type: "ReLU"
bottom: "inception_3b/5x5"
top: "inception_3b/5x5"
}
layer {
name: "inception_3b/pool"
type: "Pooling"
bottom: "inception_3a/output"
top: "inception_3b/pool"
pooling_param {
pool: MAX
kernel_size: 3
stride: 1
pad: 1
}
}
layer {
name: "inception_3b/pool_proj"
type: "Convolution"
bottom: "inception_3b/pool"
top: "inception_3b/pool_proj"
param {
lr_mult: 1
decay_mult: 1
}
param {
lr_mult: 2
decay_mult: 0
}
convolution_param {
num_output: 64
kernel_size: 1
weight_filler {
type: "xavier"
std: 0.1
}
bias_filler {
type: "constant"
value: 0.2
}
}
}
layer {
name: "inception_3b/relu_pool_proj"
type: "ReLU"
bottom: "inception_3b/pool_proj"
top: "inception_3b/pool_proj"
}
layer {
name: "inception_3b/output"
type: "Concat"
bottom: "inception_3b/1x1"
bottom: "inception_3b/3x3"
bottom: "inception_3b/5x5"
bottom: "inception_3b/pool_proj"
top: "inception_3b/output"
}
layer {
name: "pool3/3x3_s2"
type: "Pooling"
bottom: "inception_3b/output"
top: "pool3/3x3_s2"
pooling_param {
pool: MAX
kernel_size: 3
stride: 2
}
}
layer {
name: "inception_4a/1x1"
type: "Convolution"
bottom: "pool3/3x3_s2"
top: "inception_4a/1x1"
param {
lr_mult: 1
decay_mult: 1
}
param {
lr_mult: 2
decay_mult: 0
}
convolution_param {
num_output: 192
kernel_size: 1
weight_filler {
type: "xavier"
std: 0.03
}
bias_filler {
type: "constant"
value: 0.2
}
}
}
layer {
name: "inception_4a/relu_1x1"
type: "ReLU"
bottom: "inception_4a/1x1"
top: "inception_4a/1x1"
}
layer {
name: "inception_4a/3x3_reduce"
type: "Convolution"
bottom: "pool3/3x3_s2"
top: "inception_4a/3x3_reduce"
param {
lr_mult: 1
decay_mult: 1
}
param {
lr_mult: 2
decay_mult: 0
}
convolution_param {
num_output: 96
kernel_size: 1
weight_filler {
type: "xavier"
std: 0.09
}
bias_filler {
type: "constant"
value: 0.2
}
}
}
layer {
name: "inception_4a/relu_3x3_reduce"
type: "ReLU"
bottom: "inception_4a/3x3_reduce"
top: "inception_4a/3x3_reduce"
}
layer {
name: "inception_4a/3x3"
type: "Convolution"
bottom: "inception_4a/3x3_reduce"
top: "inception_4a/3x3"
param {
lr_mult: 1
decay_mult: 1
}
param {
lr_mult: 2
decay_mult: 0
}
convolution_param {
num_output: 208
pad: 1
kernel_size: 3
weight_filler {
type: "xavier"
std: 0.03
}
bias_filler {
type: "constant"
value: 0.2
}
}
}
layer {
name: "inception_4a/relu_3x3"
type: "ReLU"
bottom: "inception_4a/3x3"
top: "inception_4a/3x3"
}
layer {
name: "inception_4a/5x5_reduce"
type: "Convolution"
bottom: "pool3/3x3_s2"
top: "inception_4a/5x5_reduce"
param {
lr_mult: 1
decay_mult: 1
}
param {
lr_mult: 2
decay_mult: 0
}
convolution_param {
num_output: 16
kernel_size: 1
weight_filler {
type: "xavier"
std: 0.2
}
bias_filler {
type: "constant"
value: 0.2
}
}
}
layer {
name: "inception_4a/relu_5x5_reduce"
type: "ReLU"
bottom: "inception_4a/5x5_reduce"
top: "inception_4a/5x5_reduce"
}
layer {
name: "inception_4a/5x5"
type: "Convolution"
bottom: "inception_4a/5x5_reduce"
top: "inception_4a/5x5"
param {
lr_mult: 1
decay_mult: 1
}
param {
lr_mult: 2
decay_mult: 0
}
convolution_param {
num_output: 48
pad: 2
kernel_size: 5
weight_filler {
type: "xavier"
std: 0.03
}
bias_filler {
type: "constant"
value: 0.2
}
}
}
layer {
name: "inception_4a/relu_5x5"
type: "ReLU"
bottom: "inception_4a/5x5"
top: "inception_4a/5x5"
}
layer {
name: "inception_4a/pool"
type: "Pooling"
bottom: "pool3/3x3_s2"
top: "inception_4a/pool"
pooling_param {
pool: MAX
kernel_size: 3
stride: 1
pad: 1
}
}
layer {
name: "inception_4a/pool_proj"
type: "Convolution"
bottom: "inception_4a/pool"
top: "inception_4a/pool_proj"
param {
lr_mult: 1
decay_mult: 1
}
param {
lr_mult: 2
decay_mult: 0
}
convolution_param {
num_output: 64
kernel_size: 1
weight_filler {
type: "xavier"
std: 0.1
}
bias_filler {
type: "constant"
value: 0.2
}
}
}
layer {
name: "inception_4a/relu_pool_proj"
type: "ReLU"
bottom: "inception_4a/pool_proj"
top: "inception_4a/pool_proj"
}
layer {
name: "inception_4a/output"
type: "Concat"
bottom: "inception_4a/1x1"
bottom: "inception_4a/3x3"
bottom: "inception_4a/5x5"
bottom: "inception_4a/pool_proj"
top: "inception_4a/output"
}
layer {
name: "loss1/ave_pool"
type: "Pooling"
bottom: "inception_4a/output"
top: "loss1/ave_pool"
pooling_param {
pool: AVE
kernel_size: 5
stride: 3
}
}
layer {
name: "loss1/conv"
type: "Convolution"
bottom: "loss1/ave_pool"
top: "loss1/conv"
param {
lr_mult: 1
decay_mult: 1
}
param {
lr_mult: 2
decay_mult: 0
}
convolution_param {
num_output: 128
kernel_size: 1
weight_filler {
type: "xavier"
std: 0.08
}
bias_filler {
type: "constant"
value: 0.2
}
}
}
layer {
name: "loss1/relu_conv"
type: "ReLU"
bottom: "loss1/conv"
top: "loss1/conv"
}
layer {
name: "loss1/fc"
type: "InnerProduct"
bottom: "loss1/conv"
top: "loss1/fc"
param {
lr_mult: 1
decay_mult: 1
}
param {
lr_mult: 2
decay_mult: 0
}
inner_product_param {
num_output: 1024
weight_filler {
type: "xavier"
std: 0.02
}
bias_filler {
type: "constant"
value: 0.2
}
}
}
layer {
name: "loss1/relu_fc"
type: "ReLU"
bottom: "loss1/fc"
top: "loss1/fc"
}
layer {
name: "loss1/drop_fc"
type: "Dropout"
bottom: "loss1/fc"
top: "loss1/fc"
dropout_param {
dropout_ratio: 0.7
}
}
layer {
name: "loss1/classifier"
type: "InnerProduct"
bottom: "loss1/fc"
top: "loss1/classifier"
param {
lr_mult: 1
decay_mult: 1
}
param {
lr_mult: 2
decay_mult: 0
}
inner_product_param {
num_output: 3
weight_filler {
type: "xavier"
std: 0.0009765625
}
bias_filler {
type: "constant"
value: 0
}
}
}
layer {
name: "loss1/loss"
type: "SoftmaxWithLoss"
bottom: "loss1/classifier"
bottom: "label"
top: "loss1/loss"
loss_weight: 0.3
}
layer {
name: "inception_4b/1x1"
type: "Convolution"
bottom: "inception_4a/output"
top: "inception_4b/1x1"
param {
lr_mult: 1
decay_mult: 1
}
param {
lr_mult: 2
decay_mult: 0
}
convolution_param {
num_output: 160
kernel_size: 1
weight_filler {
type: "xavier"
std: 0.03
}
bias_filler {
type: "constant"
value: 0.2
}
}
}
layer {
name: "inception_4b/relu_1x1"
type: "ReLU"
bottom: "inception_4b/1x1"
top: "inception_4b/1x1"
}
layer {
name: "inception_4b/3x3_reduce"
type: "Convolution"
bottom: "inception_4a/output"
top: "inception_4b/3x3_reduce"
param {
lr_mult: 1
decay_mult: 1
}
param {
lr_mult: 2
decay_mult: 0
}
convolution_param {
num_output: 112
kernel_size: 1
weight_filler {
type: "xavier"
std: 0.09
}
bias_filler {
type: "constant"
value: 0.2
}
}
}
layer {
name: "inception_4b/relu_3x3_reduce"
type: "ReLU"
bottom: "inception_4b/3x3_reduce"
top: "inception_4b/3x3_reduce"
}
layer {
name: "inception_4b/3x3"
type: "Convolution"
bottom: "inception_4b/3x3_reduce"
top: "inception_4b/3x3"
param {
lr_mult: 1
decay_mult: 1
}
param {
lr_mult: 2
decay_mult: 0
}
convolution_param {
num_output: 224
pad: 1
kernel_size: 3
weight_filler {
type: "xavier"
std: 0.03
}
bias_filler {
type: "constant"
value: 0.2
}
}
}
layer {
name: "inception_4b/relu_3x3"
type: "ReLU"
bottom: "inception_4b/3x3"
top: "inception_4b/3x3"
}
layer {
name: "inception_4b/5x5_reduce"
type: "Convolution"
bottom: "inception_4a/output"
top: "inception_4b/5x5_reduce"
param {
lr_mult: 1
decay_mult: 1
}
param {
lr_mult: 2
decay_mult: 0
}
convolution_param {
num_output: 24
kernel_size: 1
weight_filler {
type: "xavier"
std: 0.2
}
bias_filler {
type: "constant"
value: 0.2
}
}
}
layer {
name: "inception_4b/relu_5x5_reduce"
type: "ReLU"
bottom: "inception_4b/5x5_reduce"
top: "inception_4b/5x5_reduce"
}
layer {
name: "inception_4b/5x5"
type: "Convolution"
bottom: "inception_4b/5x5_reduce"
top: "inception_4b/5x5"
param {
lr_mult: 1
decay_mult: 1
}
param {
lr_mult: 2
decay_mult: 0
}
convolution_param {
num_output: 64
pad: 2
kernel_size: 5
weight_filler {
type: "xavier"
std: 0.03
}
bias_filler {
type: "constant"
value: 0.2
}
}
}
layer {
name: "inception_4b/relu_5x5"
type: "ReLU"
bottom: "inception_4b/5x5"
top: "inception_4b/5x5"
}
layer {
name: "inception_4b/pool"
type: "Pooling"
bottom: "inception_4a/output"
top: "inception_4b/pool"
pooling_param {
pool: MAX
kernel_size: 3
stride: 1
pad: 1
}
}
layer {
name: "inception_4b/pool_proj"
type: "Convolution"
bottom: "inception_4b/pool"
top: "inception_4b/pool_proj"
param {
lr_mult: 1
decay_mult: 1
}
param {
lr_mult: 2
decay_mult: 0
}
convolution_param {
num_output: 64
kernel_size: 1
weight_filler {
type: "xavier"
std: 0.1
}
bias_filler {
type: "constant"
value: 0.2
}
}
}
layer {
name: "inception_4b/relu_pool_proj"
type: "ReLU"
bottom: "inception_4b/pool_proj"
top: "inception_4b/pool_proj"
}
layer {
name: "inception_4b/output"
type: "Concat"
bottom: "inception_4b/1x1"
bottom: "inception_4b/3x3"
bottom: "inception_4b/5x5"
bottom: "inception_4b/pool_proj"
top: "inception_4b/output"
}
layer {
name: "inception_4c/1x1"
type: "Convolution"
bottom: "inception_4b/output"
top: "inception_4c/1x1"
param {
lr_mult: 1
decay_mult: 1
}
param {
lr_mult: 2
decay_mult: 0
}
convolution_param {
num_output: 128
kernel_size: 1
weight_filler {
type: "xavier"
std: 0.03
}
bias_filler {
type: "constant"
value: 0.2
}
}
}
layer {
name: "inception_4c/relu_1x1"
type: "ReLU"
bottom: "inception_4c/1x1"
top: "inception_4c/1x1"
}
layer {
name: "inception_4c/3x3_reduce"
type: "Convolution"
bottom: "inception_4b/output"
top: "inception_4c/3x3_reduce"
param {
lr_mult: 1
decay_mult: 1
}
param {
lr_mult: 2
decay_mult: 0
}
convolution_param {
num_output: 128
kernel_size: 1
weight_filler {
type: "xavier"
std: 0.09
}
bias_filler {
type: "constant"
value: 0.2
}
}
}
layer {
name: "inception_4c/relu_3x3_reduce"
type: "ReLU"
bottom: "inception_4c/3x3_reduce"
top: "inception_4c/3x3_reduce"
}
layer {
name: "inception_4c/3x3"
type: "Convolution"
bottom: "inception_4c/3x3_reduce"
top: "inception_4c/3x3"
param {
lr_mult: 1
decay_mult: 1
}
param {
lr_mult: 2
decay_mult: 0
}
convolution_param {
num_output: 256
pad: 1
kernel_size: 3
weight_filler {
type: "xavier"
std: 0.03
}
bias_filler {
type: "constant"
value: 0.2
}
}
}
layer {
name: "inception_4c/relu_3x3"
type: "ReLU"
bottom: "inception_4c/3x3"
top: "inception_4c/3x3"
}
layer {
name: "inception_4c/5x5_reduce"
type: "Convolution"
bottom: "inception_4b/output"
top: "inception_4c/5x5_reduce"
param {
lr_mult: 1
decay_mult: 1
}
param {
lr_mult: 2
decay_mult: 0
}
convolution_param {
num_output: 24
kernel_size: 1
weight_filler {
type: "xavier"
std: 0.2
}
bias_filler {
type: "constant"
value: 0.2
}
}
}
layer {
name: "inception_4c/relu_5x5_reduce"
type: "ReLU"
bottom: "inception_4c/5x5_reduce"
top: "inception_4c/5x5_reduce"
}
layer {
name: "inception_4c/5x5"
type: "Convolution"
bottom: "inception_4c/5x5_reduce"
top: "inception_4c/5x5"
param {
lr_mult: 1
decay_mult: 1
}
param {
lr_mult: 2
decay_mult: 0
}
convolution_param {
num_output: 64
pad: 2
kernel_size: 5
weight_filler {
type: "xavier"
std: 0.03
}
bias_filler {
type: "constant"
value: 0.2
}
}
}
layer {
name: "inception_4c/relu_5x5"
type: "ReLU"
bottom: "inception_4c/5x5"
top: "inception_4c/5x5"
}
layer {
name: "inception_4c/pool"
type: "Pooling"
bottom: "inception_4b/output"
top: "inception_4c/pool"
pooling_param {
pool: MAX
kernel_size: 3
stride: 1
pad: 1
}
}
layer {
name: "inception_4c/pool_proj"
type: "Convolution"
bottom: "inception_4c/pool"
top: "inception_4c/pool_proj"
param {
lr_mult: 1
decay_mult: 1
}
param {
lr_mult: 2
decay_mult: 0
}
convolution_param {
num_output: 64
kernel_size: 1
weight_filler {
type: "xavier"
std: 0.1
}
bias_filler {
type: "constant"
value: 0.2
}
}
}
layer {
name: "inception_4c/relu_pool_proj"
type: "ReLU"
bottom: "inception_4c/pool_proj"
top: "inception_4c/pool_proj"
}
layer {
name: "inception_4c/output"
type: "Concat"
bottom: "inception_4c/1x1"
bottom: "inception_4c/3x3"
bottom: "inception_4c/5x5"
bottom: "inception_4c/pool_proj"
top: "inception_4c/output"
}
layer {
name: "inception_4d/1x1"
type: "Convolution"
bottom: "inception_4c/output"
top: "inception_4d/1x1"
param {
lr_mult: 1
decay_mult: 1
}
param {
lr_mult: 2
decay_mult: 0
}
convolution_param {
num_output: 112
kernel_size: 1
weight_filler {
type: "xavier"
std: 0.03
}
bias_filler {
type: "constant"
value: 0.2
}
}
}
layer {
name: "inception_4d/relu_1x1"
type: "ReLU"
bottom: "inception_4d/1x1"
top: "inception_4d/1x1"
}
layer {
name: "inception_4d/3x3_reduce"
type: "Convolution"
bottom: "inception_4c/output"
top: "inception_4d/3x3_reduce"
param {
lr_mult: 1
decay_mult: 1
}
param {
lr_mult: 2
decay_mult: 0
}
convolution_param {
num_output: 144
kernel_size: 1
weight_filler {
type: "xavier"
std: 0.09
}
bias_filler {
type: "constant"
value: 0.2
}
}
}
layer {
name: "inception_4d/relu_3x3_reduce"
type: "ReLU"
bottom: "inception_4d/3x3_reduce"
top: "inception_4d/3x3_reduce"
}
layer {
name: "inception_4d/3x3"
type: "Convolution"
bottom: "inception_4d/3x3_reduce"
top: "inception_4d/3x3"
param {
lr_mult: 1
decay_mult: 1
}
param {
lr_mult: 2
decay_mult: 0
}
convolution_param {
num_output: 288
pad: 1
kernel_size: 3
weight_filler {
type: "xavier"
std: 0.03
}
bias_filler {
type: "constant"
value: 0.2
}
}
}
layer {
name: "inception_4d/relu_3x3"
type: "ReLU"
bottom: "inception_4d/3x3"
top: "inception_4d/3x3"
}
layer {
name: "inception_4d/5x5_reduce"
type: "Convolution"
bottom: "inception_4c/output"
top: "inception_4d/5x5_reduce"
param {
lr_mult: 1
decay_mult: 1
}
param {
lr_mult: 2
decay_mult: 0
}
convolution_param {
num_output: 32
kernel_size: 1
weight_filler {
type: "xavier"
std: 0.2
}
bias_filler {
type: "constant"
value: 0.2
}
}
}
layer {
name: "inception_4d/relu_5x5_reduce"
type: "ReLU"
bottom: "inception_4d/5x5_reduce"
top: "inception_4d/5x5_reduce"
}
layer {
name: "inception_4d/5x5"
type: "Convolution"
bottom: "inception_4d/5x5_reduce"
top: "inception_4d/5x5"
param {
lr_mult: 1
decay_mult: 1
}
param {
lr_mult: 2
decay_mult: 0
}
convolution_param {
num_output: 64
pad: 2
kernel_size: 5
weight_filler {
type: "xavier"
std: 0.03
}
bias_filler {
type: "constant"
value: 0.2
}
}
}
layer {
name: "inception_4d/relu_5x5"
type: "ReLU"
bottom: "inception_4d/5x5"
top: "inception_4d/5x5"
}
layer {
name: "inception_4d/pool"
type: "Pooling"
bottom: "inception_4c/output"
top: "inception_4d/pool"
pooling_param {
pool: MAX
kernel_size: 3
stride: 1
pad: 1
}
}
layer {
name: "inception_4d/pool_proj"
type: "Convolution"
bottom: "inception_4d/pool"
top: "inception_4d/pool_proj"
param {
lr_mult: 1
decay_mult: 1
}
param {
lr_mult: 2
decay_mult: 0
}
convolution_param {
num_output: 64
kernel_size: 1
weight_filler {
type: "xavier"
std: 0.1
}
bias_filler {
type: "constant"
value: 0.2
}
}
}
layer {
name: "inception_4d/relu_pool_proj"
type: "ReLU"
bottom: "inception_4d/pool_proj"
top: "inception_4d/pool_proj"
}
layer {
name: "inception_4d/output"
type: "Concat"
bottom: "inception_4d/1x1"
bottom: "inception_4d/3x3"
bottom: "inception_4d/5x5"
bottom: "inception_4d/pool_proj"
top: "inception_4d/output"
}
layer {
name: "loss2/ave_pool"
type: "Pooling"
bottom: "inception_4d/output"
top: "loss2/ave_pool"
pooling_param {
pool: AVE
kernel_size: 5
stride: 3
}
}
layer {
name: "loss2/conv"
type: "Convolution"
bottom: "loss2/ave_pool"
top: "loss2/conv"
param {
lr_mult: 1
decay_mult: 1
}
param {
lr_mult: 2
decay_mult: 0
}
convolution_param {
num_output: 128
kernel_size: 1
weight_filler {
type: "xavier"
std: 0.08
}
bias_filler {
type: "constant"
value: 0.2
}
}
}
layer {
name: "loss2/relu_conv"
type: "ReLU"
bottom: "loss2/conv"
top: "loss2/conv"
}
layer {
name: "loss2/fc"
type: "InnerProduct"
bottom: "loss2/conv"
top: "loss2/fc"
param {
lr_mult: 1
decay_mult: 1
}
param {
lr_mult: 2
decay_mult: 0
}
inner_product_param {
num_output: 1024
weight_filler {
type: "xavier"
std: 0.02
}
bias_filler {
type: "constant"
value: 0.2
}
}
}
layer {
name: "loss2/relu_fc"
type: "ReLU"
bottom: "loss2/fc"
top: "loss2/fc"
}
layer {
name: "loss2/drop_fc"
type: "Dropout"
bottom: "loss2/fc"
top: "loss2/fc"
dropout_param {
dropout_ratio: 0.7
}
}
layer {
name: "loss2/classifier"
type: "InnerProduct"
bottom: "loss2/fc"
top: "loss2/classifier"
param {
lr_mult: 1
decay_mult: 1
}
param {
lr_mult: 2
decay_mult: 0
}
inner_product_param {
num_output: 3
weight_filler {
type: "xavier"
std: 0.0009765625
}
bias_filler {
type: "constant"
value: 0
}
}
}
layer {
name: "loss2/loss"
type: "SoftmaxWithLoss"
bottom: "loss2/classifier"
bottom: "label"
top: "loss2/loss"
loss_weight: 0.3
}
layer {
name: "inception_4e/1x1"
type: "Convolution"
bottom: "inception_4d/output"
top: "inception_4e/1x1"
param {
lr_mult: 1
decay_mult: 1
}
param {
lr_mult: 2
decay_mult: 0
}
convolution_param {
num_output: 256
kernel_size: 1
weight_filler {
type: "xavier"
std: 0.03
}
bias_filler {
type: "constant"
value: 0.2
}
}
}
layer {
name: "inception_4e/relu_1x1"
type: "ReLU"
bottom: "inception_4e/1x1"
top: "inception_4e/1x1"
}
layer {
name: "inception_4e/3x3_reduce"
type: "Convolution"
bottom: "inception_4d/output"
top: "inception_4e/3x3_reduce"
param {
lr_mult: 1
decay_mult: 1
}
param {
lr_mult: 2
decay_mult: 0
}
convolution_param {
num_output: 160
kernel_size: 1
weight_filler {
type: "xavier"
std: 0.09
}
bias_filler {
type: "constant"
value: 0.2
}
}
}
layer {
name: "inception_4e/relu_3x3_reduce"
type: "ReLU"
bottom: "inception_4e/3x3_reduce"
top: "inception_4e/3x3_reduce"
}
layer {
name: "inception_4e/3x3"
type: "Convolution"
bottom: "inception_4e/3x3_reduce"
top: "inception_4e/3x3"
param {
lr_mult: 1
decay_mult: 1
}
param {
lr_mult: 2
decay_mult: 0
}
convolution_param {
num_output: 320
pad: 1
kernel_size: 3
weight_filler {
type: "xavier"
std: 0.03
}
bias_filler {
type: "constant"
value: 0.2
}
}
}
layer {
name: "inception_4e/relu_3x3"
type: "ReLU"
bottom: "inception_4e/3x3"
top: "inception_4e/3x3"
}
layer {
name: "inception_4e/5x5_reduce"
type: "Convolution"
bottom: "inception_4d/output"
top: "inception_4e/5x5_reduce"
param {
lr_mult: 1
decay_mult: 1
}
param {
lr_mult: 2
decay_mult: 0
}
convolution_param {
num_output: 32
kernel_size: 1
weight_filler {
type: "xavier"
std: 0.2
}
bias_filler {
type: "constant"
value: 0.2
}
}
}
layer {
I1129 22:32:10.563596  1829 layer_factory.hpp:77] Creating layer train-data
I1129 22:32:10.565213  1833 db_lmdb.cpp:35] Opened lmdb /home/ubuntu/digits/digits/jobs/20171129-221421-0e17/train_db
I1129 22:32:10.565227  1829 net.cpp:94] Creating Layer train-data
I1129 22:32:10.565244  1829 net.cpp:409] train-data -> data
I1129 22:32:10.565277  1829 net.cpp:409] train-data -> label
I1129 22:32:10.565302  1829 data_transformer.cpp:25] Loading mean file from: /home/ubuntu/digits/digits/jobs/20171129-221421-0e17/mean.binaryproto
I1129 22:32:10.576222  1829 data_layer.cpp:78] ReshapePrefetch 32, 3, 224, 224
I1129 22:32:10.576270  1829 data_layer.cpp:83] output data size: 32,3,224,224
I1129 22:32:10.619562  1829 net.cpp:144] Setting up train-data
I1129 22:32:10.619608  1829 net.cpp:151] Top shape: 32 3 224 224 (4816896)
I1129 22:32:10.619613  1829 net.cpp:151] Top shape: 32 (32)
I1129 22:32:10.619616  1829 net.cpp:159] Memory required for data: 19267712
I1129 22:32:10.619632  1829 layer_factory.hpp:77] Creating layer label_train-data_1_split
I1129 22:32:10.619652  1829 net.cpp:94] Creating Layer label_train-data_1_split
I1129 22:32:10.619658  1829 net.cpp:435] label_train-data_1_split <- label
I1129 22:32:10.619676  1829 net.cpp:409] label_train-data_1_split -> label_train-data_1_split_0
I1129 22:32:10.619688  1829 net.cpp:409] label_train-data_1_split -> label_train-data_1_split_1
I1129 22:32:10.619724  1829 net.cpp:409] label_train-data_1_split -> label_train-data_1_split_2
I1129 22:32:10.619799  1829 net.cpp:144] Setting up label_train-data_1_split
I1129 22:32:10.619807  1829 net.cpp:151] Top shape: 32 (32)
I1129 22:32:10.619809  1829 net.cpp:151] Top shape: 32 (32)
I1129 22:32:10.619814  1829 net.cpp:151] Top shape: 32 (32)
I1129 22:32:10.619817  1829 net.cpp:159] Memory required for data: 19268096
I1129 22:32:10.619820  1829 layer_factory.hpp:77] Creating layer conv1/7x7_s2
I1129 22:32:10.619850  1829 net.cpp:94] Creating Layer conv1/7x7_s2
I1129 22:32:10.619855  1829 net.cpp:435] conv1/7x7_s2 <- data
I1129 22:32:10.619863  1829 net.cpp:409] conv1/7x7_s2 -> conv1/7x7_s2
I1129 22:32:10.621348  1829 net.cpp:144] Setting up conv1/7x7_s2
I1129 22:32:10.621362  1829 net.cpp:151] Top shape: 32 64 112 112 (25690112)
I1129 22:32:10.621366  1829 net.cpp:159] Memory required for data: 122028544
I1129 22:32:10.621387  1829 layer_factory.hpp:77] Creating layer conv1/relu_7x7
I1129 22:32:10.621394  1829 net.cpp:94] Creating Layer conv1/relu_7x7
I1129 22:32:10.621398  1829 net.cpp:435] conv1/relu_7x7 <- conv1/7x7_s2
I1129 22:32:10.621404  1829 net.cpp:396] conv1/relu_7x7 -> conv1/7x7_s2 (in-place)
I1129 22:32:10.621419  1829 net.cpp:144] Setting up conv1/relu_7x7
I1129 22:32:10.621423  1829 net.cpp:151] Top shape: 32 64 112 112 (25690112)
I1129 22:32:10.621426  1829 net.cpp:159] Memory required for data: 224788992
I1129 22:32:10.621430  1829 layer_factory.hpp:77] Creating layer pool1/3x3_s2
I1129 22:32:10.621438  1829 net.cpp:94] Creating Layer pool1/3x3_s2
I1129 22:32:10.621441  1829 net.cpp:435] pool1/3x3_s2 <- conv1/7x7_s2
I1129 22:32:10.621446  1829 net.cpp:409] pool1/3x3_s2 -> pool1/3x3_s2
I1129 22:32:10.621500  1829 net.cpp:144] Setting up pool1/3x3_s2
I1129 22:32:10.621506  1829 net.cpp:151] Top shape: 32 64 56 56 (6422528)
I1129 22:32:10.621510  1829 net.cpp:159] Memory required for data: 250479104
I1129 22:32:10.621512  1829 layer_factory.hpp:77] Creating layer pool1/norm1
I1129 22:32:10.621523  1829 net.cpp:94] Creating Layer pool1/norm1
I1129 22:32:10.621526  1829 net.cpp:435] pool1/norm1 <- pool1/3x3_s2
I1129 22:32:10.621532  1829 net.cpp:409] pool1/norm1 -> pool1/norm1
I1129 22:32:10.622504  1829 net.cpp:144] Setting up pool1/norm1
I1129 22:32:10.622514  1829 net.cpp:151] Top shape: 32 64 56 56 (6422528)
I1129 22:32:10.622517  1829 net.cpp:159] Memory required for data: 276169216
I1129 22:32:10.622521  1829 layer_factory.hpp:77] Creating layer conv2/3x3_reduce
I1129 22:32:10.622534  1829 net.cpp:94] Creating Layer conv2/3x3_reduce
I1129 22:32:10.622539  1829 net.cpp:435] conv2/3x3_reduce <- pool1/norm1
I1129 22:32:10.622545  1829 net.cpp:409] conv2/3x3_reduce -> conv2/3x3_reduce
I1129 22:32:10.623478  1829 net.cpp:144] Setting up conv2/3x3_reduce
I1129 22:32:10.623492  1829 net.cpp:151] Top shape: 32 64 56 56 (6422528)
I1129 22:32:10.623494  1829 net.cpp:159] Memory required for data: 301859328
I1129 22:32:10.623504  1829 layer_factory.hpp:77] Creating layer conv2/relu_3x3_reduce
I1129 22:32:10.623512  1829 net.cpp:94] Creating Layer conv2/relu_3x3_reduce
I1129 22:32:10.623515  1829 net.cpp:435] conv2/relu_3x3_reduce <- conv2/3x3_reduce
I1129 22:32:10.623522  1829 net.cpp:396] conv2/relu_3x3_reduce -> conv2/3x3_reduce (in-place)
I1129 22:32:10.623530  1829 net.cpp:144] Setting up conv2/relu_3x3_reduce
I1129 22:32:10.623535  1829 net.cpp:151] Top shape: 32 64 56 56 (6422528)
I1129 22:32:10.623538  1829 net.cpp:159] Memory required for data: 327549440
I1129 22:32:10.623543  1829 layer_factory.hpp:77] Creating layer conv2/3x3
I1129 22:32:10.623553  1829 net.cpp:94] Creating Layer conv2/3x3
I1129 22:32:10.623558  1829 net.cpp:435] conv2/3x3 <- conv2/3x3_reduce
I1129 22:32:10.623564  1829 net.cpp:409] conv2/3x3 -> conv2/3x3
I1129 22:32:10.627578  1829 net.cpp:144] Setting up conv2/3x3
I1129 22:32:10.627600  1829 net.cpp:151] Top shape: 32 192 56 56 (19267584)
I1129 22:32:10.627606  1829 net.cpp:159] Memory required for data: 404619776
I1129 22:32:10.627620  1829 layer_factory.hpp:77] Creating layer conv2/relu_3x3
I1129 22:32:10.627671  1829 net.cpp:94] Creating Layer conv2/relu_3x3
I1129 22:32:10.627677  1829 net.cpp:435] conv2/relu_3x3 <- conv2/3x3
I1129 22:32:10.627688  1829 net.cpp:396] conv2/relu_3x3 -> conv2/3x3 (in-place)
I1129 22:32:10.627705  1829 net.cpp:144] Setting up conv2/relu_3x3
I1129 22:32:10.627712  1829 net.cpp:151] Top shape: 32 192 56 56 (19267584)
I1129 22:32:10.627715  1829 net.cpp:159] Memory required for data: 481690112
I1129 22:32:10.627718  1829 layer_factory.hpp:77] Creating layer conv2/norm2
I1129 22:32:10.627725  1829 net.cpp:94] Creating Layer conv2/norm2
I1129 22:32:10.627729  1829 net.cpp:435] conv2/norm2 <- conv2/3x3
I1129 22:32:10.627735  1829 net.cpp:409] conv2/norm2 -> conv2/norm2
I1129 22:32:10.627789  1829 net.cpp:144] Setting up conv2/norm2
I1129 22:32:10.627797  1829 net.cpp:151] Top shape: 32 192 56 56 (19267584)
I1129 22:32:10.627802  1829 net.cpp:159] Memory required for data: 558760448
I1129 22:32:10.627807  1829 layer_factory.hpp:77] Creating layer pool2/3x3_s2
I1129 22:32:10.627817  1829 net.cpp:94] Creating Layer pool2/3x3_s2
I1129 22:32:10.627823  1829 net.cpp:435] pool2/3x3_s2 <- conv2/norm2
I1129 22:32:10.627832  1829 net.cpp:409] pool2/3x3_s2 -> pool2/3x3_s2
I1129 22:32:10.627882  1829 net.cpp:144] Setting up pool2/3x3_s2
I1129 22:32:10.627892  1829 net.cpp:151] Top shape: 32 192 28 28 (4816896)
I1129 22:32:10.627898  1829 net.cpp:159] Memory required for data: 578028032
I1129 22:32:10.627905  1829 layer_factory.hpp:77] Creating layer pool2/3x3_s2_pool2/3x3_s2_0_split
I1129 22:32:10.627918  1829 net.cpp:94] Creating Layer pool2/3x3_s2_pool2/3x3_s2_0_split
I1129 22:32:10.627924  1829 net.cpp:435] pool2/3x3_s2_pool2/3x3_s2_0_split <- pool2/3x3_s2
I1129 22:32:10.627936  1829 net.cpp:409] pool2/3x3_s2_pool2/3x3_s2_0_split -> pool2/3x3_s2_pool2/3x3_s2_0_split_0
I1129 22:32:10.627952  1829 net.cpp:409] pool2/3x3_s2_pool2/3x3_s2_0_split -> pool2/3x3_s2_pool2/3x3_s2_0_split_1
I1129 22:32:10.627964  1829 net.cpp:409] pool2/3x3_s2_pool2/3x3_s2_0_split -> pool2/3x3_s2_pool2/3x3_s2_0_split_2
I1129 22:32:10.627974  1829 net.cpp:409] pool2/3x3_s2_pool2/3x3_s2_0_split -> pool2/3x3_s2_pool2/3x3_s2_0_split_3
I1129 22:32:10.628056  1829 net.cpp:144] Setting up pool2/3x3_s2_pool2/3x3_s2_0_split
I1129 22:32:10.628067  1829 net.cpp:151] Top shape: 32 192 28 28 (4816896)
I1129 22:32:10.628075  1829 net.cpp:151] Top shape: 32 192 28 28 (4816896)
I1129 22:32:10.628082  1829 net.cpp:151] Top shape: 32 192 28 28 (4816896)
I1129 22:32:10.628088  1829 net.cpp:151] Top shape: 32 192 28 28 (4816896)
I1129 22:32:10.628095  1829 net.cpp:159] Memory required for data: 655098368
I1129 22:32:10.628101  1829 layer_factory.hpp:77] Creating layer inception_3a/1x1
I1129 22:32:10.628118  1829 net.cpp:94] Creating Layer inception_3a/1x1
I1129 22:32:10.628124  1829 net.cpp:435] inception_3a/1x1 <- pool2/3x3_s2_pool2/3x3_s2_0_split_0
I1129 22:32:10.628134  1829 net.cpp:409] inception_3a/1x1 -> inception_3a/1x1
I1129 22:32:10.629627  1829 net.cpp:144] Setting up inception_3a/1x1
I1129 22:32:10.629644  1829 net.cpp:151] Top shape: 32 64 28 28 (1605632)
I1129 22:32:10.629650  1829 net.cpp:159] Memory required for data: 661520896
I1129 22:32:10.629662  1829 layer_factory.hpp:77] Creating layer inception_3a/relu_1x1
I1129 22:32:10.629673  1829 net.cpp:94] Creating Layer inception_3a/relu_1x1
I1129 22:32:10.629679  1829 net.cpp:435] inception_3a/relu_1x1 <- inception_3a/1x1
I1129 22:32:10.629689  1829 net.cpp:396] inception_3a/relu_1x1 -> inception_3a/1x1 (in-place)
I1129 22:32:10.629703  1829 net.cpp:144] Setting up inception_3a/relu_1x1
I1129 22:32:10.629709  1829 net.cpp:151] Top shape: 32 64 28 28 (1605632)
I1129 22:32:10.629714  1829 net.cpp:159] Memory required for data: 667943424
I1129 22:32:10.629719  1829 layer_factory.hpp:77] Creating layer inception_3a/3x3_reduce
I1129 22:32:10.629736  1829 net.cpp:94] Creating Layer inception_3a/3x3_reduce
I1129 22:32:10.629741  1829 net.cpp:435] inception_3a/3x3_reduce <- pool2/3x3_s2_pool2/3x3_s2_0_split_1
I1129 22:32:10.629751  1829 net.cpp:409] inception_3a/3x3_reduce -> inception_3a/3x3_reduce
I1129 22:32:10.631152  1829 net.cpp:144] Setting up inception_3a/3x3_reduce
I1129 22:32:10.631170  1829 net.cpp:151] Top shape: 32 96 28 28 (2408448)
I1129 22:32:10.631175  1829 net.cpp:159] Memory required for data: 677577216
I1129 22:32:10.631191  1829 layer_factory.hpp:77] Creating layer inception_3a/relu_3x3_reduce
I1129 22:32:10.631209  1829 net.cpp:94] Creating Layer inception_3a/relu_3x3_reduce
I1129 22:32:10.631217  1829 net.cpp:435] inception_3a/relu_3x3_reduce <- inception_3a/3x3_reduce
I1129 22:32:10.631227  1829 net.cpp:396] inception_3a/relu_3x3_reduce -> inception_3a/3x3_reduce (in-place)
I1129 22:32:10.631237  1829 net.cpp:144] Setting up inception_3a/relu_3x3_reduce
I1129 22:32:10.631244  1829 net.cpp:151] Top shape: 32 96 28 28 (2408448)
I1129 22:32:10.631250  1829 net.cpp:159] Memory required for data: 687211008
I1129 22:32:10.631254  1829 layer_factory.hpp:77] Creating layer inception_3a/3x3
I1129 22:32:10.631270  1829 net.cpp:94] Creating Layer inception_3a/3x3
I1129 22:32:10.631275  1829 net.cpp:435] inception_3a/3x3 <- inception_3a/3x3_reduce
I1129 22:32:10.631287  1829 net.cpp:409] inception_3a/3x3 -> inception_3a/3x3
I1129 22:32:10.632753  1829 net.cpp:144] Setting up inception_3a/3x3
I1129 22:32:10.632766  1829 net.cpp:151] Top shape: 32 128 28 28 (3211264)
I1129 22:32:10.632771  1829 net.cpp:159] Memory required for data: 700056064
I1129 22:32:10.632781  1829 layer_factory.hpp:77] Creating layer inception_3a/relu_3x3
I1129 22:32:10.632791  1829 net.cpp:94] Creating Layer inception_3a/relu_3x3
I1129 22:32:10.632797  1829 net.cpp:435] inception_3a/relu_3x3 <- inception_3a/3x3
I1129 22:32:10.632805  1829 net.cpp:396] inception_3a/relu_3x3 -> inception_3a/3x3 (in-place)
I1129 22:32:10.632817  1829 net.cpp:144] Setting up inception_3a/relu_3x3
I1129 22:32:10.632823  1829 net.cpp:151] Top shape: 32 128 28 28 (3211264)
I1129 22:32:10.632827  1829 net.cpp:159] Memory required for data: 712901120
I1129 22:32:10.632833  1829 layer_factory.hpp:77] Creating layer inception_3a/5x5_reduce
I1129 22:32:10.632848  1829 net.cpp:94] Creating Layer inception_3a/5x5_reduce
I1129 22:32:10.632853  1829 net.cpp:435] inception_3a/5x5_reduce <- pool2/3x3_s2_pool2/3x3_s2_0_split_2
I1129 22:32:10.632864  1829 net.cpp:409] inception_3a/5x5_reduce -> inception_3a/5x5_reduce
I1129 22:32:10.633262  1829 net.cpp:144] Setting up inception_3a/5x5_reduce
I1129 22:32:10.633278  1829 net.cpp:151] Top shape: 32 16 28 28 (401408)
I1129 22:32:10.633283  1829 net.cpp:159] Memory required for data: 714506752
I1129 22:32:10.633292  1829 layer_factory.hpp:77] Creating layer inception_3a/relu_5x5_reduce
I1129 22:32:10.633303  1829 net.cpp:94] Creating Layer inception_3a/relu_5x5_reduce
I1129 22:32:10.633309  1829 net.cpp:435] inception_3a/relu_5x5_reduce <- inception_3a/5x5_reduce
I1129 22:32:10.633319  1829 net.cpp:396] inception_3a/relu_5x5_reduce -> inception_3a/5x5_reduce (in-place)
I1129 22:32:10.633329  1829 net.cpp:144] Setting up inception_3a/relu_5x5_reduce
I1129 22:32:10.633337  1829 net.cpp:151] Top shape: 32 16 28 28 (401408)
I1129 22:32:10.633342  1829 net.cpp:159] Memory required for data: 716112384
I1129 22:32:10.633347  1829 layer_factory.hpp:77] Creating layer inception_3a/5x5
I1129 22:32:10.633361  1829 net.cpp:94] Creating Layer inception_3a/5x5
I1129 22:32:10.633368  1829 net.cpp:435] inception_3a/5x5 <- inception_3a/5x5_reduce
I1129 22:32:10.633379  1829 net.cpp:409] inception_3a/5x5 -> inception_3a/5x5
I1129 22:32:10.633819  1829 net.cpp:144] Setting up inception_3a/5x5
I1129 22:32:10.633831  1829 net.cpp:151] Top shape: 32 32 28 28 (802816)
I1129 22:32:10.633836  1829 net.cpp:159] Memory required for data: 719323648
I1129 22:32:10.633846  1829 layer_factory.hpp:77] Creating layer inception_3a/relu_5x5
I1129 22:32:10.633855  1829 net.cpp:94] Creating Layer inception_3a/relu_5x5
I1129 22:32:10.633860  1829 net.cpp:435] inception_3a/relu_5x5 <- inception_3a/5x5
I1129 22:32:10.633869  1829 net.cpp:396] inception_3a/relu_5x5 -> inception_3a/5x5 (in-place)
I1129 22:32:10.633879  1829 net.cpp:144] Setting up inception_3a/relu_5x5
I1129 22:32:10.633903  1829 net.cpp:151] Top shape: 32 32 28 28 (802816)
I1129 22:32:10.633908  1829 net.cpp:159] Memory required for data: 722534912
I1129 22:32:10.633913  1829 layer_factory.hpp:77] Creating layer inception_3a/pool
I1129 22:32:10.633924  1829 net.cpp:94] Creating Layer inception_3a/pool
I1129 22:32:10.633929  1829 net.cpp:435] inception_3a/pool <- pool2/3x3_s2_pool2/3x3_s2_0_split_3
I1129 22:32:10.633936  1829 net.cpp:409] inception_3a/pool -> inception_3a/pool
I1129 22:32:10.633990  1829 net.cpp:144] Setting up inception_3a/pool
I1129 22:32:10.634001  1829 net.cpp:151] Top shape: 32 192 28 28 (4816896)
I1129 22:32:10.634004  1829 net.cpp:159] Memory required for data: 741802496
I1129 22:32:10.634009  1829 layer_factory.hpp:77] Creating layer inception_3a/pool_proj
I1129 22:32:10.634024  1829 net.cpp:94] Creating Layer inception_3a/pool_proj
I1129 22:32:10.634032  1829 net.cpp:435] inception_3a/pool_proj <- inception_3a/pool
I1129 22:32:10.634042  1829 net.cpp:409] inception_3a/pool_proj -> inception_3a/pool_proj
I1129 22:32:10.634403  1829 net.cpp:144] Setting up inception_3a/pool_proj
I1129 22:32:10.634413  1829 net.cpp:151] Top shape: 32 32 28 28 (802816)
I1129 22:32:10.634419  1829 net.cpp:159] Memory required for data: 745013760
I1129 22:32:10.634435  1829 layer_factory.hpp:77] Creating layer inception_3a/relu_pool_proj
I1129 22:32:10.634445  1829 net.cpp:94] Creating Layer inception_3a/relu_pool_proj
I1129 22:32:10.634451  1829 net.cpp:435] inception_3a/relu_pool_proj <- inception_3a/pool_proj
I1129 22:32:10.634460  1829 net.cpp:396] inception_3a/relu_pool_proj -> inception_3a/pool_proj (in-place)
I1129 22:32:10.634471  1829 net.cpp:144] Setting up inception_3a/relu_pool_proj
I1129 22:32:10.634477  1829 net.cpp:151] Top shape: 32 32 28 28 (802816)
I1129 22:32:10.634481  1829 net.cpp:159] Memory required for data: 748225024
I1129 22:32:10.634487  1829 layer_factory.hpp:77] Creating layer inception_3a/output
I1129 22:32:10.634498  1829 net.cpp:94] Creating Layer inception_3a/output
I1129 22:32:10.634503  1829 net.cpp:435] inception_3a/output <- inception_3a/1x1
I1129 22:32:10.634510  1829 net.cpp:435] inception_3a/output <- inception_3a/3x3
I1129 22:32:10.634516  1829 net.cpp:435] inception_3a/output <- inception_3a/5x5
I1129 22:32:10.634521  1829 net.cpp:435] inception_3a/output <- inception_3a/pool_proj
I1129 22:32:10.634528  1829 net.cpp:409] inception_3a/output -> inception_3a/output
I1129 22:32:10.634564  1829 net.cpp:144] Setting up inception_3a/output
I1129 22:32:10.634573  1829 net.cpp:151] Top shape: 32 256 28 28 (6422528)
I1129 22:32:10.634578  1829 net.cpp:159] Memory required for data: 773915136
I1129 22:32:10.634582  1829 layer_factory.hpp:77] Creating layer inception_3a/output_inception_3a/output_0_split
I1129 22:32:10.634593  1829 net.cpp:94] Creating Layer inception_3a/output_inception_3a/output_0_split
I1129 22:32:10.634599  1829 net.cpp:435] inception_3a/output_inception_3a/output_0_split <- inception_3a/output
I1129 22:32:10.634608  1829 net.cpp:409] inception_3a/output_inception_3a/output_0_split -> inception_3a/output_inception_3a/output_0_split_0
I1129 22:32:10.634619  1829 net.cpp:409] inception_3a/output_inception_3a/output_0_split -> inception_3a/output_inception_3a/output_0_split_1
I1129 22:32:10.634629  1829 net.cpp:409] inception_3a/output_inception_3a/output_0_split -> inception_3a/output_inception_3a/output_0_split_2
I1129 22:32:10.634642  1829 net.cpp:409] inception_3a/output_inception_3a/output_0_split -> inception_3a/output_inception_3a/output_0_split_3
I1129 22:32:10.634718  1829 net.cpp:144] Setting up inception_3a/output_inception_3a/output_0_split
I1129 22:32:10.634727  1829 net.cpp:151] Top shape: 32 256 28 28 (6422528)
I1129 22:32:10.634733  1829 net.cpp:151] Top shape: 32 256 28 28 (6422528)
I1129 22:32:10.634740  1829 net.cpp:151] Top shape: 32 256 28 28 (6422528)
I1129 22:32:10.634747  1829 net.cpp:151] Top shape: 32 256 28 28 (6422528)
I1129 22:32:10.634750  1829 net.cpp:159] Memory required for data: 876675584
I1129 22:32:10.634768  1829 layer_factory.hpp:77] Creating layer inception_3b/1x1
I1129 22:32:10.634784  1829 net.cpp:94] Creating Layer inception_3b/1x1
I1129 22:32:10.634789  1829 net.cpp:435] inception_3b/1x1 <- inception_3a/output_inception_3a/output_0_split_0
I1129 22:32:10.634800  1829 net.cpp:409] inception_3b/1x1 -> inception_3b/1x1
I1129 22:32:10.635445  1829 net.cpp:144] Setting up inception_3b/1x1
I1129 22:32:10.635458  1829 net.cpp:151] Top shape: 32 128 28 28 (3211264)
I1129 22:32:10.635462  1829 net.cpp:159] Memory required for data: 889520640
I1129 22:32:10.635473  1829 layer_factory.hpp:77] Creating layer inception_3b/relu_1x1
I1129 22:32:10.635481  1829 net.cpp:94] Creating Layer inception_3b/relu_1x1
I1129 22:32:10.635488  1829 net.cpp:435] inception_3b/relu_1x1 <- inception_3b/1x1
I1129 22:32:10.635495  1829 net.cpp:396] inception_3b/relu_1x1 -> inception_3b/1x1 (in-place)
I1129 22:32:10.635505  1829 net.cpp:144] Setting up inception_3b/relu_1x1
I1129 22:32:10.635511  1829 net.cpp:151] Top shape: 32 128 28 28 (3211264)
I1129 22:32:10.635517  1829 net.cpp:159] Memory required for data: 902365696
I1129 22:32:10.635521  1829 layer_factory.hpp:77] Creating layer inception_3b/3x3_reduce
I1129 22:32:10.635536  1829 net.cpp:94] Creating Layer inception_3b/3x3_reduce
I1129 22:32:10.635541  1829 net.cpp:435] inception_3b/3x3_reduce <- inception_3a/output_inception_3a/output_0_split_1
I1129 22:32:10.635553  1829 net.cpp:409] inception_3b/3x3_reduce -> inception_3b/3x3_reduce
I1129 22:32:10.636204  1829 net.cpp:144] Setting up inception_3b/3x3_reduce
I1129 22:32:10.636217  1829 net.cpp:151] Top shape: 32 128 28 28 (3211264)
I1129 22:32:10.636221  1829 net.cpp:159] Memory required for data: 915210752
I1129 22:32:10.636232  1829 layer_factory.hpp:77] Creating layer inception_3b/relu_3x3_reduce
I1129 22:32:10.636240  1829 net.cpp:94] Creating Layer inception_3b/relu_3x3_reduce
I1129 22:32:10.636246  1829 net.cpp:435] inception_3b/relu_3x3_reduce <- inception_3b/3x3_reduce
I1129 22:32:10.636253  1829 net.cpp:396] inception_3b/relu_3x3_reduce -> inception_3b/3x3_reduce (in-place)
I1129 22:32:10.636265  1829 net.cpp:144] Setting up inception_3b/relu_3x3_reduce
I1129 22:32:10.636273  1829 net.cpp:151] Top shape: 32 128 28 28 (3211264)
I1129 22:32:10.636277  1829 net.cpp:159] Memory required for data: 928055808
I1129 22:32:10.636282  1829 layer_factory.hpp:77] Creating layer inception_3b/3x3
I1129 22:32:10.636308  1829 net.cpp:94] Creating Layer inception_3b/3x3
I1129 22:32:10.636314  1829 net.cpp:435] inception_3b/3x3 <- inception_3b/3x3_reduce
I1129 22:32:10.636323  1829 net.cpp:409] inception_3b/3x3 -> inception_3b/3x3
I1129 22:32:10.639792  1829 net.cpp:144] Setting up inception_3b/3x3
I1129 22:32:10.639811  1829 net.cpp:151] Top shape: 32 192 28 28 (4816896)
I1129 22:32:10.639816  1829 net.cpp:159] Memory required for data: 947323392
I1129 22:32:10.639825  1829 layer_factory.hpp:77] Creating layer inception_3b/relu_3x3
I1129 22:32:10.639835  1829 net.cpp:94] Creating Layer inception_3b/relu_3x3
I1129 22:32:10.639842  1829 net.cpp:435] inception_3b/relu_3x3 <- inception_3b/3x3
I1129 22:32:10.639853  1829 net.cpp:396] inception_3b/relu_3x3 -> inception_3b/3x3 (in-place)
I1129 22:32:10.639865  1829 net.cpp:144] Setting up inception_3b/relu_3x3
I1129 22:32:10.639873  1829 net.cpp:151] Top shape: 32 192 28 28 (4816896)
I1129 22:32:10.639878  1829 net.cpp:159] Memory required for data: 966590976
I1129 22:32:10.639883  1829 layer_factory.hpp:77] Creating layer inception_3b/5x5_reduce
I1129 22:32:10.639901  1829 net.cpp:94] Creating Layer inception_3b/5x5_reduce
I1129 22:32:10.639907  1829 net.cpp:435] inception_3b/5x5_reduce <- inception_3a/output_inception_3a/output_0_split_2
I1129 22:32:10.639917  1829 net.cpp:409] inception_3b/5x5_reduce -> inception_3b/5x5_reduce
I1129 22:32:10.640322  1829 net.cpp:144] Setting up inception_3b/5x5_reduce
I1129 22:32:10.640333  1829 net.cpp:151] Top shape: 32 32 28 28 (802816)
I1129 22:32:10.640337  1829 net.cpp:159] Memory required for data: 969802240
I1129 22:32:10.640347  1829 layer_factory.hpp:77] Creating layer inception_3b/relu_5x5_reduce
I1129 22:32:10.640374  1829 net.cpp:94] Creating Layer inception_3b/relu_5x5_reduce
I1129 22:32:10.640380  1829 net.cpp:435] inception_3b/relu_5x5_reduce <- inception_3b/5x5_reduce
I1129 22:32:10.640388  1829 net.cpp:396] inception_3b/relu_5x5_reduce -> inception_3b/5x5_reduce (in-place)
I1129 22:32:10.640403  1829 net.cpp:144] Setting up inception_3b/relu_5x5_reduce
I1129 22:32:10.640409  1829 net.cpp:151] Top shape: 32 32 28 28 (802816)
I1129 22:32:10.640414  1829 net.cpp:159] Memory required for data: 973013504
I1129 22:32:10.640419  1829 layer_factory.hpp:77] Creating layer inception_3b/5x5
I1129 22:32:10.640432  1829 net.cpp:94] Creating Layer inception_3b/5x5
I1129 22:32:10.640437  1829 net.cpp:435] inception_3b/5x5 <- inception_3b/5x5_reduce
I1129 22:32:10.640449  1829 net.cpp:409] inception_3b/5x5 -> inception_3b/5x5
I1129 22:32:10.642418  1829 net.cpp:144] Setting up inception_3b/5x5
I1129 22:32:10.642436  1829 net.cpp:151] Top shape: 32 96 28 28 (2408448)
I1129 22:32:10.642441  1829 net.cpp:159] Memory required for data: 982647296
I1129 22:32:10.642452  1829 layer_factory.hpp:77] Creating layer inception_3b/relu_5x5
I1129 22:32:10.642460  1829 net.cpp:94] Creating Layer inception_3b/relu_5x5
I1129 22:32:10.642467  1829 net.cpp:435] inception_3b/relu_5x5 <- inception_3b/5x5
I1129 22:32:10.642477  1829 net.cpp:396] inception_3b/relu_5x5 -> inception_3b/5x5 (in-place)
I1129 22:32:10.642488  1829 net.cpp:144] Setting up inception_3b/relu_5x5
I1129 22:32:10.642495  1829 net.cpp:151] Top shape: 32 96 28 28 (2408448)
I1129 22:32:10.642500  1829 net.cpp:159] Memory required for data: 992281088
I1129 22:32:10.642505  1829 layer_factory.hpp:77] Creating layer inception_3b/pool
I1129 22:32:10.642516  1829 net.cpp:94] Creating Layer inception_3b/pool
I1129 22:32:10.642523  1829 net.cpp:435] inception_3b/pool <- inception_3a/output_inception_3a/output_0_split_3
I1129 22:32:10.642531  1829 net.cpp:409] inception_3b/pool -> inception_3b/pool
I1129 22:32:10.642585  1829 net.cpp:144] Setting up inception_3b/pool
I1129 22:32:10.642598  1829 net.cpp:151] Top shape: 32 256 28 28 (6422528)
I1129 22:32:10.642603  1829 net.cpp:159] Memory required for data: 1017971200
I1129 22:32:10.642608  1829 layer_factory.hpp:77] Creating layer inception_3b/pool_proj
I1129 22:32:10.642624  1829 net.cpp:94] Creating Layer inception_3b/pool_proj
I1129 22:32:10.642630  1829 net.cpp:435] inception_3b/pool_proj <- inception_3b/pool
I1129 22:32:10.642639  1829 net.cpp:409] inception_3b/pool_proj -> inception_3b/pool_proj
I1129 22:32:10.643157  1829 net.cpp:144] Setting up inception_3b/pool_proj
I1129 22:32:10.643169  1829 net.cpp:151] Top shape: 32 64 28 28 (1605632)
I1129 22:32:10.643174  1829 net.cpp:159] Memory required for data: 1024393728
I1129 22:32:10.643183  1829 layer_factory.hpp:77] Creating layer inception_3b/relu_pool_proj
I1129 22:32:10.643196  1829 net.cpp:94] Creating Layer inception_3b/relu_pool_proj
I1129 22:32:10.643203  1829 net.cpp:435] inception_3b/relu_pool_proj <- inception_3b/pool_proj
I1129 22:32:10.643213  1829 net.cpp:396] inception_3b/relu_pool_proj -> inception_3b/pool_proj (in-place)
I1129 22:32:10.643224  1829 net.cpp:144] Setting up inception_3b/relu_pool_proj
I1129 22:32:10.643232  1829 net.cpp:151] Top shape: 32 64 28 28 (1605632)
I1129 22:32:10.643236  1829 net.cpp:159] Memory required for data: 1030816256
I1129 22:32:10.643241  1829 layer_factory.hpp:77] Creating layer inception_3b/output
I1129 22:32:10.643250  1829 net.cpp:94] Creating Layer inception_3b/output
I1129 22:32:10.643256  1829 net.cpp:435] inception_3b/output <- inception_3b/1x1
I1129 22:32:10.643262  1829 net.cpp:435] inception_3b/output <- inception_3b/3x3
I1129 22:32:10.643268  1829 net.cpp:435] inception_3b/output <- inception_3b/5x5
I1129 22:32:10.643273  1829 net.cpp:435] inception_3b/output <- inception_3b/pool_proj
I1129 22:32:10.643283  1829 net.cpp:409] inception_3b/output -> inception_3b/output
I1129 22:32:10.643319  1829 net.cpp:144] Setting up inception_3b/output
I1129 22:32:10.643327  1829 net.cpp:151] Top shape: 32 480 28 28 (12042240)
I1129 22:32:10.643347  1829 net.cpp:159] Memory required for data: 1078985216
I1129 22:32:10.643353  1829 layer_factory.hpp:77] Creating layer pool3/3x3_s2
I1129 22:32:10.643363  1829 net.cpp:94] Creating Layer pool3/3x3_s2
I1129 22:32:10.643369  1829 net.cpp:435] pool3/3x3_s2 <- inception_3b/output
I1129 22:32:10.643378  1829 net.cpp:409] pool3/3x3_s2 -> pool3/3x3_s2
I1129 22:32:10.643431  1829 net.cpp:144] Setting up pool3/3x3_s2
I1129 22:32:10.643440  1829 net.cpp:151] Top shape: 32 480 14 14 (3010560)
I1129 22:32:10.643445  1829 net.cpp:159] Memory required for data: 1091027456
I1129 22:32:10.643450  1829 layer_factory.hpp:77] Creating layer pool3/3x3_s2_pool3/3x3_s2_0_split
I1129 22:32:10.643460  1829 net.cpp:94] Creating Layer pool3/3x3_s2_pool3/3x3_s2_0_split
I1129 22:32:10.643465  1829 net.cpp:435] pool3/3x3_s2_pool3/3x3_s2_0_split <- pool3/3x3_s2
I1129 22:32:10.643476  1829 net.cpp:409] pool3/3x3_s2_pool3/3x3_s2_0_split -> pool3/3x3_s2_pool3/3x3_s2_0_split_0
I1129 22:32:10.643486  1829 net.cpp:409] pool3/3x3_s2_pool3/3x3_s2_0_split -> pool3/3x3_s2_pool3/3x3_s2_0_split_1
I1129 22:32:10.643496  1829 net.cpp:409] pool3/3x3_s2_pool3/3x3_s2_0_split -> pool3/3x3_s2_pool3/3x3_s2_0_split_2
I1129 22:32:10.643507  1829 net.cpp:409] pool3/3x3_s2_pool3/3x3_s2_0_split -> pool3/3x3_s2_pool3/3x3_s2_0_split_3
I1129 22:32:10.643582  1829 net.cpp:144] Setting up pool3/3x3_s2_pool3/3x3_s2_0_split
I1129 22:32:10.643591  1829 net.cpp:151] Top shape: 32 480 14 14 (3010560)
I1129 22:32:10.643602  1829 net.cpp:151] Top shape: 32 480 14 14 (3010560)
I1129 22:32:10.643609  1829 net.cpp:151] Top shape: 32 480 14 14 (3010560)
I1129 22:32:10.643615  1829 net.cpp:151] Top shape: 32 480 14 14 (3010560)
I1129 22:32:10.643618  1829 net.cpp:159] Memory required for data: 1139196416
I1129 22:32:10.643625  1829 layer_factory.hpp:77] Creating layer inception_4a/1x1
I1129 22:32:10.643637  1829 net.cpp:94] Creating Layer inception_4a/1x1
I1129 22:32:10.643642  1829 net.cpp:435] inception_4a/1x1 <- pool3/3x3_s2_pool3/3x3_s2_0_split_0
I1129 22:32:10.643653  1829 net.cpp:409] inception_4a/1x1 -> inception_4a/1x1
I1129 22:32:10.644922  1829 net.cpp:144] Setting up inception_4a/1x1
I1129 22:32:10.644932  1829 net.cpp:151] Top shape: 32 192 14 14 (1204224)
I1129 22:32:10.644937  1829 net.cpp:159] Memory required for data: 1144013312
I1129 22:32:10.644946  1829 layer_factory.hpp:77] Creating layer inception_4a/relu_1x1
I1129 22:32:10.644958  1829 net.cpp:94] Creating Layer inception_4a/relu_1x1
I1129 22:32:10.644963  1829 net.cpp:435] inception_4a/relu_1x1 <- inception_4a/1x1
I1129 22:32:10.644971  1829 net.cpp:396] inception_4a/relu_1x1 -> inception_4a/1x1 (in-place)
I1129 22:32:10.644980  1829 net.cpp:144] Setting up inception_4a/relu_1x1
I1129 22:32:10.644987  1829 net.cpp:151] Top shape: 32 192 14 14 (1204224)
I1129 22:32:10.644992  1829 net.cpp:159] Memory required for data: 1148830208
I1129 22:32:10.644997  1829 layer_factory.hpp:77] Creating layer inception_4a/3x3_reduce
I1129 22:32:10.645011  1829 net.cpp:94] Creating Layer inception_4a/3x3_reduce
I1129 22:32:10.645018  1829 net.cpp:435] inception_4a/3x3_reduce <- pool3/3x3_s2_pool3/3x3_s2_0_split_1
I1129 22:32:10.645030  1829 net.cpp:409] inception_4a/3x3_reduce -> inception_4a/3x3_reduce
I1129 22:32:10.645875  1829 net.cpp:144] Setting up inception_4a/3x3_reduce
I1129 22:32:10.645889  1829 net.cpp:151] Top shape: 32 96 14 14 (602112)
I1129 22:32:10.645895  1829 net.cpp:159] Memory required for data: 1151238656
I1129 22:32:10.645911  1829 layer_factory.hpp:77] Creating layer inception_4a/relu_3x3_reduce
I1129 22:32:10.645923  1829 net.cpp:94] Creating Layer inception_4a/relu_3x3_reduce
I1129 22:32:10.645928  1829 net.cpp:435] inception_4a/relu_3x3_reduce <- inception_4a/3x3_reduce
I1129 22:32:10.645938  1829 net.cpp:396] inception_4a/relu_3x3_reduce -> inception_4a/3x3_reduce (in-place)
I1129 22:32:10.645947  1829 net.cpp:144] Setting up inception_4a/relu_3x3_reduce
I1129 22:32:10.645954  1829 net.cpp:151] Top shape: 32 96 14 14 (602112)
I1129 22:32:10.645972  1829 net.cpp:159] Memory required for data: 1153647104
I1129 22:32:10.645979  1829 layer_factory.hpp:77] Creating layer inception_4a/3x3
I1129 22:32:10.645995  1829 net.cpp:94] Creating Layer inception_4a/3x3
I1129 22:32:10.646000  1829 net.cpp:435] inception_4a/3x3 <- inception_4a/3x3_reduce
I1129 22:32:10.646013  1829 net.cpp:409] inception_4a/3x3 -> inception_4a/3x3
I1129 22:32:10.649031  1829 net.cpp:144] Setting up inception_4a/3x3
I1129 22:32:10.649065  1829 net.cpp:151] Top shape: 32 208 14 14 (1304576)
I1129 22:32:10.649070  1829 net.cpp:159] Memory required for data: 1158865408
I1129 22:32:10.649081  1829 layer_factory.hpp:77] Creating layer inception_4a/relu_3x3
I1129 22:32:10.649096  1829 net.cpp:94] Creating Layer inception_4a/relu_3x3
I1129 22:32:10.649101  1829 net.cpp:435] inception_4a/relu_3x3 <- inception_4a/3x3
I1129 22:32:10.649112  1829 net.cpp:396] inception_4a/relu_3x3 -> inception_4a/3x3 (in-place)
I1129 22:32:10.649123  1829 net.cpp:144] Setting up inception_4a/relu_3x3
I1129 22:32:10.649132  1829 net.cpp:151] Top shape: 32 208 14 14 (1304576)
I1129 22:32:10.649137  1829 net.cpp:159] Memory required for data: 1164083712
I1129 22:32:10.649140  1829 layer_factory.hpp:77] Creating layer inception_4a/5x5_reduce
I1129 22:32:10.649152  1829 net.cpp:94] Creating Layer inception_4a/5x5_reduce
I1129 22:32:10.649159  1829 net.cpp:435] inception_4a/5x5_reduce <- pool3/3x3_s2_pool3/3x3_s2_0_split_2
I1129 22:32:10.649170  1829 net.cpp:409] inception_4a/5x5_reduce -> inception_4a/5x5_reduce
I1129 22:32:10.649574  1829 net.cpp:144] Setting up inception_4a/5x5_reduce
I1129 22:32:10.649588  1829 net.cpp:151] Top shape: 32 16 14 14 (100352)
I1129 22:32:10.649595  1829 net.cpp:159] Memory required for data: 1164485120
I1129 22:32:10.649603  1829 layer_factory.hpp:77] Creating layer inception_4a/relu_5x5_reduce
I1129 22:32:10.649611  1829 net.cpp:94] Creating Layer inception_4a/relu_5x5_reduce
I1129 22:32:10.649616  1829 net.cpp:435] inception_4a/relu_5x5_reduce <- inception_4a/5x5_reduce
I1129 22:32:10.649626  1829 net.cpp:396] inception_4a/relu_5x5_reduce -> inception_4a/5x5_reduce (in-place)
I1129 22:32:10.649636  1829 net.cpp:144] Setting up inception_4a/relu_5x5_reduce
I1129 22:32:10.649641  1829 net.cpp:151] Top shape: 32 16 14 14 (100352)
I1129 22:32:10.649646  1829 net.cpp:159] Memory required for data: 1164886528
I1129 22:32:10.649652  1829 layer_factory.hpp:77] Creating layer inception_4a/5x5
I1129 22:32:10.649665  1829 net.cpp:94] Creating Layer inception_4a/5x5
I1129 22:32:10.649670  1829 net.cpp:435] inception_4a/5x5 <- inception_4a/5x5_reduce
I1129 22:32:10.649684  1829 net.cpp:409] inception_4a/5x5 -> inception_4a/5x5
I1129 22:32:10.650207  1829 net.cpp:144] Setting up inception_4a/5x5
I1129 22:32:10.650218  1829 net.cpp:151] Top shape: 32 48 14 14 (301056)
I1129 22:32:10.650223  1829 net.cpp:159] Memory required for data: 1166090752
I1129 22:32:10.650233  1829 layer_factory.hpp:77] Creating layer inception_4a/relu_5x5
I1129 22:32:10.650243  1829 net.cpp:94] Creating Layer inception_4a/relu_5x5
I1129 22:32:10.650249  1829 net.cpp:435] inception_4a/relu_5x5 <- inception_4a/5x5
I1129 22:32:10.650256  1829 net.cpp:396] inception_4a/relu_5x5 -> inception_4a/5x5 (in-place)
I1129 22:32:10.650266  1829 net.cpp:144] Setting up inception_4a/relu_5x5
I1129 22:32:10.650274  1829 net.cpp:151] Top shape: 32 48 14 14 (301056)
I1129 22:32:10.650277  1829 net.cpp:159] Memory required for data: 1167294976
I1129 22:32:10.650282  1829 layer_factory.hpp:77] Creating layer inception_4a/pool
I1129 22:32:10.650291  1829 net.cpp:94] Creating Layer inception_4a/pool
I1129 22:32:10.650297  1829 net.cpp:435] inception_4a/pool <- pool3/3x3_s2_pool3/3x3_s2_0_split_3
I1129 22:32:10.650305  1829 net.cpp:409] inception_4a/pool -> inception_4a/pool
I1129 22:32:10.650358  1829 net.cpp:144] Setting up inception_4a/pool
I1129 22:32:10.650368  1829 net.cpp:151] Top shape: 32 480 14 14 (3010560)
I1129 22:32:10.650373  1829 net.cpp:159] Memory required for data: 1179337216
I1129 22:32:10.650378  1829 layer_factory.hpp:77] Creating layer inception_4a/pool_proj
I1129 22:32:10.650408  1829 net.cpp:94] Creating Layer inception_4a/pool_proj
I1129 22:32:10.650413  1829 net.cpp:435] inception_4a/pool_proj <- inception_4a/pool
I1129 22:32:10.650426  1829 net.cpp:409] inception_4a/pool_proj -> inception_4a/pool_proj
I1129 22:32:10.651077  1829 net.cpp:144] Setting up inception_4a/pool_proj
I1129 22:32:10.651088  1829 net.cpp:151] Top shape: 32 64 14 14 (401408)
I1129 22:32:10.651093  1829 net.cpp:159] Memory required for data: 1180942848
I1129 22:32:10.651103  1829 layer_factory.hpp:77] Creating layer inception_4a/relu_pool_proj
I1129 22:32:10.651111  1829 net.cpp:94] Creating Layer inception_4a/relu_pool_proj
I1129 22:32:10.651118  1829 net.cpp:435] inception_4a/relu_pool_proj <- inception_4a/pool_proj
I1129 22:32:10.651126  1829 net.cpp:396] inception_4a/relu_pool_proj -> inception_4a/pool_proj (in-place)
I1129 22:32:10.651137  1829 net.cpp:144] Setting up inception_4a/relu_pool_proj
I1129 22:32:10.651144  1829 net.cpp:151] Top shape: 32 64 14 14 (401408)
I1129 22:32:10.651147  1829 net.cpp:159] Memory required for data: 1182548480
I1129 22:32:10.651152  1829 layer_factory.hpp:77] Creating layer inception_4a/output
I1129 22:32:10.651163  1829 net.cpp:94] Creating Layer inception_4a/output
I1129 22:32:10.651168  1829 net.cpp:435] inception_4a/output <- inception_4a/1x1
I1129 22:32:10.651175  1829 net.cpp:435] inception_4a/output <- inception_4a/3x3
I1129 22:32:10.651180  1829 net.cpp:435] inception_4a/output <- inception_4a/5x5
I1129 22:32:10.651186  1829 net.cpp:435] inception_4a/output <- inception_4a/pool_proj
I1129 22:32:10.651195  1829 net.cpp:409] inception_4a/output -> inception_4a/output
I1129 22:32:10.651229  1829 net.cpp:144] Setting up inception_4a/output
I1129 22:32:10.651237  1829 net.cpp:151] Top shape: 32 512 14 14 (3211264)
I1129 22:32:10.651242  1829 net.cpp:159] Memory required for data: 1195393536
I1129 22:32:10.651247  1829 layer_factory.hpp:77] Creating layer inception_4a/output_inception_4a/output_0_split
I1129 22:32:10.651258  1829 net.cpp:94] Creating Layer inception_4a/output_inception_4a/output_0_split
I1129 22:32:10.651264  1829 net.cpp:435] inception_4a/output_inception_4a/output_0_split <- inception_4a/output
I1129 22:32:10.651274  1829 net.cpp:409] inception_4a/output_inception_4a/output_0_split -> inception_4a/output_inception_4a/output_0_split_0
I1129 22:32:10.651285  1829 net.cpp:409] inception_4a/output_inception_4a/output_0_split -> inception_4a/output_inception_4a/output_0_split_1
I1129 22:32:10.651296  1829 net.cpp:409] inception_4a/output_inception_4a/output_0_split -> inception_4a/output_inception_4a/output_0_split_2
I1129 22:32:10.651310  1829 net.cpp:409] inception_4a/output_inception_4a/output_0_split -> inception_4a/output_inception_4a/output_0_split_3
I1129 22:32:10.651321  1829 net.cpp:409] inception_4a/output_inception_4a/output_0_split -> inception_4a/output_inception_4a/output_0_split_4
I1129 22:32:10.651417  1829 net.cpp:144] Setting up inception_4a/output_inception_4a/output_0_split
I1129 22:32:10.651428  1829 net.cpp:151] Top shape: 32 512 14 14 (3211264)
I1129 22:32:10.651434  1829 net.cpp:151] Top shape: 32 512 14 14 (3211264)
I1129 22:32:10.651443  1829 net.cpp:151] Top shape: 32 512 14 14 (3211264)
I1129 22:32:10.651448  1829 net.cpp:151] Top shape: 32 512 14 14 (3211264)
I1129 22:32:10.651454  1829 net.cpp:151] Top shape: 32 512 14 14 (3211264)
I1129 22:32:10.651458  1829 net.cpp:159] Memory required for data: 1259618816
I1129 22:32:10.651464  1829 layer_factory.hpp:77] Creating layer loss1/ave_pool
I1129 22:32:10.651473  1829 net.cpp:94] Creating Layer loss1/ave_pool
I1129 22:32:10.651479  1829 net.cpp:435] loss1/ave_pool <- inception_4a/output_inception_4a/output_0_split_0
I1129 22:32:10.651489  1829 net.cpp:409] loss1/ave_pool -> loss1/ave_pool
I1129 22:32:10.651535  1829 net.cpp:144] Setting up loss1/ave_pool
I1129 22:32:10.651543  1829 net.cpp:151] Top shape: 32 512 4 4 (262144)
I1129 22:32:10.651547  1829 net.cpp:159] Memory required for data: 1260667392
I1129 22:32:10.651552  1829 layer_factory.hpp:77] Creating layer loss1/conv
I1129 22:32:10.651582  1829 net.cpp:94] Creating Layer loss1/conv
I1129 22:32:10.651589  1829 net.cpp:435] loss1/conv <- loss1/ave_pool
I1129 22:32:10.651599  1829 net.cpp:409] loss1/conv -> loss1/conv
I1129 22:32:10.652600  1829 net.cpp:144] Setting up loss1/conv
I1129 22:32:10.652613  1829 net.cpp:151] Top shape: 32 128 4 4 (65536)
I1129 22:32:10.652618  1829 net.cpp:159] Memory required for data: 1260929536
I1129 22:32:10.652627  1829 layer_factory.hpp:77] Creating layer loss1/relu_conv
I1129 22:32:10.652637  1829 net.cpp:94] Creating Layer loss1/relu_conv
I1129 22:32:10.652642  1829 net.cpp:435] loss1/relu_conv <- loss1/conv
I1129 22:32:10.652652  1829 net.cpp:396] loss1/relu_conv -> loss1/conv (in-place)
I1129 22:32:10.652662  1829 net.cpp:144] Setting up loss1/relu_conv
I1129 22:32:10.652667  1829 net.cpp:151] Top shape: 32 128 4 4 (65536)
I1129 22:32:10.652673  1829 net.cpp:159] Memory required for data: 1261191680
I1129 22:32:10.652678  1829 layer_factory.hpp:77] Creating layer loss1/fc
I1129 22:32:10.652690  1829 net.cpp:94] Creating Layer loss1/fc
I1129 22:32:10.652694  1829 net.cpp:435] loss1/fc <- loss1/conv
I1129 22:32:10.652705  1829 net.cpp:409] loss1/fc -> loss1/fc
I1129 22:32:10.679916  1829 net.cpp:144] Setting up loss1/fc
I1129 22:32:10.679940  1829 net.cpp:151] Top shape: 32 1024 (32768)
I1129 22:32:10.679945  1829 net.cpp:159] Memory required for data: 1261322752
I1129 22:32:10.679957  1829 layer_factory.hpp:77] Creating layer loss1/relu_fc
I1129 22:32:10.679970  1829 net.cpp:94] Creating Layer loss1/relu_fc
I1129 22:32:10.679975  1829 net.cpp:435] loss1/relu_fc <- loss1/fc
I1129 22:32:10.679986  1829 net.cpp:396] loss1/relu_fc -> loss1/fc (in-place)
I1129 22:32:10.680001  1829 net.cpp:144] Setting up loss1/relu_fc
I1129 22:32:10.680006  1829 net.cpp:151] Top shape: 32 1024 (32768)
I1129 22:32:10.680011  1829 net.cpp:159] Memory required for data: 1261453824
I1129 22:32:10.680016  1829 layer_factory.hpp:77] Creating layer loss1/drop_fc
I1129 22:32:10.680047  1829 net.cpp:94] Creating Layer loss1/drop_fc
I1129 22:32:10.680052  1829 net.cpp:435] loss1/drop_fc <- loss1/fc
I1129 22:32:10.680058  1829 net.cpp:396] loss1/drop_fc -> loss1/fc (in-place)
I1129 22:32:10.680097  1829 net.cpp:144] Setting up loss1/drop_fc
I1129 22:32:10.680106  1829 net.cpp:151] Top shape: 32 1024 (32768)
I1129 22:32:10.680110  1829 net.cpp:159] Memory required for data: 1261584896
I1129 22:32:10.680116  1829 layer_factory.hpp:77] Creating layer loss1/classifier
I1129 22:32:10.680130  1829 net.cpp:94] Creating Layer loss1/classifier
I1129 22:32:10.680136  1829 net.cpp:435] loss1/classifier <- loss1/fc
I1129 22:32:10.680146  1829 net.cpp:409] loss1/classifier -> loss1/classifier
I1129 22:32:10.680321  1829 net.cpp:144] Setting up loss1/classifier
I1129 22:32:10.680331  1829 net.cpp:151] Top shape: 32 3 (96)
I1129 22:32:10.680337  1829 net.cpp:159] Memory required for data: 1261585280
I1129 22:32:10.680346  1829 layer_factory.hpp:77] Creating layer loss1/loss
I1129 22:32:10.680357  1829 net.cpp:94] Creating Layer loss1/loss
I1129 22:32:10.680362  1829 net.cpp:435] loss1/loss <- loss1/classifier
I1129 22:32:10.680369  1829 net.cpp:435] loss1/loss <- label_train-data_1_split_0
I1129 22:32:10.680377  1829 net.cpp:409] loss1/loss -> loss1/loss
I1129 22:32:10.680390  1829 layer_factory.hpp:77] Creating layer loss1/loss
I1129 22:32:10.680514  1829 net.cpp:144] Setting up loss1/loss
I1129 22:32:10.680523  1829 net.cpp:151] Top shape: (1)
I1129 22:32:10.680527  1829 net.cpp:154]     with loss weight 0.3
I1129 22:32:10.680569  1829 net.cpp:159] Memory required for data: 1261585284
I1129 22:32:10.680575  1829 layer_factory.hpp:77] Creating layer inception_4b/1x1
I1129 22:32:10.680591  1829 net.cpp:94] Creating Layer inception_4b/1x1
I1129 22:32:10.680596  1829 net.cpp:435] inception_4b/1x1 <- inception_4a/output_inception_4a/output_0_split_1
I1129 22:32:10.680608  1829 net.cpp:409] inception_4b/1x1 -> inception_4b/1x1
I1129 22:32:10.681790  1829 net.cpp:144] Setting up inception_4b/1x1
I1129 22:32:10.681821  1829 net.cpp:151] Top shape: 32 160 14 14 (1003520)
I1129 22:32:10.681826  1829 net.cpp:159] Memory required for data: 1265599364
I1129 22:32:10.681835  1829 layer_factory.hpp:77] Creating layer inception_4b/relu_1x1
I1129 22:32:10.681845  1829 net.cpp:94] Creating Layer inception_4b/relu_1x1
I1129 22:32:10.681852  1829 net.cpp:435] inception_4b/relu_1x1 <- inception_4b/1x1
I1129 22:32:10.681861  1829 net.cpp:396] inception_4b/relu_1x1 -> inception_4b/1x1 (in-place)
I1129 22:32:10.681871  1829 net.cpp:144] Setting up inception_4b/relu_1x1
I1129 22:32:10.681879  1829 net.cpp:151] Top shape: 32 160 14 14 (1003520)
I1129 22:32:10.681888  1829 net.cpp:159] Memory required for data: 1269613444
I1129 22:32:10.681896  1829 layer_factory.hpp:77] Creating layer inception_4b/3x3_reduce
I1129 22:32:10.681912  1829 net.cpp:94] Creating Layer inception_4b/3x3_reduce
I1129 22:32:10.681921  1829 net.cpp:435] inception_4b/3x3_reduce <- inception_4a/output_inception_4a/output_0_split_2
I1129 22:32:10.681936  1829 net.cpp:409] inception_4b/3x3_reduce -> inception_4b/3x3_reduce
I1129 22:32:10.683727  1829 net.cpp:144] Setting up inception_4b/3x3_reduce
I1129 22:32:10.683743  1829 net.cpp:151] Top shape: 32 112 14 14 (702464)
I1129 22:32:10.683748  1829 net.cpp:159] Memory required for data: 1272423300
I1129 22:32:10.683759  1829 layer_factory.hpp:77] Creating layer inception_4b/relu_3x3_reduce
I1129 22:32:10.683769  1829 net.cpp:94] Creating Layer inception_4b/relu_3x3_reduce
I1129 22:32:10.683775  1829 net.cpp:435] inception_4b/relu_3x3_reduce <- inception_4b/3x3_reduce
I1129 22:32:10.683785  1829 net.cpp:396] inception_4b/relu_3x3_reduce -> inception_4b/3x3_reduce (in-place)
I1129 22:32:10.683797  1829 net.cpp:144] Setting up inception_4b/relu_3x3_reduce
I1129 22:32:10.683804  1829 net.cpp:151] Top shape: 32 112 14 14 (702464)
I1129 22:32:10.683809  1829 net.cpp:159] Memory required for data: 1275233156
I1129 22:32:10.683815  1829 layer_factory.hpp:77] Creating layer inception_4b/3x3
I1129 22:32:10.683830  1829 net.cpp:94] Creating Layer inception_4b/3x3
I1129 22:32:10.683835  1829 net.cpp:435] inception_4b/3x3 <- inception_4b/3x3_reduce
I1129 22:32:10.683845  1829 net.cpp:409] inception_4b/3x3 -> inception_4b/3x3
I1129 22:32:10.687081  1829 net.cpp:144] Setting up inception_4b/3x3
I1129 22:32:10.687095  1829 net.cpp:151] Top shape: 32 224 14 14 (1404928)
I1129 22:32:10.687098  1829 net.cpp:159] Memory required for data: 1280852868
I1129 22:32:10.687105  1829 layer_factory.hpp:77] Creating layer inception_4b/relu_3x3
I1129 22:32:10.687114  1829 net.cpp:94] Creating Layer inception_4b/relu_3x3
I1129 22:32:10.687119  1829 net.cpp:435] inception_4b/relu_3x3 <- inception_4b/3x3
I1129 22:32:10.687126  1829 net.cpp:396] inception_4b/relu_3x3 -> inception_4b/3x3 (in-place)
I1129 22:32:10.687134  1829 net.cpp:144] Setting up inception_4b/relu_3x3
I1129 22:32:10.687139  1829 net.cpp:151] Top shape: 32 224 14 14 (1404928)
I1129 22:32:10.687142  1829 net.cpp:159] Memory required for data: 1286472580
I1129 22:32:10.687145  1829 layer_factory.hpp:77] Creating layer inception_4b/5x5_reduce
I1129 22:32:10.687155  1829 net.cpp:94] Creating Layer inception_4b/5x5_reduce
I1129 22:32:10.687160  1829 net.cpp:435] inception_4b/5x5_reduce <- inception_4a/output_inception_4a/output_0_split_3
I1129 22:32:10.687167  1829 net.cpp:409] inception_4b/5x5_reduce -> inception_4b/5x5_reduce
I1129 22:32:10.687472  1829 net.cpp:144] Setting up inception_4b/5x5_reduce
I1129 22:32:10.687479  1829 net.cpp:151] Top shape: 32 24 14 14 (150528)
I1129 22:32:10.687481  1829 net.cpp:159] Memory required for data: 1287074692
I1129 22:32:10.687487  1829 layer_factory.hpp:77] Creating layer inception_4b/relu_5x5_reduce
I1129 22:32:10.687494  1829 net.cpp:94] Creating Layer inception_4b/relu_5x5_reduce
I1129 22:32:10.687496  1829 net.cpp:435] inception_4b/relu_5x5_reduce <- inception_4b/5x5_reduce
I1129 22:32:10.687503  1829 net.cpp:396] inception_4b/relu_5x5_reduce -> inception_4b/5x5_reduce (in-place)
I1129 22:32:10.687510  1829 net.cpp:144] Setting up inception_4b/relu_5x5_reduce
I1129 22:32:10.687527  1829 net.cpp:151] Top shape: 32 24 14 14 (150528)
I1129 22:32:10.687530  1829 net.cpp:159] Memory required for data: 1287676804
I1129 22:32:10.687533  1829 layer_factory.hpp:77] Creating layer inception_4b/5x5
I1129 22:32:10.687544  1829 net.cpp:94] Creating Layer inception_4b/5x5
I1129 22:32:10.687547  1829 net.cpp:435] inception_4b/5x5 <- inception_4b/5x5_reduce
I1129 22:32:10.687554  1829 net.cpp:409] inception_4b/5x5 -> inception_4b/5x5
I1129 22:32:10.687988  1829 net.cpp:144] Setting up inception_4b/5x5
I1129 22:32:10.687995  1829 net.cpp:151] Top shape: 32 64 14 14 (401408)
I1129 22:32:10.687999  1829 net.cpp:159] Memory required for data: 1289282436
I1129 22:32:10.688004  1829 layer_factory.hpp:77] Creating layer inception_4b/relu_5x5
I1129 22:32:10.688009  1829 net.cpp:94] Creating Layer inception_4b/relu_5x5
I1129 22:32:10.688014  1829 net.cpp:435] inception_4b/relu_5x5 <- inception_4b/5x5
I1129 22:32:10.688020  1829 net.cpp:396] inception_4b/relu_5x5 -> inception_4b/5x5 (in-place)
I1129 22:32:10.688026  1829 net.cpp:144] Setting up inception_4b/relu_5x5
I1129 22:32:10.688030  1829 net.cpp:151] Top shape: 32 64 14 14 (401408)
I1129 22:32:10.688033  1829 net.cpp:159] Memory required for data: 1290888068
I1129 22:32:10.688035  1829 layer_factory.hpp:77] Creating layer inception_4b/pool
I1129 22:32:10.688045  1829 net.cpp:94] Creating Layer inception_4b/pool
I1129 22:32:10.688047  1829 net.cpp:435] inception_4b/pool <- inception_4a/output_inception_4a/output_0_split_4
I1129 22:32:10.688053  1829 net.cpp:409] inception_4b/pool -> inception_4b/pool
I1129 22:32:10.688105  1829 net.cpp:144] Setting up inception_4b/pool
I1129 22:32:10.688112  1829 net.cpp:151] Top shape: 32 512 14 14 (3211264)
I1129 22:32:10.688114  1829 net.cpp:159] Memory required for data: 1303733124
I1129 22:32:10.688118  1829 layer_factory.hpp:77] Creating layer inception_4b/pool_proj
I1129 22:32:10.688127  1829 net.cpp:94] Creating Layer inception_4b/pool_proj
I1129 22:32:10.688130  1829 net.cpp:435] inception_4b/pool_proj <- inception_4b/pool
I1129 22:32:10.688138  1829 net.cpp:409] inception_4b/pool_proj -> inception_4b/pool_proj
I1129 22:32:10.688531  1829 net.cpp:144] Setting up inception_4b/pool_proj
I1129 22:32:10.688539  1829 net.cpp:151] Top shape: 32 64 14 14 (401408)
I1129 22:32:10.688540  1829 net.cpp:159] Memory required for data: 1305338756
I1129 22:32:10.688545  1829 layer_factory.hpp:77] Creating layer inception_4b/relu_pool_proj
I1129 22:32:10.688552  1829 net.cpp:94] Creating Layer inception_4b/relu_pool_proj
I1129 22:32:10.688556  1829 net.cpp:435] inception_4b/relu_pool_proj <- inception_4b/pool_proj
I1129 22:32:10.688562  1829 net.cpp:396] inception_4b/relu_pool_proj -> inception_4b/pool_proj (in-place)
I1129 22:32:10.688568  1829 net.cpp:144] Setting up inception_4b/relu_pool_proj
I1129 22:32:10.688573  1829 net.cpp:151] Top shape: 32 64 14 14 (401408)
I1129 22:32:10.688576  1829 net.cpp:159] Memory required for data: 1306944388
I1129 22:32:10.688580  1829 layer_factory.hpp:77] Creating layer inception_4b/output
I1129 22:32:10.688586  1829 net.cpp:94] Creating Layer inception_4b/output
I1129 22:32:10.688591  1829 net.cpp:435] inception_4b/output <- inception_4b/1x1
I1129 22:32:10.688594  1829 net.cpp:435] inception_4b/output <- inception_4b/3x3
I1129 22:32:10.688597  1829 net.cpp:435] inception_4b/output <- inception_4b/5x5
I1129 22:32:10.688601  1829 net.cpp:435] inception_4b/output <- inception_4b/pool_proj
I1129 22:32:10.688606  1829 net.cpp:409] inception_4b/output -> inception_4b/output
I1129 22:32:10.688630  1829 net.cpp:144] Setting up inception_4b/output
I1129 22:32:10.688635  1829 net.cpp:151] Top shape: 32 512 14 14 (3211264)
I1129 22:32:10.688638  1829 net.cpp:159] Memory required for data: 1319789444
I1129 22:32:10.688642  1829 layer_factory.hpp:77] Creating layer inception_4b/output_inception_4b/output_0_split
I1129 22:32:10.688649  1829 net.cpp:94] Creating Layer inception_4b/output_inception_4b/output_0_split
I1129 22:32:10.688653  1829 net.cpp:435] inception_4b/output_inception_4b/output_0_split <- inception_4b/output
I1129 22:32:10.688669  1829 net.cpp:409] inception_4b/output_inception_4b/output_0_split -> inception_4b/output_inception_4b/output_0_split_0
I1129 22:32:10.688679  1829 net.cpp:409] inception_4b/output_inception_4b/output_0_split -> inception_4b/output_inception_4b/output_0_split_1
I1129 22:32:10.688685  1829 net.cpp:409] inception_4b/output_inception_4b/output_0_split -> inception_4b/output_inception_4b/output_0_split_2
I1129 22:32:10.688693  1829 net.cpp:409] inception_4b/output_inception_4b/output_0_split -> inception_4b/output_inception_4b/output_0_split_3
I1129 22:32:10.688751  1829 net.cpp:144] Setting up inception_4b/output_inception_4b/output_0_split
I1129 22:32:10.688758  1829 net.cpp:151] Top shape: 32 512 14 14 (3211264)
I1129 22:32:10.688762  1829 net.cpp:151] Top shape: 32 512 14 14 (3211264)
I1129 22:32:10.688766  1829 net.cpp:151] Top shape: 32 512 14 14 (3211264)
I1129 22:32:10.688769  1829 net.cpp:151] Top shape: 32 512 14 14 (3211264)
I1129 22:32:10.688772  1829 net.cpp:159] Memory required for data: 1371169668
I1129 22:32:10.688776  1829 layer_factory.hpp:77] Creating layer inception_4c/1x1
I1129 22:32:10.688786  1829 net.cpp:94] Creating Layer inception_4c/1x1
I1129 22:32:10.688789  1829 net.cpp:435] inception_4c/1x1 <- inception_4b/output_inception_4b/output_0_split_0
I1129 22:32:10.688797  1829 net.cpp:409] inception_4c/1x1 -> inception_4c/1x1
I1129 22:32:10.689680  1829 net.cpp:144] Setting up inception_4c/1x1
I1129 22:32:10.689697  1829 net.cpp:151] Top shape: 32 128 14 14 (802816)
I1129 22:32:10.689702  1829 net.cpp:159] Memory required for data: 1374380932
I1129 22:32:10.689714  1829 layer_factory.hpp:77] Creating layer inception_4c/relu_1x1
I1129 22:32:10.689726  1829 net.cpp:94] Creating Layer inception_4c/relu_1x1
I1129 22:32:10.689733  1829 net.cpp:435] inception_4c/relu_1x1 <- inception_4c/1x1
I1129 22:32:10.689743  1829 net.cpp:396] inception_4c/relu_1x1 -> inception_4c/1x1 (in-place)
I1129 22:32:10.689759  1829 net.cpp:144] Setting up inception_4c/relu_1x1
I1129 22:32:10.689766  1829 net.cpp:151] Top shape: 32 128 14 14 (802816)
I1129 22:32:10.689771  1829 net.cpp:159] Memory required for data: 1377592196
I1129 22:32:10.689776  1829 layer_factory.hpp:77] Creating layer inception_4c/3x3_reduce
I1129 22:32:10.689793  1829 net.cpp:94] Creating Layer inception_4c/3x3_reduce
I1129 22:32:10.689800  1829 net.cpp:435] inception_4c/3x3_reduce <- inception_4b/output_inception_4b/output_0_split_1
I1129 22:32:10.689813  1829 net.cpp:409] inception_4c/3x3_reduce -> inception_4c/3x3_reduce
I1129 22:32:10.690986  1829 net.cpp:144] Setting up inception_4c/3x3_reduce
I1129 22:32:10.691004  1829 net.cpp:151] Top shape: 32 128 14 14 (802816)
I1129 22:32:10.691009  1829 net.cpp:159] Memory required for data: 1380803460
I1129 22:32:10.691020  1829 layer_factory.hpp:77] Creating layer inception_4c/relu_3x3_reduce
I1129 22:32:10.691031  1829 net.cpp:94] Creating Layer inception_4c/relu_3x3_reduce
I1129 22:32:10.691040  1829 net.cpp:435] inception_4c/relu_3x3_reduce <- inception_4c/3x3_reduce
I1129 22:32:10.691051  1829 net.cpp:396] inception_4c/relu_3x3_reduce -> inception_4c/3x3_reduce (in-place)
I1129 22:32:10.691063  1829 net.cpp:144] Setting up inception_4c/relu_3x3_reduce
I1129 22:32:10.691072  1829 net.cpp:151] Top shape: 32 128 14 14 (802816)
I1129 22:32:10.691078  1829 net.cpp:159] Memory required for data: 1384014724
I1129 22:32:10.691084  1829 layer_factory.hpp:77] Creating layer inception_4c/3x3
I1129 22:32:10.691099  1829 net.cpp:94] Creating Layer inception_4c/3x3
I1129 22:32:10.691107  1829 net.cpp:435] inception_4c/3x3 <- inception_4c/3x3_reduce
I1129 22:32:10.691120  1829 net.cpp:409] inception_4c/3x3 -> inception_4c/3x3
I1129 22:32:10.695861  1829 net.cpp:144] Setting up inception_4c/3x3
I1129 22:32:10.695879  1829 net.cpp:151] Top shape: 32 256 14 14 (1605632)
I1129 22:32:10.695885  1829 net.cpp:159] Memory required for data: 1390437252
I1129 22:32:10.695919  1829 layer_factory.hpp:77] Creating layer inception_4c/relu_3x3
I1129 22:32:10.695935  1829 net.cpp:94] Creating Layer inception_4c/relu_3x3
I1129 22:32:10.695955  1829 net.cpp:435] inception_4c/relu_3x3 <- inception_4c/3x3
I1129 22:32:10.695969  1829 net.cpp:396] inception_4c/relu_3x3 -> inception_4c/3x3 (in-place)
I1129 22:32:10.695986  1829 net.cpp:144] Setting up inception_4c/relu_3x3
I1129 22:32:10.695993  1829 net.cpp:151] Top shape: 32 256 14 14 (1605632)
I1129 22:32:10.695999  1829 net.cpp:159] Memory required for data: 1396859780
I1129 22:32:10.696004  1829 layer_factory.hpp:77] Creating layer inception_4c/5x5_reduce
I1129 22:32:10.696020  1829 net.cpp:94] Creating Layer inception_4c/5x5_reduce
I1129 22:32:10.696027  1829 net.cpp:435] inception_4c/5x5_reduce <- inception_4b/output_inception_4b/output_0_split_2
I1129 22:32:10.696043  1829 net.cpp:409] inception_4c/5x5_reduce -> inception_4c/5x5_reduce
I1129 22:32:10.698962  1829 net.cpp:144] Setting up inception_4c/5x5_reduce
I1129 22:32:10.698982  1829 net.cpp:151] Top shape: 32 24 14 14 (150528)
I1129 22:32:10.698987  1829 net.cpp:159] Memory required for data: 1397461892
I1129 22:32:10.698997  1829 layer_factory.hpp:77] Creating layer inception_4c/relu_5x5_reduce
I1129 22:32:10.699007  1829 net.cpp:94] Creating Layer inception_4c/relu_5x5_reduce
I1129 22:32:10.699015  1829 net.cpp:435] inception_4c/relu_5x5_reduce <- inception_4c/5x5_reduce
I1129 22:32:10.699026  1829 net.cpp:396] inception_4c/relu_5x5_reduce -> inception_4c/5x5_reduce (in-place)
I1129 22:32:10.699038  1829 net.cpp:144] Setting up inception_4c/relu_5x5_reduce
I1129 22:32:10.699044  1829 net.cpp:151] Top shape: 32 24 14 14 (150528)
I1129 22:32:10.699050  1829 net.cpp:159] Memory required for data: 1398064004
I1129 22:32:10.699054  1829 layer_factory.hpp:77] Creating layer inception_4c/5x5
I1129 22:32:10.699069  1829 net.cpp:94] Creating Layer inception_4c/5x5
I1129 22:32:10.699074  1829 net.cpp:435] inception_4c/5x5 <- inception_4c/5x5_reduce
I1129 22:32:10.699085  1829 net.cpp:409] inception_4c/5x5 -> inception_4c/5x5
I1129 22:32:10.700678  1829 net.cpp:144] Setting up inception_4c/5x5
I1129 22:32:10.700695  1829 net.cpp:151] Top shape: 32 64 14 14 (401408)
I1129 22:32:10.700700  1829 net.cpp:159] Memory required for data: 1399669636
I1129 22:32:10.700711  1829 layer_factory.hpp:77] Creating layer inception_4c/relu_5x5
I1129 22:32:10.700719  1829 net.cpp:94] Creating Layer inception_4c/relu_5x5
I1129 22:32:10.700726  1829 net.cpp:435] inception_4c/relu_5x5 <- inception_4c/5x5
I1129 22:32:10.700736  1829 net.cpp:396] inception_4c/relu_5x5 -> inception_4c/5x5 (in-place)
I1129 22:32:10.700748  1829 net.cpp:144] Setting up inception_4c/relu_5x5
I1129 22:32:10.700755  1829 net.cpp:151] Top shape: 32 64 14 14 (401408)
I1129 22:32:10.700759  1829 net.cpp:159] Memory required for data: 1401275268
I1129 22:32:10.700763  1829 layer_factory.hpp:77] Creating layer inception_4c/pool
I1129 22:32:10.700776  1829 net.cpp:94] Creating Layer inception_4c/pool
I1129 22:32:10.700781  1829 net.cpp:435] inception_4c/pool <- inception_4b/output_inception_4b/output_0_split_3
I1129 22:32:10.700789  1829 net.cpp:409] inception_4c/pool -> inception_4c/pool
I1129 22:32:10.700848  1829 net.cpp:144] Setting up inception_4c/pool
I1129 22:32:10.700860  1829 net.cpp:151] Top shape: 32 512 14 14 (3211264)
I1129 22:32:10.700863  1829 net.cpp:159] Memory required for data: 1414120324
I1129 22:32:10.700868  1829 layer_factory.hpp:77] Creating layer inception_4c/pool_proj
I1129 22:32:10.700884  1829 net.cpp:94] Creating Layer inception_4c/pool_proj
I1129 22:32:10.700891  1829 net.cpp:435] inception_4c/pool_proj <- inception_4c/pool
I1129 22:32:10.700903  1829 net.cpp:409] inception_4c/pool_proj -> inception_4c/pool_proj
I1129 22:32:10.701622  1829 net.cpp:144] Setting up inception_4c/pool_proj
I1129 22:32:10.701637  1829 net.cpp:151] Top shape: 32 64 14 14 (401408)
I1129 22:32:10.701642  1829 net.cpp:159] Memory required for data: 1415725956
I1129 22:32:10.701652  1829 layer_factory.hpp:77] Creating layer inception_4c/relu_pool_proj
I1129 22:32:10.701659  1829 net.cpp:94] Creating Layer inception_4c/relu_pool_proj
I1129 22:32:10.701679  1829 net.cpp:435] inception_4c/relu_pool_proj <- inception_4c/pool_proj
I1129 22:32:10.701694  1829 net.cpp:396] inception_4c/relu_pool_proj -> inception_4c/pool_proj (in-place)
I1129 22:32:10.701704  1829 net.cpp:144] Setting up inception_4c/relu_pool_proj
I1129 22:32:10.701710  1829 net.cpp:151] Top shape: 32 64 14 14 (401408)
I1129 22:32:10.701714  1829 net.cpp:159] Memory required for data: 1417331588
I1129 22:32:10.701721  1829 layer_factory.hpp:77] Creating layer inception_4c/output
I1129 22:32:10.701732  1829 net.cpp:94] Creating Layer inception_4c/output
I1129 22:32:10.701737  1829 net.cpp:435] inception_4c/output <- inception_4c/1x1
I1129 22:32:10.701743  1829 net.cpp:435] inception_4c/output <- inception_4c/3x3
I1129 22:32:10.701750  1829 net.cpp:435] inception_4c/output <- inception_4c/5x5
I1129 22:32:10.701756  1829 net.cpp:435] inception_4c/output <- inception_4c/pool_proj
I1129 22:32:10.701763  1829 net.cpp:409] inception_4c/output -> inception_4c/output
I1129 22:32:10.701799  1829 net.cpp:144] Setting up inception_4c/output
I1129 22:32:10.701808  1829 net.cpp:151] Top shape: 32 512 14 14 (3211264)
I1129 22:32:10.701813  1829 net.cpp:159] Memory required for data: 1430176644
I1129 22:32:10.701818  1829 layer_factory.hpp:77] Creating layer inception_4c/output_inception_4c/output_0_split
I1129 22:32:10.701830  1829 net.cpp:94] Creating Layer inception_4c/output_inception_4c/output_0_split
I1129 22:32:10.701836  1829 net.cpp:435] inception_4c/output_inception_4c/output_0_split <- inception_4c/output
I1129 22:32:10.701848  1829 net.cpp:409] inception_4c/output_inception_4c/output_0_split -> inception_4c/output_inception_4c/output_0_split_0
I1129 22:32:10.701858  1829 net.cpp:409] inception_4c/output_inception_4c/output_0_split -> inception_4c/output_inception_4c/output_0_split_1
I1129 22:32:10.701866  1829 net.cpp:409] inception_4c/output_inception_4c/output_0_split -> inception_4c/output_inception_4c/output_0_split_2
I1129 22:32:10.701876  1829 net.cpp:409] inception_4c/output_inception_4c/output_0_split -> inception_4c/output_inception_4c/output_0_split_3
I1129 22:32:10.701961  1829 net.cpp:144] Setting up inception_4c/output_inception_4c/output_0_split
I1129 22:32:10.701968  1829 net.cpp:151] Top shape: 32 512 14 14 (3211264)
I1129 22:32:10.701974  1829 net.cpp:151] Top shape: 32 512 14 14 (3211264)
I1129 22:32:10.701982  1829 net.cpp:151] Top shape: 32 512 14 14 (3211264)
I1129 22:32:10.701987  1829 net.cpp:151] Top shape: 32 512 14 14 (3211264)
I1129 22:32:10.701992  1829 net.cpp:159] Memory required for data: 1481556868
I1129 22:32:10.701997  1829 layer_factory.hpp:77] Creating layer inception_4d/1x1
I1129 22:32:10.702013  1829 net.cpp:94] Creating Layer inception_4d/1x1
I1129 22:32:10.702018  1829 net.cpp:435] inception_4d/1x1 <- inception_4c/output_inception_4c/output_0_split_0
I1129 22:32:10.702029  1829 net.cpp:409] inception_4d/1x1 -> inception_4d/1x1
I1129 22:32:10.702950  1829 net.cpp:144] Setting up inception_4d/1x1
I1129 22:32:10.702962  1829 net.cpp:151] Top shape: 32 112 14 14 (702464)
I1129 22:32:10.702967  1829 net.cpp:159] Memory required for data: 1484366724
I1129 22:32:10.702975  1829 layer_factory.hpp:77] Creating layer inception_4d/relu_1x1
I1129 22:32:10.702985  1829 net.cpp:94] Creating Layer inception_4d/relu_1x1
I1129 22:32:10.702991  1829 net.cpp:435] inception_4d/relu_1x1 <- inception_4d/1x1
I1129 22:32:10.703001  1829 net.cpp:396] inception_4d/relu_1x1 -> inception_4d/1x1 (in-place)
I1129 22:32:10.703009  1829 net.cpp:144] Setting up inception_4d/relu_1x1
I1129 22:32:10.703016  1829 net.cpp:151] Top shape: 32 112 14 14 (702464)
I1129 22:32:10.703021  1829 net.cpp:159] Memory required for data: 1487176580
I1129 22:32:10.703024  1829 layer_factory.hpp:77] Creating layer inception_4d/3x3_reduce
I1129 22:32:10.703035  1829 net.cpp:94] Creating Layer inception_4d/3x3_reduce
I1129 22:32:10.703042  1829 net.cpp:435] inception_4d/3x3_reduce <- inception_4c/output_inception_4c/output_0_split_1
I1129 22:32:10.703054  1829 net.cpp:409] inception_4d/3x3_reduce -> inception_4d/3x3_reduce
I1129 22:32:10.704215  1829 net.cpp:144] Setting up inception_4d/3x3_reduce
I1129 22:32:10.704227  1829 net.cpp:151] Top shape: 32 144 14 14 (903168)
I1129 22:32:10.704232  1829 net.cpp:159] Memory required for data: 1490789252
I1129 22:32:10.704244  1829 layer_factory.hpp:77] Creating layer inception_4d/relu_3x3_reduce
I1129 22:32:10.704253  1829 net.cpp:94] Creating Layer inception_4d/relu_3x3_reduce
I1129 22:32:10.704259  1829 net.cpp:435] inception_4d/relu_3x3_reduce <- inception_4d/3x3_reduce
I1129 22:32:10.704269  1829 net.cpp:396] inception_4d/relu_3x3_reduce -> inception_4d/3x3_reduce (in-place)
I1129 22:32:10.704282  1829 net.cpp:144] Setting up inception_4d/relu_3x3_reduce
I1129 22:32:10.704288  1829 net.cpp:151] Top shape: 32 144 14 14 (903168)
I1129 22:32:10.704293  1829 net.cpp:159] Memory required for data: 1494401924
I1129 22:32:10.704298  1829 layer_factory.hpp:77] Creating layer inception_4d/3x3
I1129 22:32:10.704314  1829 net.cpp:94] Creating Layer inception_4d/3x3
I1129 22:32:10.704319  1829 net.cpp:435] inception_4d/3x3 <- inception_4d/3x3_reduce
I1129 22:32:10.704330  1829 net.cpp:409] inception_4d/3x3 -> inception_4d/3x3
I1129 22:32:10.709667  1829 net.cpp:144] Setting up inception_4d/3x3
I1129 22:32:10.709686  1829 net.cpp:151] Top shape: 32 288 14 14 (1806336)
I1129 22:32:10.709692  1829 net.cpp:159] Memory required for data: 1501627268
I1129 22:32:10.709702  1829 layer_factory.hpp:77] Creating layer inception_4d/relu_3x3
I1129 22:32:10.709714  1829 net.cpp:94] Creating Layer inception_4d/relu_3x3
I1129 22:32:10.709722  1829 net.cpp:435] inception_4d/relu_3x3 <- inception_4d/3x3
I1129 22:32:10.709729  1829 net.cpp:396] inception_4d/relu_3x3 -> inception_4d/3x3 (in-place)
I1129 22:32:10.709740  1829 net.cpp:144] Setting up inception_4d/relu_3x3
I1129 22:32:10.709748  1829 net.cpp:151] Top shape: 32 288 14 14 (1806336)
I1129 22:32:10.709753  1829 net.cpp:159] Memory required for data: 1508852612
I1129 22:32:10.709758  1829 layer_factory.hpp:77] Creating layer inception_4d/5x5_reduce
I1129 22:32:10.709774  1829 net.cpp:94] Creating Layer inception_4d/5x5_reduce
I1129 22:32:10.709779  1829 net.cpp:435] inception_4d/5x5_reduce <- inception_4c/output_inception_4c/output_0_split_2
I1129 22:32:10.709792  1829 net.cpp:409] inception_4d/5x5_reduce -> inception_4d/5x5_reduce
I1129 22:32:10.710320  1829 net.cpp:144] Setting up inception_4d/5x5_reduce
I1129 22:32:10.710331  1829 net.cpp:151] Top shape: 32 32 14 14 (200704)
I1129 22:32:10.710336  1829 net.cpp:159] Memory required for data: 1509655428
I1129 22:32:10.710346  1829 layer_factory.hpp:77] Creating layer inception_4d/relu_5x5_reduce
I1129 22:32:10.710355  1829 net.cpp:94] Creating Layer inception_4d/relu_5x5_reduce
I1129 22:32:10.710361  1829 net.cpp:435] inception_4d/relu_5x5_reduce <- inception_4d/5x5_reduce
I1129 22:32:10.710371  1829 net.cpp:396] inception_4d/relu_5x5_reduce -> inception_4d/5x5_reduce (in-place)
I1129 22:32:10.710382  1829 net.cpp:144] Setting up inception_4d/relu_5x5_reduce
I1129 22:32:10.710388  1829 net.cpp:151] Top shape: 32 32 14 14 (200704)
I1129 22:32:10.710392  1829 net.cpp:159] Memory required for data: 1510458244
I1129 22:32:10.710397  1829 layer_factory.hpp:77] Creating layer inception_4d/5x5
I1129 22:32:10.710415  1829 net.cpp:94] Creating Layer inception_4d/5x5
I1129 22:32:10.710420  1829 net.cpp:435] inception_4d/5x5 <- inception_4d/5x5_reduce
I1129 22:32:10.710430  1829 net.cpp:409] inception_4d/5x5 -> inception_4d/5x5
I1129 22:32:10.711313  1829 net.cpp:144] Setting up inception_4d/5x5
I1129 22:32:10.711326  1829 net.cpp:151] Top shape: 32 64 14 14 (401408)
I1129 22:32:10.711331  1829 net.cpp:159] Memory required for data: 1512063876
I1129 22:32:10.711340  1829 layer_factory.hpp:77] Creating layer inception_4d/relu_5x5
I1129 22:32:10.711349  1829 net.cpp:94] Creating Layer inception_4d/relu_5x5
I1129 22:32:10.711354  1829 net.cpp:435] inception_4d/relu_5x5 <- inception_4d/5x5
I1129 22:32:10.711365  1829 net.cpp:396] inception_4d/relu_5x5 -> inception_4d/5x5 (in-place)
I1129 22:32:10.711374  1829 net.cpp:144] Setting up inception_4d/relu_5x5
I1129 22:32:10.711396  1829 net.cpp:151] Top shape: 32 64 14 14 (401408)
I1129 22:32:10.711402  1829 net.cpp:159] Memory required for data: 1513669508
I1129 22:32:10.711407  1829 layer_factory.hpp:77] Creating layer inception_4d/pool
I1129 22:32:10.711416  1829 net.cpp:94] Creating Layer inception_4d/pool
I1129 22:32:10.711421  1829 net.cpp:435] inception_4d/pool <- inception_4c/output_inception_4c/output_0_split_3
I1129 22:32:10.711433  1829 net.cpp:409] inception_4d/pool -> inception_4d/pool
I1129 22:32:10.711491  1829 net.cpp:144] Setting up inception_4d/pool
I1129 22:32:10.711500  1829 net.cpp:151] Top shape: 32 512 14 14 (3211264)
I1129 22:32:10.711505  1829 net.cpp:159] Memory required for data: 1526514564
I1129 22:32:10.711511  1829 layer_factory.hpp:77] Creating layer inception_4d/pool_proj
I1129 22:32:10.711526  1829 net.cpp:94] Creating Layer inception_4d/pool_proj
I1129 22:32:10.711532  1829 net.cpp:435] inception_4d/pool_proj <- inception_4d/pool
I1129 22:32:10.711544  1829 net.cpp:409] inception_4d/pool_proj -> inception_4d/pool_proj
I1129 22:32:10.712221  1829 net.cpp:144] Setting up inception_4d/pool_proj
I1129 22:32:10.712232  1829 net.cpp:151] Top shape: 32 64 14 14 (401408)
I1129 22:32:10.712237  1829 net.cpp:159] Memory required for data: 1528120196
I1129 22:32:10.712246  1829 layer_factory.hpp:77] Creating layer inception_4d/relu_pool_proj
I1129 22:32:10.712260  1829 net.cpp:94] Creating Layer inception_4d/relu_pool_proj
I1129 22:32:10.712265  1829 net.cpp:435] inception_4d/relu_pool_proj <- inception_4d/pool_proj
I1129 22:32:10.712272  1829 net.cpp:396] inception_4d/relu_pool_proj -> inception_4d/pool_proj (in-place)
I1129 22:32:10.712281  1829 net.cpp:144] Setting up inception_4d/relu_pool_proj
I1129 22:32:10.712290  1829 net.cpp:151] Top shape: 32 64 14 14 (401408)
I1129 22:32:10.712293  1829 net.cpp:159] Memory required for data: 1529725828
I1129 22:32:10.712298  1829 layer_factory.hpp:77] Creating layer inception_4d/output
I1129 22:32:10.712309  1829 net.cpp:94] Creating Layer inception_4d/output
I1129 22:32:10.712316  1829 net.cpp:435] inception_4d/output <- inception_4d/1x1
I1129 22:32:10.712321  1829 net.cpp:435] inception_4d/output <- inception_4d/3x3
I1129 22:32:10.712327  1829 net.cpp:435] inception_4d/output <- inception_4d/5x5
I1129 22:32:10.712332  1829 net.cpp:435] inception_4d/output <- inception_4d/pool_proj
I1129 22:32:10.712342  1829 net.cpp:409] inception_4d/output -> inception_4d/output
I1129 22:32:10.712378  1829 net.cpp:144] Setting up inception_4d/output
I1129 22:32:10.712386  1829 net.cpp:151] Top shape: 32 528 14 14 (3311616)
I1129 22:32:10.712391  1829 net.cpp:159] Memory required for data: 1542972292
I1129 22:32:10.712397  1829 layer_factory.hpp:77] Creating layer inception_4d/output_inception_4d/output_0_split
I1129 22:32:10.712407  1829 net.cpp:94] Creating Layer inception_4d/output_inception_4d/output_0_split
I1129 22:32:10.712412  1829 net.cpp:435] inception_4d/output_inception_4d/output_0_split <- inception_4d/output
I1129 22:32:10.712424  1829 net.cpp:409] inception_4d/output_inception_4d/output_0_split -> inception_4d/output_inception_4d/output_0_split_0
I1129 22:32:10.712435  1829 net.cpp:409] inception_4d/output_inception_4d/output_0_split -> inception_4d/output_inception_4d/output_0_split_1
I1129 22:32:10.712447  1829 net.cpp:409] inception_4d/output_inception_4d/output_0_split -> inception_4d/output_inception_4d/output_0_split_2
I1129 22:32:10.712457  1829 net.cpp:409] inception_4d/output_inception_4d/output_0_split -> inception_4d/output_inception_4d/output_0_split_3
I1129 22:32:10.712466  1829 net.cpp:409] inception_4d/output_inception_4d/output_0_split -> inception_4d/output_inception_4d/output_0_split_4
I1129 22:32:10.712568  1829 net.cpp:144] Setting up inception_4d/output_inception_4d/output_0_split
I1129 22:32:10.712579  1829 net.cpp:151] Top shape: 32 528 14 14 (3311616)
I1129 22:32:10.712586  1829 net.cpp:151] Top shape: 32 528 14 14 (3311616)
I1129 22:32:10.712592  1829 net.cpp:151] Top shape: 32 528 14 14 (3311616)
I1129 22:32:10.712611  1829 net.cpp:151] Top shape: 32 528 14 14 (3311616)
I1129 22:32:10.712617  1829 net.cpp:151] Top shape: 32 528 14 14 (3311616)
I1129 22:32:10.712622  1829 net.cpp:159] Memory required for data: 1609204612
I1129 22:32:10.712627  1829 layer_factory.hpp:77] Creating layer loss2/ave_pool
I1129 22:32:10.712637  1829 net.cpp:94] Creating Layer loss2/ave_pool
I1129 22:32:10.712642  1829 net.cpp:435] loss2/ave_pool <- inception_4d/output_inception_4d/output_0_split_0
I1129 22:32:10.712651  1829 net.cpp:409] loss2/ave_pool -> loss2/ave_pool
I1129 22:32:10.712688  1829 net.cpp:144] Setting up loss2/ave_pool
I1129 22:32:10.712700  1829 net.cpp:151] Top shape: 32 528 4 4 (270336)
I1129 22:32:10.712705  1829 net.cpp:159] Memory required for data: 1610285956
I1129 22:32:10.712710  1829 layer_factory.hpp:77] Creating layer loss2/conv
I1129 22:32:10.712723  1829 net.cpp:94] Creating Layer loss2/conv
I1129 22:32:10.712729  1829 net.cpp:435] loss2/conv <- loss2/ave_pool
I1129 22:32:10.712739  1829 net.cpp:409] loss2/conv -> loss2/conv
I1129 22:32:10.714660  1829 net.cpp:144] Setting up loss2/conv
I1129 22:32:10.714679  1829 net.cpp:151] Top shape: 32 128 4 4 (65536)
I1129 22:32:10.714685  1829 net.cpp:159] Memory required for data: 1610548100
I1129 22:32:10.714696  1829 layer_factory.hpp:77] Creating layer loss2/relu_conv
I1129 22:32:10.714705  1829 net.cpp:94] Creating Layer loss2/relu_conv
I1129 22:32:10.714714  1829 net.cpp:435] loss2/relu_conv <- loss2/conv
I1129 22:32:10.714726  1829 net.cpp:396] loss2/relu_conv -> loss2/conv (in-place)
I1129 22:32:10.714740  1829 net.cpp:144] Setting up loss2/relu_conv
I1129 22:32:10.714747  1829 net.cpp:151] Top shape: 32 128 4 4 (65536)
I1129 22:32:10.714751  1829 net.cpp:159] Memory required for data: 1610810244
I1129 22:32:10.714758  1829 layer_factory.hpp:77] Creating layer loss2/fc
I1129 22:32:10.714773  1829 net.cpp:94] Creating Layer loss2/fc
I1129 22:32:10.714781  1829 net.cpp:435] loss2/fc <- loss2/conv
I1129 22:32:10.714789  1829 net.cpp:409] loss2/fc -> loss2/fc
I1129 22:32:10.741866  1829 net.cpp:144] Setting up loss2/fc
I1129 22:32:10.741892  1829 net.cpp:151] Top shape: 32 1024 (32768)
I1129 22:32:10.741899  1829 net.cpp:159] Memory required for data: 1610941316
I1129 22:32:10.741912  1829 layer_factory.hpp:77] Creating layer loss2/relu_fc
I1129 22:32:10.741925  1829 net.cpp:94] Creating Layer loss2/relu_fc
I1129 22:32:10.741935  1829 net.cpp:435] loss2/relu_fc <- loss2/fc
I1129 22:32:10.741950  1829 net.cpp:396] loss2/relu_fc -> loss2/fc (in-place)
I1129 22:32:10.741967  1829 net.cpp:144] Setting up loss2/relu_fc
I1129 22:32:10.741977  1829 net.cpp:151] Top shape: 32 1024 (32768)
I1129 22:32:10.741981  1829 net.cpp:159] Memory required for data: 1611072388
I1129 22:32:10.741986  1829 layer_factory.hpp:77] Creating layer loss2/drop_fc
I1129 22:32:10.741997  1829 net.cpp:94] Creating Layer loss2/drop_fc
I1129 22:32:10.742004  1829 net.cpp:435] loss2/drop_fc <- loss2/fc
I1129 22:32:10.742015  1829 net.cpp:396] loss2/drop_fc -> loss2/fc (in-place)
I1129 22:32:10.742058  1829 net.cpp:144] Setting up loss2/drop_fc
I1129 22:32:10.742067  1829 net.cpp:151] Top shape: 32 1024 (32768)
I1129 22:32:10.742074  1829 net.cpp:159] Memory required for data: 1611203460
I1129 22:32:10.742079  1829 layer_factory.hpp:77] Creating layer loss2/classifier
I1129 22:32:10.742094  1829 net.cpp:94] Creating Layer loss2/classifier
I1129 22:32:10.742101  1829 net.cpp:435] loss2/classifier <- loss2/fc
I1129 22:32:10.742116  1829 net.cpp:409] loss2/classifier -> loss2/classifier
I1129 22:32:10.742352  1829 net.cpp:144] Setting up loss2/classifier
I1129 22:32:10.742365  1829 net.cpp:151] Top shape: 32 3 (96)
I1129 22:32:10.742370  1829 net.cpp:159] Memory required for data: 1611203844
I1129 22:32:10.742383  1829 layer_factory.hpp:77] Creating layer loss2/loss
I1129 22:32:10.742398  1829 net.cpp:94] Creating Layer loss2/loss
I1129 22:32:10.742405  1829 net.cpp:435] loss2/loss <- loss2/classifier
I1129 22:32:10.742413  1829 net.cpp:435] loss2/loss <- label_train-data_1_split_1
I1129 22:32:10.742426  1829 net.cpp:409] loss2/loss -> loss2/loss
I1129 22:32:10.742461  1829 layer_factory.hpp:77] Creating layer loss2/loss
I1129 22:32:10.742615  1829 net.cpp:144] Setting up loss2/loss
I1129 22:32:10.742628  1829 net.cpp:151] Top shape: (1)
I1129 22:32:10.742635  1829 net.cpp:154]     with loss weight 0.3
I1129 22:32:10.742657  1829 net.cpp:159] Memory required for data: 1611203848
I1129 22:32:10.742664  1829 layer_factory.hpp:77] Creating layer inception_4e/1x1
I1129 22:32:10.742681  1829 net.cpp:94] Creating Layer inception_4e/1x1
I1129 22:32:10.742689  1829 net.cpp:435] inception_4e/1x1 <- inception_4d/output_inception_4d/output_0_split_1
I1129 22:32:10.742702  1829 net.cpp:409] inception_4e/1x1 -> inception_4e/1x1
I1129 22:32:10.744554  1829 net.cpp:144] Setting up inception_4e/1x1
I1129 22:32:10.744570  1829 net.cpp:151] Top shape: 32 256 14 14 (1605632)
I1129 22:32:10.744577  1829 net.cpp:159] Memory required for data: 1617626376
I1129 22:32:10.744586  1829 layer_factory.hpp:77] Creating layer inception_4e/relu_1x1
I1129 22:32:10.744598  1829 net.cpp:94] Creating Layer inception_4e/relu_1x1
I1129 22:32:10.744606  1829 net.cpp:435] inception_4e/relu_1x1 <- inception_4e/1x1
I1129 22:32:10.744616  1829 net.cpp:396] inception_4e/relu_1x1 -> inception_4e/1x1 (in-place)
I1129 22:32:10.744628  1829 net.cpp:144] Setting up inception_4e/relu_1x1
I1129 22:32:10.744637  1829 net.cpp:151] Top shape: 32 256 14 14 (1605632)
I1129 22:32:10.744642  1829 net.cpp:159] Memory required for data: 1624048904
I1129 22:32:10.744648  1829 layer_factory.hpp:77] Creating layer inception_4e/3x3_reduce
I1129 22:32:10.744664  1829 net.cpp:94] Creating Layer inception_4e/3x3_reduce
I1129 22:32:10.744670  1829 net.cpp:435] inception_4e/3x3_reduce <- inception_4d/output_inception_4d/output_0_split_2
I1129 22:32:10.744683  1829 net.cpp:409] inception_4e/3x3_reduce -> inception_4e/3x3_reduce
I1129 22:32:10.746930  1829 net.cpp:144] Setting up inception_4e/3x3_reduce
I1129 22:32:10.746948  1829 net.cpp:151] Top shape: 32 160 14 14 (1003520)
I1129 22:32:10.746953  1829 net.cpp:159] Memory required for data: 1628062984
I1129 22:32:10.746963  1829 layer_factory.hpp:77] Creating layer inception_4e/relu_3x3_reduce
I1129 22:32:10.746978  1829 net.cpp:94] Creating Layer inception_4e/relu_3x3_reduce
I1129 22:32:10.746984  1829 net.cpp:435] inception_4e/relu_3x3_reduce <- inception_4e/3x3_reduce
I1129 22:32:10.746995  1829 net.cpp:396] inception_4e/relu_3x3_reduce -> inception_4e/3x3_reduce (in-place)
I1129 22:32:10.747007  1829 net.cpp:144] Setting up inception_4e/relu_3x3_reduce
I1129 22:32:10.747016  1829 net.cpp:151] Top shape: 32 160 14 14 (1003520)
I1129 22:32:10.747021  1829 net.cpp:159] Memory required for data: 1632077064
I1129 22:32:10.747026  1829 layer_factory.hpp:77] Creating layer inception_4e/3x3
I1129 22:32:10.747042  1829 net.cpp:94] Creating Layer inception_4e/3x3
I1129 22:32:10.747050  1829 net.cpp:435] inception_4e/3x3 <- inception_4e/3x3_reduce
I1129 22:32:10.747062  1829 net.cpp:409] inception_4e/3x3 -> inception_4e/3x3
I1129 22:32:10.753669  1829 net.cpp:144] Setting up inception_4e/3x3
I1129 22:32:10.753691  1829 net.cpp:151] Top shape: 32 320 14 14 (2007040)
I1129 22:32:10.753697  1829 net.cpp:159] Memory required for data: 1640105224
I1129 22:32:10.753708  1829 layer_factory.hpp:77] Creating layer inception_4e/relu_3x3
I1129 22:32:10.753720  1829 net.cpp:94] Creating Layer inception_4e/relu_3x3
I1129 22:32:10.753726  1829 net.cpp:435] inception_4e/relu_3x3 <- inception_4e/3x3
I1129 22:32:10.753737  1829 net.cpp:396] inception_4e/relu_3x3 -> inception_4e/3x3 (in-place)
I1129 22:32:10.753749  1829 net.cpp:144] Setting up inception_4e/relu_3x3
I1129 22:32:10.753756  1829 net.cpp:151] Top shape: 32 320 14 14 (2007040)
I1129 22:32:10.753760  1829 net.cpp:159] Memory required for data: 1648133384
I1129 22:32:10.753767  1829 layer_factory.hpp:77] Creating layer inception_4e/5x5_reduce
I1129 22:32:10.753782  1829 net.cpp:94] Creating Layer inception_4e/5x5_reduce
I1129 22:32:10.753787  1829 net.cpp:435] inception_4e/5x5_reduce <- inception_4d/output_inception_4d/output_0_split_3
I1129 22:32:10.753816  1829 net.cpp:409] inception_4e/5x5_reduce -> inception_4e/5x5_reduce
I1129 22:32:10.754384  1829 net.cpp:144] Setting up inception_4e/5x5_reduce
I1129 22:32:10.754395  1829 net.cpp:151] Top shape: 32 32 14 14 (200704)
I1129 22:32:10.754400  1829 net.cpp:159] Memory required for data: 1648936200
I1129 22:32:10.754408  1829 layer_factory.hpp:77] Creating layer inception_4e/relu_5x5_reduce
I1129 22:32:10.754420  1829 net.cpp:94] Creating Layer inception_4e/relu_5x5_reduce
I1129 22:32:10.754425  1829 net.cpp:435] inception_4e/relu_5x5_reduce <- inception_4e/5x5_reduce
I1129 22:32:10.754434  1829 net.cpp:396] inception_4e/relu_5x5_reduce -> inception_4e/5x5_reduce (in-place)
I1129 22:32:10.754443  1829 net.cpp:144] Setting up inception_4e/relu_5x5_reduce
I1129 22:32:10.754451  1829 net.cpp:151] Top shape: 32 32 14 14 (200704)
I1129 22:32:10.754456  1829 net.cpp:159] Memory required for data: 1649739016
I1129 22:32:10.754462  1829 layer_factory.hpp:77] Creating layer inception_4e/5x5
I1129 22:32:10.754523  1829 net.cpp:94] Creating Layer inception_4e/5x5
I1129 22:32:10.754529  1829 net.cpp:435] inception_4e/5x5 <- inception_4e/5x5_reduce
I1129 22:32:10.754539  1829 net.cpp:409] inception_4e/5x5 -> inception_4e/5x5
I1129 22:32:10.755964  1829 net.cpp:144] Setting up inception_4e/5x5
I1129 22:32:10.755976  1829 net.cpp:151] Top shape: 32 128 14 14 (802816)
I1129 22:32:10.755982  1829 net.cpp:159] Memory required for data: 1652950280
I1129 22:32:10.755991  1829 layer_factory.hpp:77] Creating layer inception_4e/relu_5x5
I1129 22:32:10.756000  1829 net.cpp:94] Creating Layer inception_4e/relu_5x5
I1129 22:32:10.756006  1829 net.cpp:435] inception_4e/relu_5x5 <- inception_4e/5x5
I1129 22:32:10.756016  1829 net.cpp:396] inception_4e/relu_5x5 -> inception_4e/5x5 (in-place)
I1129 22:32:10.756026  1829 net.cpp:144] Setting up inception_4e/relu_5x5
I1129 22:32:10.756031  1829 net.cpp:151] Top shape: 32 128 14 14 (802816)
I1129 22:32:10.756036  1829 net.cpp:159] Memory required for data: 1656161544
I1129 22:32:10.756042  1829 layer_factory.hpp:77] Creating layer inception_4e/pool
I1129 22:32:10.756052  1829 net.cpp:94] Creating Layer inception_4e/pool
I1129 22:32:10.756057  1829 net.cpp:435] inception_4e/pool <- inception_4d/output_inception_4d/output_0_split_4
I1129 22:32:10.756067  1829 net.cpp:409] inception_4e/pool -> inception_4e/pool
I1129 22:32:10.756126  1829 net.cpp:144] Setting up inception_4e/pool
I1129 22:32:10.756135  1829 net.cpp:151] Top shape: 32 528 14 14 (3311616)
I1129 22:32:10.756139  1829 net.cpp:159] Memory required for data: 1669408008
I1129 22:32:10.756145  1829 layer_factory.hpp:77] Creating layer inception_4e/pool_proj
I1129 22:32:10.756161  1829 net.cpp:94] Creating Layer inception_4e/pool_proj
I1129 22:32:10.756167  1829 net.cpp:435] inception_4e/pool_proj <- inception_4e/pool
I1129 22:32:10.756178  1829 net.cpp:409] inception_4e/pool_proj -> inception_4e/pool_proj
I1129 22:32:10.757280  1829 net.cpp:144] Setting up inception_4e/pool_proj
I1129 22:32:10.757295  1829 net.cpp:151] Top shape: 32 128 14 14 (802816)
I1129 22:32:10.757300  1829 net.cpp:159] Memory required for data: 1672619272
I1129 22:32:10.757309  1829 layer_factory.hpp:77] Creating layer inception_4e/relu_pool_proj
I1129 22:32:10.757319  1829 net.cpp:94] Creating Layer inception_4e/relu_pool_proj
I1129 22:32:10.757326  1829 net.cpp:435] inception_4e/relu_pool_proj <- inception_4e/pool_proj
I1129 22:32:10.757336  1829 net.cpp:396] inception_4e/relu_pool_proj -> inception_4e/pool_proj (in-place)
I1129 22:32:10.757346  1829 net.cpp:144] Setting up inception_4e/relu_pool_proj
I1129 22:32:10.757354  1829 net.cpp:151] Top shape: 32 128 14 14 (802816)
I1129 22:32:10.757359  1829 net.cpp:159] Memory required for data: 1675830536
I1129 22:32:10.757364  1829 layer_factory.hpp:77] Creating layer inception_4e/output
I1129 22:32:10.757374  1829 net.cpp:94] Creating Layer inception_4e/output
I1129 22:32:10.757378  1829 net.cpp:435] inception_4e/output <- inception_4e/1x1
I1129 22:32:10.757386  1829 net.cpp:435] inception_4e/output <- inception_4e/3x3
I1129 22:32:10.757408  1829 net.cpp:435] inception_4e/output <- inception_4e/5x5
I1129 22:32:10.757414  1829 net.cpp:435] inception_4e/output <- inception_4e/pool_proj
I1129 22:32:10.757432  1829 net.cpp:409] inception_4e/output -> inception_4e/output
I1129 22:32:10.757474  1829 net.cpp:144] Setting up inception_4e/output
I1129 22:32:10.757483  1829 net.cpp:151] Top shape: 32 832 14 14 (5218304)
I1129 22:32:10.757488  1829 net.cpp:159] Memory required for data: 1696703752
I1129 22:32:10.757491  1829 layer_factory.hpp:77] Creating layer pool4/3x3_s2
I1129 22:32:10.757503  1829 net.cpp:94] Creating Layer pool4/3x3_s2
I1129 22:32:10.757508  1829 net.cpp:435] pool4/3x3_s2 <- inception_4e/output
I1129 22:32:10.757517  1829 net.cpp:409] pool4/3x3_s2 -> pool4/3x3_s2
I1129 22:32:10.757572  1829 net.cpp:144] Setting up pool4/3x3_s2
I1129 22:32:10.757583  1829 net.cpp:151] Top shape: 32 832 7 7 (1304576)
I1129 22:32:10.757587  1829 net.cpp:159] Memory required for data: 1701922056
I1129 22:32:10.757592  1829 layer_factory.hpp:77] Creating layer pool4/3x3_s2_pool4/3x3_s2_0_split
I1129 22:32:10.757603  1829 net.cpp:94] Creating Layer pool4/3x3_s2_pool4/3x3_s2_0_split
I1129 22:32:10.757611  1829 net.cpp:435] pool4/3x3_s2_pool4/3x3_s2_0_split <- pool4/3x3_s2
I1129 22:32:10.757619  1829 net.cpp:409] pool4/3x3_s2_pool4/3x3_s2_0_split -> pool4/3x3_s2_pool4/3x3_s2_0_split_0
I1129 22:32:10.757630  1829 net.cpp:409] pool4/3x3_s2_pool4/3x3_s2_0_split -> pool4/3x3_s2_pool4/3x3_s2_0_split_1
I1129 22:32:10.757640  1829 net.cpp:409] pool4/3x3_s2_pool4/3x3_s2_0_split -> pool4/3x3_s2_pool4/3x3_s2_0_split_2
I1129 22:32:10.757652  1829 net.cpp:409] pool4/3x3_s2_pool4/3x3_s2_0_split -> pool4/3x3_s2_pool4/3x3_s2_0_split_3
I1129 22:32:10.757736  1829 net.cpp:144] Setting up pool4/3x3_s2_pool4/3x3_s2_0_split
I1129 22:32:10.757745  1829 net.cpp:151] Top shape: 32 832 7 7 (1304576)
I1129 22:32:10.757751  1829 net.cpp:151] Top shape: 32 832 7 7 (1304576)
I1129 22:32:10.757760  1829 net.cpp:151] Top shape: 32 832 7 7 (1304576)
I1129 22:32:10.757766  1829 net.cpp:151] Top shape: 32 832 7 7 (1304576)
I1129 22:32:10.757769  1829 net.cpp:159] Memory required for data: 1722795272
I1129 22:32:10.757774  1829 layer_factory.hpp:77] Creating layer inception_5a/1x1
I1129 22:32:10.757791  1829 net.cpp:94] Creating Layer inception_5a/1x1
I1129 22:32:10.757797  1829 net.cpp:435] inception_5a/1x1 <- pool4/3x3_s2_pool4/3x3_s2_0_split_0
I1129 22:32:10.757808  1829 net.cpp:409] inception_5a/1x1 -> inception_5a/1x1
I1129 22:32:10.761387  1829 net.cpp:144] Setting up inception_5a/1x1
I1129 22:32:10.761409  1829 net.cpp:151] Top shape: 32 256 7 7 (401408)
I1129 22:32:10.761415  1829 net.cpp:159] Memory required for data: 1724400904
I1129 22:32:10.761426  1829 layer_factory.hpp:77] Creating layer inception_5a/relu_1x1
I1129 22:32:10.761438  1829 net.cpp:94] Creating Layer inception_5a/relu_1x1
I1129 22:32:10.761447  1829 net.cpp:435] inception_5a/relu_1x1 <- inception_5a/1x1
I1129 22:32:10.761458  1829 net.cpp:396] inception_5a/relu_1x1 -> inception_5a/1x1 (in-place)
I1129 22:32:10.761471  1829 net.cpp:144] Setting up inception_5a/relu_1x1
I1129 22:32:10.761479  1829 net.cpp:151] Top shape: 32 256 7 7 (401408)
I1129 22:32:10.761485  1829 net.cpp:159] Memory required for data: 1726006536
I1129 22:32:10.761490  1829 layer_factory.hpp:77] Creating layer inception_5a/3x3_reduce
I1129 22:32:10.761507  1829 net.cpp:94] Creating Layer inception_5a/3x3_reduce
I1129 22:32:10.761518  1829 net.cpp:435] inception_5a/3x3_reduce <- pool4/3x3_s2_pool4/3x3_s2_0_split_1
I1129 22:32:10.761533  1829 net.cpp:409] inception_5a/3x3_reduce -> inception_5a/3x3_reduce
I1129 22:32:10.764349  1829 net.cpp:144] Setting up inception_5a/3x3_reduce
I1129 22:32:10.764365  1829 net.cpp:151] Top shape: 32 160 7 7 (250880)
I1129 22:32:10.764371  1829 net.cpp:159] Memory required for data: 1727010056
I1129 22:32:10.764384  1829 layer_factory.hpp:77] Creating layer inception_5a/relu_3x3_reduce
I1129 22:32:10.764394  1829 net.cpp:94] Creating Layer inception_5a/relu_3x3_reduce
I1129 22:32:10.764420  1829 net.cpp:435] inception_5a/relu_3x3_reduce <- inception_5a/3x3_reduce
I1129 22:32:10.764433  1829 net.cpp:396] inception_5a/relu_3x3_reduce -> inception_5a/3x3_reduce (in-place)
I1129 22:32:10.764448  1829 net.cpp:144] Setting up inception_5a/relu_3x3_reduce
I1129 22:32:10.764457  1829 net.cpp:151] Top shape: 32 160 7 7 (250880)
I1129 22:32:10.764461  1829 net.cpp:159] Memory required for data: 1728013576
I1129 22:32:10.764467  1829 layer_factory.hpp:77] Creating layer inception_5a/3x3
I1129 22:32:10.764484  1829 net.cpp:94] Creating Layer inception_5a/3x3
I1129 22:32:10.764492  1829 net.cpp:435] inception_5a/3x3 <- inception_5a/3x3_reduce
I1129 22:32:10.764504  1829 net.cpp:409] inception_5a/3x3 -> inception_5a/3x3
I1129 22:32:10.771425  1829 net.cpp:144] Setting up inception_5a/3x3
I1129 22:32:10.771445  1829 net.cpp:151] Top shape: 32 320 7 7 (501760)
I1129 22:32:10.771450  1829 net.cpp:159] Memory required for data: 1730020616
I1129 22:32:10.771461  1829 layer_factory.hpp:77] Creating layer inception_5a/relu_3x3
I1129 22:32:10.771472  1829 net.cpp:94] Creating Layer inception_5a/relu_3x3
I1129 22:32:10.771479  1829 net.cpp:435] inception_5a/relu_3x3 <- inception_5a/3x3
I1129 22:32:10.771489  1829 net.cpp:396] inception_5a/relu_3x3 -> inception_5a/3x3 (in-place)
I1129 22:32:10.771502  1829 net.cpp:144] Setting up inception_5a/relu_3x3
I1129 22:32:10.771508  1829 net.cpp:151] Top shape: 32 320 7 7 (501760)
I1129 22:32:10.771513  1829 net.cpp:159] Memory required for data: 1732027656
I1129 22:32:10.771518  1829 layer_factory.hpp:77] Creating layer inception_5a/5x5_reduce
I1129 22:32:10.771533  1829 net.cpp:94] Creating Layer inception_5a/5x5_reduce
I1129 22:32:10.771539  1829 net.cpp:435] inception_5a/5x5_reduce <- pool4/3x3_s2_pool4/3x3_s2_0_split_2
I1129 22:32:10.771553  1829 net.cpp:409] inception_5a/5x5_reduce -> inception_5a/5x5_reduce
I1129 22:32:10.772230  1829 net.cpp:144] Setting up inception_5a/5x5_reduce
I1129 22:32:10.772241  1829 net.cpp:151] Top shape: 32 32 7 7 (50176)
I1129 22:32:10.772245  1829 net.cpp:159] Memory required for data: 1732228360
I1129 22:32:10.772255  1829 layer_factory.hpp:77] Creating layer inception_5a/relu_5x5_reduce
I1129 22:32:10.772265  1829 net.cpp:94] Creating Layer inception_5a/relu_5x5_reduce
I1129 22:32:10.772270  1829 net.cpp:435] inception_5a/relu_5x5_reduce <- inception_5a/5x5_reduce
I1129 22:32:10.772279  1829 net.cpp:396] inception_5a/relu_5x5_reduce -> inception_5a/5x5_reduce (in-place)
I1129 22:32:10.772290  1829 net.cpp:144] Setting up inception_5a/relu_5x5_reduce
I1129 22:32:10.772297  1829 net.cpp:151] Top shape: 32 32 7 7 (50176)
I1129 22:32:10.772301  1829 net.cpp:159] Memory required for data: 1732429064
I1129 22:32:10.772306  1829 layer_factory.hpp:77] Creating layer inception_5a/5x5
I1129 22:32:10.772321  1829 net.cpp:94] Creating Layer inception_5a/5x5
I1129 22:32:10.772326  1829 net.cpp:435] inception_5a/5x5 <- inception_5a/5x5_reduce
I1129 22:32:10.772337  1829 net.cpp:409] inception_5a/5x5 -> inception_5a/5x5
I1129 22:32:10.773797  1829 net.cpp:144] Setting up inception_5a/5x5
I1129 22:32:10.773813  1829 net.cpp:151] Top shape: 32 128 7 7 (200704)
I1129 22:32:10.773818  1829 net.cpp:159] Memory required for data: 1733231880
I1129 22:32:10.773826  1829 layer_factory.hpp:77] Creating layer inception_5a/relu_5x5
I1129 22:32:10.773835  1829 net.cpp:94] Creating Layer inception_5a/relu_5x5
I1129 22:32:10.773843  1829 net.cpp:435] inception_5a/relu_5x5 <- inception_5a/5x5
I1129 22:32:10.773851  1829 net.cpp:396] inception_5a/relu_5x5 -> inception_5a/5x5 (in-place)
I1129 22:32:10.773861  1829 net.cpp:144] Setting up inception_5a/relu_5x5
I1129 22:32:10.773869  1829 net.cpp:151] Top shape: 32 128 7 7 (200704)
I1129 22:32:10.773874  1829 net.cpp:159] Memory required for data: 1734034696
I1129 22:32:10.773878  1829 layer_factory.hpp:77] Creating layer inception_5a/pool
I1129 22:32:10.773890  1829 net.cpp:94] Creating Layer inception_5a/pool
I1129 22:32:10.773895  1829 net.cpp:435] inception_5a/pool <- pool4/3x3_s2_pool4/3x3_s2_0_split_3
I1129 22:32:10.773922  1829 net.cpp:409] inception_5a/pool -> inception_5a/pool
I1129 22:32:10.773986  1829 net.cpp:144] Setting up inception_5a/pool
I1129 22:32:10.773995  1829 net.cpp:151] Top shape: 32 832 7 7 (1304576)
I1129 22:32:10.774000  1829 net.cpp:159] Memory required for data: 1739253000
I1129 22:32:10.774005  1829 layer_factory.hpp:77] Creating layer inception_5a/pool_proj
I1129 22:32:10.774020  1829 net.cpp:94] Creating Layer inception_5a/pool_proj
I1129 22:32:10.774025  1829 net.cpp:435] inception_5a/pool_proj <- inception_5a/pool
I1129 22:32:10.774036  1829 net.cpp:409] inception_5a/pool_proj -> inception_5a/pool_proj
I1129 22:32:10.776335  1829 net.cpp:144] Setting up inception_5a/pool_proj
I1129 22:32:10.776350  1829 net.cpp:151] Top shape: 32 128 7 7 (200704)
I1129 22:32:10.776355  1829 net.cpp:159] Memory required for data: 1740055816
I1129 22:32:10.776362  1829 layer_factory.hpp:77] Creating layer inception_5a/relu_pool_proj
I1129 22:32:10.776374  1829 net.cpp:94] Creating Layer inception_5a/relu_pool_proj
I1129 22:32:10.776381  1829 net.cpp:435] inception_5a/relu_pool_proj <- inception_5a/pool_proj
I1129 22:32:10.776391  1829 net.cpp:396] inception_5a/relu_pool_proj -> inception_5a/pool_proj (in-place)
I1129 22:32:10.776401  1829 net.cpp:144] Setting up inception_5a/relu_pool_proj
I1129 22:32:10.776407  1829 net.cpp:151] Top shape: 32 128 7 7 (200704)
I1129 22:32:10.776412  1829 net.cpp:159] Memory required for data: 1740858632
I1129 22:32:10.776415  1829 layer_factory.hpp:77] Creating layer inception_5a/output
I1129 22:32:10.776427  1829 net.cpp:94] Creating Layer inception_5a/output
I1129 22:32:10.776432  1829 net.cpp:435] inception_5a/output <- inception_5a/1x1
I1129 22:32:10.776439  1829 net.cpp:435] inception_5a/output <- inception_5a/3x3
I1129 22:32:10.776444  1829 net.cpp:435] inception_5a/output <- inception_5a/5x5
I1129 22:32:10.776449  1829 net.cpp:435] inception_5a/output <- inception_5a/pool_proj
I1129 22:32:10.776460  1829 net.cpp:409] inception_5a/output -> inception_5a/output
I1129 22:32:10.776500  1829 net.cpp:144] Setting up inception_5a/output
I1129 22:32:10.776509  1829 net.cpp:151] Top shape: 32 832 7 7 (1304576)
I1129 22:32:10.776511  1829 net.cpp:159] Memory required for data: 1746076936
I1129 22:32:10.776517  1829 layer_factory.hpp:77] Creating layer inception_5a/output_inception_5a/output_0_split
I1129 22:32:10.776527  1829 net.cpp:94] Creating Layer inception_5a/output_inception_5a/output_0_split
I1129 22:32:10.776532  1829 net.cpp:435] inception_5a/output_inception_5a/output_0_split <- inception_5a/output
I1129 22:32:10.776543  1829 net.cpp:409] inception_5a/output_inception_5a/output_0_split -> inception_5a/output_inception_5a/output_0_split_0
I1129 22:32:10.776556  1829 net.cpp:409] inception_5a/output_inception_5a/output_0_split -> inception_5a/output_inception_5a/output_0_split_1
I1129 22:32:10.776566  1829 net.cpp:409] inception_5a/output_inception_5a/output_0_split -> inception_5a/output_inception_5a/output_0_split_2
I1129 22:32:10.776577  1829 net.cpp:409] inception_5a/output_inception_5a/output_0_split -> inception_5a/output_inception_5a/output_0_split_3
I1129 22:32:10.776661  1829 net.cpp:144] Setting up inception_5a/output_inception_5a/output_0_split
I1129 22:32:10.776671  1829 net.cpp:151] Top shape: 32 832 7 7 (1304576)
I1129 22:32:10.776677  1829 net.cpp:151] Top shape: 32 832 7 7 (1304576)
I1129 22:32:10.776684  1829 net.cpp:151] Top shape: 32 832 7 7 (1304576)
I1129 22:32:10.776688  1829 net.cpp:151] Top shape: 32 832 7 7 (1304576)
I1129 22:32:10.776695  1829 net.cpp:159] Memory required for data: 1766950152
I1129 22:32:10.776702  1829 layer_factory.hpp:77] Creating layer inception_5b/1x1
I1129 22:32:10.776721  1829 net.cpp:94] Creating Layer inception_5b/1x1
I1129 22:32:10.776727  1829 net.cpp:435] inception_5b/1x1 <- inception_5a/output_inception_5a/output_0_split_0
I1129 22:32:10.776742  1829 net.cpp:409] inception_5b/1x1 -> inception_5b/1x1
I1129 22:32:10.781487  1829 net.cpp:144] Setting up inception_5b/1x1
I1129 22:32:10.781504  1829 net.cpp:151] Top shape: 32 384 7 7 (602112)
I1129 22:32:10.781525  1829 net.cpp:159] Memory required for data: 1769358600
I1129 22:32:10.781539  1829 layer_factory.hpp:77] Creating layer inception_5b/relu_1x1
I1129 22:32:10.781553  1829 net.cpp:94] Creating Layer inception_5b/relu_1x1
I1129 22:32:10.781559  1829 net.cpp:435] inception_5b/relu_1x1 <- inception_5b/1x1
I1129 22:32:10.781569  1829 net.cpp:396] inception_5b/relu_1x1 -> inception_5b/1x1 (in-place)
I1129 22:32:10.781584  1829 net.cpp:144] Setting up inception_5b/relu_1x1
I1129 22:32:10.781592  1829 net.cpp:151] Top shape: 32 384 7 7 (602112)
I1129 22:32:10.781597  1829 net.cpp:159] Memory required for data: 1771767048
I1129 22:32:10.781602  1829 layer_factory.hpp:77] Creating layer inception_5b/3x3_reduce
I1129 22:32:10.781620  1829 net.cpp:94] Creating Layer inception_5b/3x3_reduce
I1129 22:32:10.781626  1829 net.cpp:435] inception_5b/3x3_reduce <- inception_5a/output_inception_5a/output_0_split_1
I1129 22:32:10.781639  1829 net.cpp:409] inception_5b/3x3_reduce -> inception_5b/3x3_reduce
I1129 22:32:10.784582  1829 net.cpp:144] Setting up inception_5b/3x3_reduce
I1129 22:32:10.784600  1829 net.cpp:151] Top shape: 32 192 7 7 (301056)
I1129 22:32:10.784606  1829 net.cpp:159] Memory required for data: 1772971272
I1129 22:32:10.784617  1829 layer_factory.hpp:77] Creating layer inception_5b/relu_3x3_reduce
I1129 22:32:10.784628  1829 net.cpp:94] Creating Layer inception_5b/relu_3x3_reduce
I1129 22:32:10.784636  1829 net.cpp:435] inception_5b/relu_3x3_reduce <- inception_5b/3x3_reduce
I1129 22:32:10.784647  1829 net.cpp:396] inception_5b/relu_3x3_reduce -> inception_5b/3x3_reduce (in-place)
I1129 22:32:10.784662  1829 net.cpp:144] Setting up inception_5b/relu_3x3_reduce
I1129 22:32:10.784669  1829 net.cpp:151] Top shape: 32 192 7 7 (301056)
I1129 22:32:10.784675  1829 net.cpp:159] Memory required for data: 1774175496
I1129 22:32:10.784680  1829 layer_factory.hpp:77] Creating layer inception_5b/3x3
I1129 22:32:10.784696  1829 net.cpp:94] Creating Layer inception_5b/3x3
I1129 22:32:10.784703  1829 net.cpp:435] inception_5b/3x3 <- inception_5b/3x3_reduce
I1129 22:32:10.784716  1829 net.cpp:409] inception_5b/3x3 -> inception_5b/3x3
I1129 22:32:10.793694  1829 net.cpp:144] Setting up inception_5b/3x3
I1129 22:32:10.793715  1829 net.cpp:151] Top shape: 32 384 7 7 (602112)
I1129 22:32:10.793720  1829 net.cpp:159] Memory required for data: 1776583944
I1129 22:32:10.793730  1829 layer_factory.hpp:77] Creating layer inception_5b/relu_3x3
I1129 22:32:10.793741  1829 net.cpp:94] Creating Layer inception_5b/relu_3x3
I1129 22:32:10.793748  1829 net.cpp:435] inception_5b/relu_3x3 <- inception_5b/3x3
I1129 22:32:10.793757  1829 net.cpp:396] inception_5b/relu_3x3 -> inception_5b/3x3 (in-place)
I1129 22:32:10.793769  1829 net.cpp:144] Setting up inception_5b/relu_3x3
I1129 22:32:10.793776  1829 net.cpp:151] Top shape: 32 384 7 7 (602112)
I1129 22:32:10.793781  1829 net.cpp:159] Memory required for data: 1778992392
I1129 22:32:10.793784  1829 layer_factory.hpp:77] Creating layer inception_5b/5x5_reduce
I1129 22:32:10.793800  1829 net.cpp:94] Creating Layer inception_5b/5x5_reduce
I1129 22:32:10.793805  1829 net.cpp:435] inception_5b/5x5_reduce <- inception_5a/output_inception_5a/output_0_split_2
I1129 22:32:10.793817  1829 net.cpp:409] inception_5b/5x5_reduce -> inception_5b/5x5_reduce
I1129 22:32:10.795441  1829 net.cpp:144] Setting up inception_5b/5x5_reduce
I1129 22:32:10.795459  1829 net.cpp:151] Top shape: 32 48 7 7 (75264)
I1129 22:32:10.795464  1829 net.cpp:159] Memory required for data: 1779293448
I1129 22:32:10.795473  1829 layer_factory.hpp:77] Creating layer inception_5b/relu_5x5_reduce
I1129 22:32:10.795483  1829 net.cpp:94] Creating Layer inception_5b/relu_5x5_reduce
I1129 22:32:10.795491  1829 net.cpp:435] inception_5b/relu_5x5_reduce <- inception_5b/5x5_reduce
I1129 22:32:10.795501  1829 net.cpp:396] inception_5b/relu_5x5_reduce -> inception_5b/5x5_reduce (in-place)
I1129 22:32:10.795511  1829 net.cpp:144] Setting up inception_5b/relu_5x5_reduce
I1129 22:32:10.795518  1829 net.cpp:151] Top shape: 32 48 7 7 (75264)
I1129 22:32:10.795538  1829 net.cpp:159] Memory required for data: 1779594504
I1129 22:32:10.795544  1829 layer_factory.hpp:77] Creating layer inception_5b/5x5
I1129 22:32:10.795559  1829 net.cpp:94] Creating Layer inception_5b/5x5
I1129 22:32:10.795564  1829 net.cpp:435] inception_5b/5x5 <- inception_5b/5x5_reduce
I1129 22:32:10.795577  1829 net.cpp:409] inception_5b/5x5 -> inception_5b/5x5
I1129 22:32:10.797595  1829 net.cpp:144] Setting up inception_5b/5x5
I1129 22:32:10.797608  1829 net.cpp:151] Top shape: 32 128 7 7 (200704)
I1129 22:32:10.797613  1829 net.cpp:159] Memory required for data: 1780397320
I1129 22:32:10.797623  1829 layer_factory.hpp:77] Creating layer inception_5b/relu_5x5
I1129 22:32:10.797633  1829 net.cpp:94] Creating Layer inception_5b/relu_5x5
I1129 22:32:10.797641  1829 net.cpp:435] inception_5b/relu_5x5 <- inception_5b/5x5
I1129 22:32:10.797649  1829 net.cpp:396] inception_5b/relu_5x5 -> inception_5b/5x5 (in-place)
I1129 22:32:10.797662  1829 net.cpp:144] Setting up inception_5b/relu_5x5
I1129 22:32:10.797668  1829 net.cpp:151] Top shape: 32 128 7 7 (200704)
I1129 22:32:10.797672  1829 net.cpp:159] Memory required for data: 1781200136
I1129 22:32:10.797677  1829 layer_factory.hpp:77] Creating layer inception_5b/pool
I1129 22:32:10.797689  1829 net.cpp:94] Creating Layer inception_5b/pool
I1129 22:32:10.797694  1829 net.cpp:435] inception_5b/pool <- inception_5a/output_inception_5a/output_0_split_3
I1129 22:32:10.797703  1829 net.cpp:409] inception_5b/pool -> inception_5b/pool
I1129 22:32:10.797765  1829 net.cpp:144] Setting up inception_5b/pool
I1129 22:32:10.797775  1829 net.cpp:151] Top shape: 32 832 7 7 (1304576)
I1129 22:32:10.797778  1829 net.cpp:159] Memory required for data: 1786418440
I1129 22:32:10.797782  1829 layer_factory.hpp:77] Creating layer inception_5b/pool_proj
I1129 22:32:10.797796  1829 net.cpp:94] Creating Layer inception_5b/pool_proj
I1129 22:32:10.797803  1829 net.cpp:435] inception_5b/pool_proj <- inception_5b/pool
I1129 22:32:10.797814  1829 net.cpp:409] inception_5b/pool_proj -> inception_5b/pool_proj
I1129 22:32:10.800249  1829 net.cpp:144] Setting up inception_5b/pool_proj
I1129 22:32:10.800266  1829 net.cpp:151] Top shape: 32 128 7 7 (200704)
I1129 22:32:10.800273  1829 net.cpp:159] Memory required for data: 1787221256
I1129 22:32:10.800282  1829 layer_factory.hpp:77] Creating layer inception_5b/relu_pool_proj
I1129 22:32:10.800294  1829 net.cpp:94] Creating Layer inception_5b/relu_pool_proj
I1129 22:32:10.800300  1829 net.cpp:435] inception_5b/relu_pool_proj <- inception_5b/pool_proj
I1129 22:32:10.800312  1829 net.cpp:396] inception_5b/relu_pool_proj -> inception_5b/pool_proj (in-place)
I1129 22:32:10.800323  1829 net.cpp:144] Setting up inception_5b/relu_pool_proj
I1129 22:32:10.800329  1829 net.cpp:151] Top shape: 32 128 7 7 (200704)
I1129 22:32:10.800333  1829 net.cpp:159] Memory required for data: 1788024072
I1129 22:32:10.800340  1829 layer_factory.hpp:77] Creating layer inception_5b/output
I1129 22:32:10.800349  1829 net.cpp:94] Creating Layer inception_5b/output
I1129 22:32:10.800354  1829 net.cpp:435] inception_5b/output <- inception_5b/1x1
I1129 22:32:10.800361  1829 net.cpp:435] inception_5b/output <- inception_5b/3x3
I1129 22:32:10.800369  1829 net.cpp:435] inception_5b/output <- inception_5b/5x5
I1129 22:32:10.800374  1829 net.cpp:435] inception_5b/output <- inception_5b/pool_proj
I1129 22:32:10.800384  1829 net.cpp:409] inception_5b/output -> inception_5b/output
I1129 22:32:10.800426  1829 net.cpp:144] Setting up inception_5b/output
I1129 22:32:10.800434  1829 net.cpp:151] Top shape: 32 1024 7 7 (1605632)
I1129 22:32:10.800439  1829 net.cpp:159] Memory required for data: 1794446600
I1129 22:32:10.800443  1829 layer_factory.hpp:77] Creating layer pool5/7x7_s1
I1129 22:32:10.800453  1829 net.cpp:94] Creating Layer pool5/7x7_s1
I1129 22:32:10.800459  1829 net.cpp:435] pool5/7x7_s1 <- inception_5b/output
I1129 22:32:10.800468  1829 net.cpp:409] pool5/7x7_s1 -> pool5/7x7_s1
I1129 22:32:10.800508  1829 net.cpp:144] Setting up pool5/7x7_s1
I1129 22:32:10.800532  1829 net.cpp:151] Top shape: 32 1024 1 1 (32768)
I1129 22:32:10.800539  1829 net.cpp:159] Memory required for data: 1794577672
I1129 22:32:10.800544  1829 layer_factory.hpp:77] Creating layer pool5/drop_7x7_s1
I1129 22:32:10.800555  1829 net.cpp:94] Creating Layer pool5/drop_7x7_s1
I1129 22:32:10.800560  1829 net.cpp:435] pool5/drop_7x7_s1 <- pool5/7x7_s1
I1129 22:32:10.800570  1829 net.cpp:396] pool5/drop_7x7_s1 -> pool5/7x7_s1 (in-place)
I1129 22:32:10.800607  1829 net.cpp:144] Setting up pool5/drop_7x7_s1
I1129 22:32:10.800616  1829 net.cpp:151] Top shape: 32 1024 1 1 (32768)
I1129 22:32:10.800621  1829 net.cpp:159] Memory required for data: 1794708744
I1129 22:32:10.800626  1829 layer_factory.hpp:77] Creating layer loss3/classifier
I1129 22:32:10.800639  1829 net.cpp:94] Creating Layer loss3/classifier
I1129 22:32:10.800644  1829 net.cpp:435] loss3/classifier <- pool5/7x7_s1
I1129 22:32:10.800654  1829 net.cpp:409] loss3/classifier -> loss3/classifier
I1129 22:32:10.800864  1829 net.cpp:144] Setting up loss3/classifier
I1129 22:32:10.800875  1829 net.cpp:151] Top shape: 32 3 (96)
I1129 22:32:10.800880  1829 net.cpp:159] Memory required for data: 1794709128
I1129 22:32:10.800889  1829 layer_factory.hpp:77] Creating layer loss3/loss
I1129 22:32:10.800900  1829 net.cpp:94] Creating Layer loss3/loss
I1129 22:32:10.800905  1829 net.cpp:435] loss3/loss <- loss3/classifier
I1129 22:32:10.800912  1829 net.cpp:435] loss3/loss <- label_train-data_1_split_2
I1129 22:32:10.800920  1829 net.cpp:409] loss3/loss -> loss
…
I1129 22:32:10.805526  1829 net.cpp:323] The NetState phase (1) differed from the phase (0) specified by a rule in layer train-data
I1129 22:32:10.807428  1829 net.cpp:52] Initializing net from parameters:
state {
phase: TEST
}
layer {
name: "val-data"
type: "Data"
top: "data"
top: "label"
include {
phase: TEST
}
transform_param {
mirror: false
crop_size: 224
mean_file: "/home/ubuntu/digits/digits/jobs/20171129-221421-0e17/mean.binaryproto"
}
data_param {
source: "/home/ubuntu/digits/digits/jobs/20171129-221421-0e17/val_db"
batch_size: 16
backend: LMDB
}
}
layer {
name: "conv1/7x7_s2"
type: "Convolution"
bottom: "data"
top: "conv1/7x7_s2"
param {
lr_mult: 1
decay_mult: 1
}
param {
lr_mult: 2
decay_mult: 0
}
convolution_param {
num_output: 64
pad: 3
kernel_size: 7
stride: 2
weight_filler {
type: "xavier"
std: 0.1
}
bias_filler {
type: "constant"
value: 0.2
}
}
}
layer {
name: "conv1/relu_7x7"
type: "ReLU"
bottom: "conv1/7x7_s2"
top: "conv1/7x7_s2"
}
layer {
name: "pool1/3x3_s2"
type: "Pooling"
bottom: "conv1/7x7_s2"
top: "pool1/3x3_s2"
pooling_param {
pool: MAX
kernel_size: 3
stride: 2
}
}
layer {
name: "pool1/norm1"
type: "LRN"
bottom: "pool1/3x3_s2"
top: "pool1/norm1"
lrn_param {
local_size: 5
alpha: 0.0001
beta: 0.75
}
}
layer {
name: "conv2/3x3_reduce"
type: "Convolution"
bottom: "pool1/norm1"
top: "conv2/3x3_reduce"
param {
lr_mult: 1
decay_mult: 1
}
param {
lr_mult: 2
decay_mult: 0
}
convolution_param {
num_output: 64
kernel_size: 1
weight_filler {
type: "xavier"
std: 0.1
}
bias_filler {
type: "constant"
value: 0.2
}
}
}
layer {
name: "conv2/relu_3x3_reduce"
type: "ReLU"
bottom: "conv2/3x3_reduce"
top: "conv2/3x3_reduce"
}
layer {
name: "conv2/3x3"
type: "Convolution"
bottom: "conv2/3x3_reduce"
top: "conv2/3x3"
param {
lr_mult: 1
decay_mult: 1
}
param {
lr_mult: 2
decay_mult: 0
}
convolution_param {
num_output: 192
pad: 1
kernel_size: 3
weight_filler {
type: "xavier"
std: 0.03
}
bias_filler {
type: "constant"
value: 0.2
}
}
}
layer {
name: "conv2/relu_3x3"
type: "ReLU"
bottom: "conv2/3x3"
top: "conv2/3x3"
}
layer {
name: "conv2/norm2"
type: "LRN"
bottom: "conv2/3x3"
top: "conv2/norm2"
lrn_param {
local_size: 5
alpha: 0.0001
beta: 0.75
}
}
layer {
name: "pool2/3x3_s2"
type: "Pooling"
bottom: "conv2/norm2"
top: "pool2/3x3_s2"
pooling_param {
pool: MAX
kernel_size: 3
stride: 2
}
}
layer {
name: "inception_3a/1x1"
type: "Convolution"
bottom: "pool2/3x3_s2"
top: "inception_3a/1x1"
param {
lr_mult: 1
decay_mult: 1
}
param {
lr_mult: 2
decay_mult: 0
}
convolution_param {
num_output: 64
kernel_size: 1
weight_filler {
type: "xavier"
std: 0.03
}
bias_filler {
type: "constant"
value: 0.2
}
}
}
layer {
name: "inception_3a/relu_1x1"
type: "ReLU"
bottom: "inception_3a/1x1"
top: "inception_3a/1x1"
}
layer {
name: "inception_3a/3x3_reduce"
type: "Convolution"
bottom: "pool2/3x3_s2"
top: "inception_3a/3x3_reduce"
param {
lr_mult: 1
decay_mult: 1
}
param {
lr_mult: 2
decay_mult: 0
}
convolution_param {
num_output: 96
kernel_size: 1
weight_filler {
type: "xavier"
std: 0.09
}
bias_filler {
type: "constant"
value: 0.2
}
}
}
layer {
name: "inception_3a/relu_3x3_reduce"
type: "ReLU"
bottom: "inception_3a/3x3_reduce"
top: "inception_3a/3x3_reduce"
}
layer {
name: "inception_3a/3x3"
type: "Convolution"
bottom: "inception_3a/3x3_reduce"
top: "inception_3a/3x3"
param {
lr_mult: 1
decay_mult: 1
}
param {
lr_mult: 2
decay_mult: 0
}
convolution_param {
num_output: 128
pad: 1
kernel_size: 3
weight_filler {
type: "xavier"
std: 0.03
}
bias_filler {
type: "constant"
value: 0.2
}
}
}
layer {
name: "inception_3a/relu_3x3"
type: "ReLU"
bottom: "inception_3a/3x3"
top: "inception_3a/3x3"
}
layer {
name: "inception_3a/5x5_reduce"
type: "Convolution"
bottom: "pool2/3x3_s2"
top: "inception_3a/5x5_reduce"
param {
lr_mult: 1
decay_mult: 1
}
param {
lr_mult: 2
decay_mult: 0
}
convolution_param {
num_output: 16
kernel_size: 1
weight_filler {
type: "xavier"
std: 0.2
}
bias_filler {
type: "constant"
value: 0.2
}
}
}
layer {
name: "inception_3a/relu_5x5_reduce"
type: "ReLU"
bottom: "inception_3a/5x5_reduce"
top: "inception_3a/5x5_reduce"
}
layer {
name: "inception_3a/5x5"
type: "Convolution"
bottom: "inception_3a/5x5_reduce"
top: "inception_3a/5x5"
param {
lr_mult: 1
decay_mult: 1
}
param {
lr_mult: 2
decay_mult: 0
}
convolution_param {
num_output: 32
pad: 2
kernel_size: 5
weight_filler {
type: "xavier"
std: 0.03
}
bias_filler {
type: "constant"
value: 0.2
}
}
}
layer {
name: "inception_3a/relu_5x5"
type: "ReLU"
bottom: "inception_3a/5x5"
top: "inception_3a/5x5"
}
layer {
name: "inception_3a/pool"
type: "Pooling"
bottom: "pool2/3x3_s2"
top: "inception_3a/pool"
pooling_param {
pool: MAX
kernel_size: 3
stride: 1
pad: 1
}
}
layer {
name: "inception_3a/pool_proj"
type: "Convolution"
bottom: "inception_3a/pool"
top: "inception_3a/pool_proj"
param {
lr_mult: 1
decay_mult: 1
}
param {
lr_mult: 2
decay_mult: 0
}
convolution_param {
num_output: 32
kernel_size: 1
weight_filler {
type: "xavier"
std: 0.1
}
bias_filler {
type: "constant"
value: 0.2
}
}
}
layer {
name: "inception_3a/relu_pool_proj"
type: "ReLU"
bottom: "inception_3a/pool_proj"
top: "inception_3a/pool_proj"
}
layer {
name: "inception_3a/output"
type: "Concat"
bottom: "inception_3a/1x1"
bottom: "inception_3a/3x3"
bottom: "inception_3a/5x5"
bottom: "inception_3a/pool_proj"
top: "inception_3a/output"
}
layer {
name: "inception_3b/1x1"
type: "Convolution"
bottom: "inception_3a/output"
top: "inception_3b/1x1"
param {
lr_mult: 1
decay_mult: 1
}
param {
lr_mult: 2
decay_mult: 0
}
convolution_param {
num_output: 128
kernel_size: 1
weight_filler {
type: "xavier"
std: 0.03
}
bias_filler {
type: "constant"
value: 0.2
}
}
}
layer {
name: "inception_3b/relu_1x1"
type: "ReLU"
bottom: "inception_3b/1x1"
top: "inception_3b/1x1"
}
layer {
name: "inception_3b/3x3_reduce"
type: "Convolution"
bottom: "inception_3a/output"
top: "inception_3b/3x3_reduce"
param {
lr_mult: 1
decay_mult: 1
}
param {
lr_mult: 2
decay_mult: 0
}
convolution_param {
num_output: 128
kernel_size: 1
weight_filler {
type: "xavier"
std: 0.09
}
bias_filler {
type: "constant"
value: 0.2
}
}
}
layer {
name: "inception_3b/relu_3x3_reduce"
type: "ReLU"
bottom: "inception_3b/3x3_reduce"
top: "inception_3b/3x3_reduce"
}
layer {
name: "inception_3b/3x3"
type: "Convolution"
bottom: "inception_3b/3x3_reduce"
top: "inception_3b/3x3"
param {
lr_mult: 1
decay_mult: 1
}
param {
lr_mult: 2
decay_mult: 0
}
convolution_param {
num_output: 192
pad: 1
kernel_size: 3
weight_filler {
type: "xavier"
std: 0.03
}
bias_filler {
type: "constant"
value: 0.2
}
}
}
layer {
name: "inception_3b/relu_3x3"
type: "ReLU"
bottom: "inception_3b/3x3"
top: "inception_3b/3x3"
}
layer {
name: "inception_3b/5x5_reduce"
type: "Convolution"
bottom: "inception_3a/output"
top: "inception_3b/5x5_reduce"
param {
lr_mult: 1
decay_mult: 1
}
param {
lr_mult: 2
decay_mult: 0
}
convolution_param {
num_output: 32
kernel_size: 1
weight_filler {
type: "xavier"
std: 0.2
}
bias_filler {
type: "constant"
value: 0.2
}
}
}
layer {
name: "inception_3b/relu_5x5_reduce"
type: "ReLU"
bottom: "inception_3b/5x5_reduce"
top: "inception_3b/5x5_reduce"
}
layer {
name: "inception_3b/5x5"
type: "Convolution"
bottom: "inception_3b/5x5_reduce"
top: "inception_3b/5x5"
param {
lr_mult: 1
decay_mult: 1
}
param {
lr_mult: 2
decay_mult: 0
}
convolution_param {
num_output: 96
pad: 2
kernel_size: 5
weight_filler {
type: "xavier"
std: 0.03
}
bias_filler {
type: "constant"
value: 0.2
}
}
}
layer {
name: "inception_3b/relu_5x5"
type: "ReLU"
bottom: "inception_3b/5x5"
top: "inception_3b/5x5"
}
layer {
name: "inception_3b/pool"
type: "Pooling"
bottom: "inception_3a/output"
top: "inception_3b/pool"
pooling_param {
pool: MAX
kernel_size: 3
stride: 1
pad: 1
}
}
layer {
name: "inception_3b/pool_proj"
type: "Convolution"
bottom: "inception_3b/pool"
top: "inception_3b/pool_proj"
param {
lr_mult: 1
decay_mult: 1
}
param {
lr_mult: 2
decay_mult: 0
}
convolution_param {
num_output: 64
kernel_size: 1
weight_filler {
type: "xavier"
std: 0.1
}
bias_filler {
type: "constant"
value: 0.2
}
}
}
layer {
name: "inception_3b/relu_pool_proj"
type: "ReLU"
bottom: "inception_3b/pool_proj"
top: "inception_3b/pool_proj"
}
layer {
name: "inception_3b/output"
type: "Concat"
bottom: "inception_3b/1x1"
bottom: "inception_3b/3x3"
bottom: "inception_3b/5x5"
bottom: "inception_3b/pool_proj"
top: "inception_3b/output"
}
layer {
name: "pool3/3x3_s2"
type: "Pooling"
bottom: "inception_3b/output"
top: "pool3/3x3_s2"
pooling_param {
pool: MAX
kernel_size: 3
stride: 2
}
}
layer {
name: "inception_4a/1x1"
type: "Convolution"
bottom: "pool3/3x3_s2"
top: "inception_4a/1x1"
param {
lr_mult: 1
decay_mult: 1
}
param {
lr_mult: 2
decay_mult: 0
}
convolution_param {
num_output: 192
kernel_size: 1
weight_filler {
type: "xavier"
std: 0.03
}
bias_filler {
type: "constant"
value: 0.2
}
}
}
layer {
name: "inception_4a/relu_1x1"
type: "ReLU"
bottom: "inception_4a/1x1"
top: "inception_4a/1x1"
}
layer {
name: "inception_4a/3x3_reduce"
type: "Convolution"
bottom: "pool3/3x3_s2"
top: "inception_4a/3x3_reduce"
param {
lr_mult: 1
decay_mult: 1
}
param {
lr_mult: 2
decay_mult: 0
}
convolution_param {
num_output: 96
kernel_size: 1
weight_filler {
type: "xavier"
std: 0.09
}
bias_filler {
type: "constant"
value: 0.2
}
}
}
layer {
name: "inception_4a/relu_3x3_reduce"
type: "ReLU"
bottom: "inception_4a/3x3_reduce"
top: "inception_4a/3x3_reduce"
}
layer {
name: "inception_4a/3x3"
type: "Convolution"
bottom: "inception_4a/3x3_reduce"
top: "inception_4a/3x3"
param {
lr_mult: 1
decay_mult: 1
}
param {
lr_mult: 2
decay_mult: 0
}
convolution_param {
num_output: 208
pad: 1
kernel_size: 3
weight_filler {
type: "xavier"
std: 0.03
}
bias_filler {
type: "constant"
value: 0.2
}
}
}
layer {
name: "inception_4a/relu_3x3"
type: "ReLU"
bottom: "inception_4a/3x3"
top: "inception_4a/3x3"
}
layer {
name: "inception_4a/5x5_reduce"
type: "Convolution"
bottom: "pool3/3x3_s2"
top: "inception_4a/5x5_reduce"
param {
lr_mult: 1
decay_mult: 1
}
param {
lr_mult: 2
decay_mult: 0
}
convolution_param {
num_output: 16
kernel_size: 1
weight_filler {
type: "xavier"
std: 0.2
}
bias_filler {
type: "constant"
value: 0.2
}
}
}
layer {
name: "inception_4a/relu_5x5_reduce"
type: "ReLU"
bottom: "inception_4a/5x5_reduce"
top: "inception_4a/5x5_reduce"
}
layer {
name: "inception_4a/5x5"
type: "Convolution"
bottom: "inception_4a/5x5_reduce"
top: "inception_4a/5x5"
param {
lr_mult: 1
decay_mult: 1
}
param {
lr_mult: 2
decay_mult: 0
}
convolution_param {
num_output: 48
pad: 2
kernel_size: 5
weight_filler {
type: "xavier"
std: 0.03
}
bias_filler {
type: "constant"
value: 0.2
}
}
}
layer {
name: "inception_4a/relu_5x5"
type: "ReLU"
bottom: "inception_4a/5x5"
top: "inception_4a/5x5"
}
layer {
name: "inception_4a/pool"
type: "Pooling"
bottom: "pool3/3x3_s2"
top: "inception_4a/pool"
pooling_param {
pool: MAX
kernel_size: 3
stride: 1
pad: 1
}
}
layer {
name: "inception_4a/pool_proj"
type: "Convolution"
bottom: "inception_4a/pool"
top: "inception_4a/pool_proj"
param {
lr_mult: 1
decay_mult: 1
}
param {
lr_mult: 2
decay_mult: 0
}
convolution_param {
num_output: 64
kernel_size: 1
weight_filler {
type: "xavier"
std: 0.1
}
bias_filler {
type: "constant"
value: 0.2
}
}
}
layer {
name: "inception_4a/relu_pool_proj"
type: "ReLU"
bottom: "inception_4a/pool_proj"
top: "inception_4a/pool_proj"
}
layer {
name: "inception_4a/output"
type: "Concat"
bottom: "inception_4a/1x1"
bottom: "inception_4a/3x3"
bottom: "inception_4a/5x5"
bottom: "inception_4a/pool_proj"
top: "inception_4a/output"
}
layer {
name: "loss1/ave_pool"
type: "Pooling"
bottom: "inception_4a/output"
top: "loss1/ave_pool"
pooling_param {
pool: AVE
kernel_size: 5
stride: 3
}
}
layer {
name: "loss1/conv"
type: "Convolution"
bottom: "loss1/ave_pool"
top: "loss1/conv"
param {
lr_mult: 1
decay_mult: 1
}
param {
lr_mult: 2
decay_mult: 0
}
convolution_param {
num_output: 128
kernel_size: 1
weight_filler {
type: "xavier"
std: 0.08
}
bias_filler {
type: "constant"
value: 0.2
}
}
}
layer {
name: "loss1/relu_conv"
type: "ReLU"
bottom: "loss1/conv"
top: "loss1/conv"
}
layer {
name: "loss1/fc"
type: "InnerProduct"
bottom: "loss1/conv"
top: "loss1/fc"
param {
lr_mult: 1
decay_mult: 1
}
param {
lr_mult: 2
decay_mult: 0
}
inner_product_param {
num_output: 1024
weight_filler {
type: "xavier"
std: 0.02
}
bias_filler {
type: "constant"
value: 0.2
}
}
}
layer {
name: "loss1/relu_fc"
type: "ReLU"
bottom: "loss1/fc"
top: "loss1/fc"
}
layer {
name: "loss1/drop_fc"
type: "Dropout"
bottom: "loss1/fc"
top: "loss1/fc"
dropout_param {
dropout_ratio: 0.7
}
}
layer {
name: "loss1/classifier"
type: "InnerProduct"
bottom: "loss1/fc"
top: "loss1/classifier"
param {
lr_mult: 1
decay_mult: 1
}
param {
lr_mult: 2
decay_mult: 0
}
inner_product_param {
num_output: 3
weight_filler {
type: "xavier"
std: 0.0009765625
}
bias_filler {
type: "constant"
value: 0
}
}
}
layer {
name: "loss1/loss"
type: "SoftmaxWithLoss"
bottom: "loss1/classifier"
bottom: "label"
top: "loss1/loss"
loss_weight: 0.3
}
layer {
name: "loss1/top-1"
type: "Accuracy"
bottom: "loss1/classifier"
bottom: "label"
top: "loss1/accuracy"
include {
phase: TEST
}
}
layer {
name: "inception_4b/1x1"
type: "Convolution"
bottom: "inception_4a/output"
top: "inception_4b/1x1"
param {
lr_mult: 1
decay_mult: 1
}
param {
lr_mult: 2
decay_mult: 0
}
convolution_param {
num_output: 160
kernel_size: 1
weight_filler {
type: "xavier"
std: 0.03
}
bias_filler {
type: "constant"
value: 0.2
}
}
}
layer {
name: "inception_4b/relu_1x1"
type: "ReLU"
bottom: "inception_4b/1x1"
top: "inception_4b/1x1"
}
layer {
name: "inception_4b/3x3_reduce"
type: "Convolution"
bottom: "inception_4a/output"
top: "inception_4b/3x3_reduce"
param {
lr_mult: 1
decay_mult: 1
}
param {
lr_mult: 2
decay_mult: 0
}
convolution_param {
num_output: 112
kernel_size: 1
weight_filler {
type: "xavier"
std: 0.09
}
bias_filler {
type: "constant"
value: 0.2
}
}
}
layer {
name: "inception_4b/relu_3x3_reduce"
type: "ReLU"
bottom: "inception_4b/3x3_reduce"
top: "inception_4b/3x3_reduce"
}
layer {
name: "inception_4b/3x3"
type: "Convolution"
bottom: "inception_4b/3x3_reduce"
top: "inception_4b/3x3"
param {
lr_mult: 1
decay_mult: 1
}
param {
lr_mult: 2
decay_mult: 0
}
convolution_param {
num_output: 224
pad: 1
kernel_size: 3
weight_filler {
type: "xavier"
std: 0.03
}
bias_filler {
type: "constant"
value: 0.2
}
}
}
layer {
name: "inception_4b/relu_3x3"
type: "ReLU"
bottom: "inception_4b/3x3"
top: "inception_4b/3x3"
}
layer {
name: "inception_4b/5x5_reduce"
type: "Convolution"
bottom: "inception_4a/output"
top: "inception_4b/5x5_reduce"
param {
lr_mult: 1
decay_mult: 1
}
param {
lr_mult: 2
decay_mult: 0
}
convolution_param {
num_output: 24
kernel_size: 1
weight_filler {
type: "xavier"
std: 0.2
}
bias_filler {
type: "constant"
value: 0.2
}
}
}
layer {
name: "inception_4b/relu_5x5_reduce"
type: "ReLU"
bottom: "inception_4b/5x5_reduce"
top: "inception_4b/5x5_reduce"
}
layer {
name: "inception_4b/5x5"
type: "Convolution"
bottom: "inception_4b/5x5_reduce"
top: "inception_4b/5x5"
param {
lr_mult: 1
decay_mult: 1
}
param {
lr_mult: 2
decay_mult: 0
}
convolution_param {
num_output: 64
pad: 2
kernel_size: 5
weight_filler {
type: "xavier"
std: 0.03
}
bias_filler {
type: "constant"
value: 0.2
}
}
}
layer {
name: "inception_4b/relu_5x5"
type: "ReLU"
bottom: "inception_4b/5x5"
top: "inception_4b/5x5"
}
layer {
name: "inception_4b/pool"
type: "Pooling"
bottom: "inception_4a/output"
top: "inception_4b/pool"
pooling_param {
pool: MAX
kernel_size: 3
stride: 1
pad: 1
}
}
layer {
name: "inception_4b/pool_proj"
type: "Convolution"
bottom: "inception_4b/pool"
top: "inception_4b/pool_proj"
param {
lr_mult: 1
decay_mult: 1
}
param {
lr_mult: 2
decay_mult: 0
}
convolution_param {
num_output: 64
kernel_size: 1
weight_filler {
type: "xavier"
std: 0.1
}
bias_filler {
type: "constant"
value: 0.2
}
}
}
layer {
name: "inception_4b/relu_pool_proj"
type: "ReLU"
bottom: "inception_4b/pool_proj"
top: "inception_4b/pool_proj"
}
layer {
name: "inception_4b/output"
type: "Concat"
bottom: "inception_4b/1x1"
bottom: "inception_4b/3x3"
bottom: "inception_4b/5x5"
bottom: "inception_4b/pool_proj"
top: "inception_4b/output"
}
layer {
name: "inception_4c/1x1"
type: "Convolution"
bottom: "inception_4b/output"
top: "inception_4c/1x1"
param {
lr_mult: 1
decay_mult: 1
}
param {
lr_mult: 2
decay_mult: 0
}
convolution_param {
num_output: 128
kernel_size: 1
weight_filler {
type: "xavier"
std: 0.03
}
bias_filler {
type: "constant"
value: 0.2
}
}
}
layer {
name: "inception_4c/relu_1x1"
type: "ReLU"
bottom: "inception_4c/1x1"
top: "inception_4c/1x1"
}
layer {
name: "inception_4c/3x3_reduce"
type: "Convolution"
bottom: "inception_4b/output"
top: "inception_4c/3x3_reduce"
param {
lr_mult: 1
decay_mult: 1
}
param {
lr_mult: 2
decay_mult: 0
}
convolution_param {
num_output: 128
kernel_size: 1
weight_filler {
type: "xavier"
std: 0.09
}
bias_filler {
type: "constant"
value: 0.2
}
}
}
layer {
name: "inception_4c/relu_3x3_reduce"
type: "ReLU"
bottom: "inception_4c/3x3_reduce"
top: "inception_4c/3x3_reduce"
}
layer {
name: "inception_4c/3x3"
type: "Convolution"
bottom: "inception_4c/3x3_reduce"
top: "inception_4c/3x3"
param {
lr_mult: 1
decay_mult: 1
}
param {
lr_mult: 2
decay_mult: 0
}
convolution_param {
num_output: 256
pad: 1
kernel_size: 3
weight_filler {
type: "xavier"
std: 0.03
}
bias_filler {
type: "constant"
value: 0.2
}
}
}
layer {
name: "inception_4c/relu_3x3"
type: "ReLU"
bottom: "inception_4c/3x3"
top: "inception_4c/3x3"
}
layer {
name: "inception_4c/5x5_reduce"
type: "Convolution"
bottom: "inception_4b/output"
top: "inception_4c/5x5_reduce"
param {
lr_mult: 1
decay_mult: 1
}
param {
lr_mult: 2
decay_mult: 0
}
convolution_param {
num_output: 24
kernel_size: 1
weight_filler {
type: "xavier"
std: 0.2
}
bias_filler {
type: "constant"
value: 0.2
}
}
}
layer {
name: "inception_4c/relu_5x5_reduce"
type: "ReLU"
bottom: "inception_4c/5x5_reduce"
top: "inception_4c/5x5_reduce"
}
layer {
name: "inception_4c/5x5"
type: "Convolution"
bottom: "inception_4c/5x5_reduce"
top: "inception_4c/5x5"
param {
lr_mult: 1
decay_mult: 1
}
param {
lr_mult: 2
decay_mult: 0
}
convolution_param {
num_output: 64
pad: 2
kernel_size: 5
weight_filler {
type: "xavier"
std: 0.03
}
bias_filler {
type: "constant"
value: 0.2
}
}
}
layer {
name: "inception_4c/relu_5x5"
type: "ReLU"
bottom: "inception_4c/5x5"
top: "inception_4c/5x5"
}
layer {
name: "inception_4c/pool"
type: "Pooling"
bottom: "inception_4b/output"
top: "inception_4c/pool"
pooling_param {
pool: MAX
kernel_size: 3
stride: 1
pad: 1
}
}
layer {
name: "inception_4c/pool_proj"
type: "Convolution"
bottom: "inception_4c/pool"
top: "inception_4c/pool_proj"
param {
lr_mult: 1
decay_mult: 1
}
param {
lr_mult: 2
decay_mult: 0
}
convolution_param {
num_output: 64
kernel_size: 1
weight_filler {
type: "xavier"
std: 0.1
}
bias_filler {
type: "constant"
value: 0.2
}
}
}
layer {
name: "inception_4c/relu_pool_proj"
type: "ReLU"
bottom: "inception_4c/pool_proj"
top: "inception_4c/pool_proj"
}
layer {
name: "inception_4c/output"
type: "Concat"
bottom: "inception_4c/1x1"
bottom: "inception_4c/3x3"
bottom: "inception_4c/5x5"
bottom: "inception_4c/pool_proj"
top: "inception_4c/output"
}
layer {
name: "inception_4d/1x1"
type: "Convolution"
bottom: "inception_4c/output"
top: "inception_4d/1x1"
param {
lr_mult: 1
decay_mult: 1
}
param {
lr_mult: 2
decay_mult: 0
}
convolution_param {
num_output: 112
kernel_size: 1
weight_filler {
type: "xavier"
std: 0.03
}
bias_filler {
type: "constant"
value: 0.2
}
}
}
layer {
name: "inception_4d/relu_1x1"
type: "ReLU"
bottom: "inception_4d/1x1"
top: "inception_4d/1x1"
}
layer {
name: "inception_4d/3x3_reduce"
…
I1129 22:32:10.951227  1829 net.cpp:159] Memory required for data: 699835400
I1129 22:32:10.951252  1829 layer_factory.hpp:77] Creating layer inception_4c/relu_5x5
I1129 22:32:10.951262  1829 net.cpp:94] Creating Layer inception_4c/relu_5x5
I1129 22:32:10.951267  1829 net.cpp:435] inception_4c/relu_5x5 <- inception_4c/5x5
I1129 22:32:10.951278  1829 net.cpp:396] inception_4c/relu_5x5 -> inception_4c/5x5 (in-place)
I1129 22:32:10.951288  1829 net.cpp:144] Setting up inception_4c/relu_5x5
I1129 22:32:10.951294  1829 net.cpp:151] Top shape: 16 64 14 14 (200704)
I1129 22:32:10.951298  1829 net.cpp:159] Memory required for data: 700638216
I1129 22:32:10.951305  1829 layer_factory.hpp:77] Creating layer inception_4c/pool
I1129 22:32:10.951315  1829 net.cpp:94] Creating Layer inception_4c/pool
I1129 22:32:10.951320  1829 net.cpp:435] inception_4c/pool <- inception_4b/output_inception_4b/output_0_split_3
I1129 22:32:10.951330  1829 net.cpp:409] inception_4c/pool -> inception_4c/pool
I1129 22:32:10.951402  1829 net.cpp:144] Setting up inception_4c/pool
I1129 22:32:10.951411  1829 net.cpp:151] Top shape: 16 512 14 14 (1605632)
I1129 22:32:10.951416  1829 net.cpp:159] Memory required for data: 707060744
I1129 22:32:10.951421  1829 layer_factory.hpp:77] Creating layer inception_4c/pool_proj
I1129 22:32:10.951436  1829 net.cpp:94] Creating Layer inception_4c/pool_proj
I1129 22:32:10.951442  1829 net.cpp:435] inception_4c/pool_proj <- inception_4c/pool
I1129 22:32:10.951453  1829 net.cpp:409] inception_4c/pool_proj -> inception_4c/pool_proj
I1129 22:32:10.952198  1829 net.cpp:144] Setting up inception_4c/pool_proj
I1129 22:32:10.952210  1829 net.cpp:151] Top shape: 16 64 14 14 (200704)
I1129 22:32:10.952216  1829 net.cpp:159] Memory required for data: 707863560
I1129 22:32:10.952225  1829 layer_factory.hpp:77] Creating layer inception_4c/relu_pool_proj
I1129 22:32:10.952235  1829 net.cpp:94] Creating Layer inception_4c/relu_pool_proj
I1129 22:32:10.952242  1829 net.cpp:435] inception_4c/relu_pool_proj <- inception_4c/pool_proj
I1129 22:32:10.952251  1829 net.cpp:396] inception_4c/relu_pool_proj -> inception_4c/pool_proj (in-place)
I1129 22:32:10.952260  1829 net.cpp:144] Setting up inception_4c/relu_pool_proj
I1129 22:32:10.952267  1829 net.cpp:151] Top shape: 16 64 14 14 (200704)
I1129 22:32:10.952272  1829 net.cpp:159] Memory required for data: 708666376
I1129 22:32:10.952277  1829 layer_factory.hpp:77] Creating layer inception_4c/output
I1129 22:32:10.952286  1829 net.cpp:94] Creating Layer inception_4c/output
I1129 22:32:10.952291  1829 net.cpp:435] inception_4c/output <- inception_4c/1x1
I1129 22:32:10.952299  1829 net.cpp:435] inception_4c/output <- inception_4c/3x3
I1129 22:32:10.952306  1829 net.cpp:435] inception_4c/output <- inception_4c/5x5
I1129 22:32:10.952311  1829 net.cpp:435] inception_4c/output <- inception_4c/pool_proj
I1129 22:32:10.952319  1829 net.cpp:409] inception_4c/output -> inception_4c/output
I1129 22:32:10.952360  1829 net.cpp:144] Setting up inception_4c/output
I1129 22:32:10.952368  1829 net.cpp:151] Top shape: 16 512 14 14 (1605632)
I1129 22:32:10.952373  1829 net.cpp:159] Memory required for data: 715088904
I1129 22:32:10.952378  1829 layer_factory.hpp:77] Creating layer inception_4c/output_inception_4c/output_0_split
I1129 22:32:10.952389  1829 net.cpp:94] Creating Layer inception_4c/output_inception_4c/output_0_split
I1129 22:32:10.952395  1829 net.cpp:435] inception_4c/output_inception_4c/output_0_split <- inception_4c/output
I1129 22:32:10.952404  1829 net.cpp:409] inception_4c/output_inception_4c/output_0_split -> inception_4c/output_inception_4c/output_0_split_0
I1129 22:32:10.952415  1829 net.cpp:409] inception_4c/output_inception_4c/output_0_split -> inception_4c/output_inception_4c/output_0_split_1
I1129 22:32:10.952427  1829 net.cpp:409] inception_4c/output_inception_4c/output_0_split -> inception_4c/output_inception_4c/output_0_split_2
I1129 22:32:10.952438  1829 net.cpp:409] inception_4c/output_inception_4c/output_0_split -> inception_4c/output_inception_4c/output_0_split_3
I1129 22:32:10.952536  1829 net.cpp:144] Setting up inception_4c/output_inception_4c/output_0_split
I1129 22:32:10.952558  1829 net.cpp:151] Top shape: 16 512 14 14 (1605632)
I1129 22:32:10.952565  1829 net.cpp:151] Top shape: 16 512 14 14 (1605632)
I1129 22:32:10.952572  1829 net.cpp:151] Top shape: 16 512 14 14 (1605632)
I1129 22:32:10.952577  1829 net.cpp:151] Top shape: 16 512 14 14 (1605632)
I1129 22:32:10.952582  1829 net.cpp:159] Memory required for data: 740779016
I1129 22:32:10.952589  1829 layer_factory.hpp:77] Creating layer inception_4d/1x1
I1129 22:32:10.952602  1829 net.cpp:94] Creating Layer inception_4d/1x1
I1129 22:32:10.952608  1829 net.cpp:435] inception_4d/1x1 <- inception_4c/output_inception_4c/output_0_split_0
I1129 22:32:10.952620  1829 net.cpp:409] inception_4d/1x1 -> inception_4d/1x1
I1129 22:32:10.953635  1829 net.cpp:144] Setting up inception_4d/1x1
I1129 22:32:10.953649  1829 net.cpp:151] Top shape: 16 112 14 14 (351232)
I1129 22:32:10.953655  1829 net.cpp:159] Memory required for data: 742183944
I1129 22:32:10.953663  1829 layer_factory.hpp:77] Creating layer inception_4d/relu_1x1
I1129 22:32:10.953675  1829 net.cpp:94] Creating Layer inception_4d/relu_1x1
I1129 22:32:10.953680  1829 net.cpp:435] inception_4d/relu_1x1 <- inception_4d/1x1
I1129 22:32:10.953691  1829 net.cpp:396] inception_4d/relu_1x1 -> inception_4d/1x1 (in-place)
I1129 22:32:10.953701  1829 net.cpp:144] Setting up inception_4d/relu_1x1
I1129 22:32:10.953711  1829 net.cpp:151] Top shape: 16 112 14 14 (351232)
I1129 22:32:10.953714  1829 net.cpp:159] Memory required for data: 743588872
I1129 22:32:10.953719  1829 layer_factory.hpp:77] Creating layer inception_4d/3x3_reduce
I1129 22:32:10.953735  1829 net.cpp:94] Creating Layer inception_4d/3x3_reduce
I1129 22:32:10.953742  1829 net.cpp:435] inception_4d/3x3_reduce <- inception_4c/output_inception_4c/output_0_split_1
I1129 22:32:10.953754  1829 net.cpp:409] inception_4d/3x3_reduce -> inception_4d/3x3_reduce
I1129 22:32:10.955004  1829 net.cpp:144] Setting up inception_4d/3x3_reduce
I1129 22:32:10.955018  1829 net.cpp:151] Top shape: 16 144 14 14 (451584)
I1129 22:32:10.955024  1829 net.cpp:159] Memory required for data: 745395208
I1129 22:32:10.955031  1829 layer_factory.hpp:77] Creating layer inception_4d/relu_3x3_reduce
I1129 22:32:10.955042  1829 net.cpp:94] Creating Layer inception_4d/relu_3x3_reduce
I1129 22:32:10.955047  1829 net.cpp:435] inception_4d/relu_3x3_reduce <- inception_4d/3x3_reduce
I1129 22:32:10.955058  1829 net.cpp:396] inception_4d/relu_3x3_reduce -> inception_4d/3x3_reduce (in-place)
I1129 22:32:10.955068  1829 net.cpp:144] Setting up inception_4d/relu_3x3_reduce
I1129 22:32:10.955075  1829 net.cpp:151] Top shape: 16 144 14 14 (451584)
I1129 22:32:10.955080  1829 net.cpp:159] Memory required for data: 747201544
I1129 22:32:10.955085  1829 layer_factory.hpp:77] Creating layer inception_4d/3x3
I1129 22:32:10.955099  1829 net.cpp:94] Creating Layer inception_4d/3x3
I1129 22:32:10.955104  1829 net.cpp:435] inception_4d/3x3 <- inception_4d/3x3_reduce
I1129 22:32:10.955116  1829 net.cpp:409] inception_4d/3x3 -> inception_4d/3x3
I1129 22:32:10.960517  1829 net.cpp:144] Setting up inception_4d/3x3
I1129 22:32:10.960536  1829 net.cpp:151] Top shape: 16 288 14 14 (903168)
I1129 22:32:10.960541  1829 net.cpp:159] Memory required for data: 750814216
I1129 22:32:10.960549  1829 layer_factory.hpp:77] Creating layer inception_4d/relu_3x3
I1129 22:32:10.960561  1829 net.cpp:94] Creating Layer inception_4d/relu_3x3
I1129 22:32:10.960567  1829 net.cpp:435] inception_4d/relu_3x3 <- inception_4d/3x3
I1129 22:32:10.960577  1829 net.cpp:396] inception_4d/relu_3x3 -> inception_4d/3x3 (in-place)
I1129 22:32:10.960588  1829 net.cpp:144] Setting up inception_4d/relu_3x3
I1129 22:32:10.960597  1829 net.cpp:151] Top shape: 16 288 14 14 (903168)
I1129 22:32:10.960602  1829 net.cpp:159] Memory required for data: 754426888
I1129 22:32:10.960605  1829 layer_factory.hpp:77] Creating layer inception_4d/5x5_reduce
I1129 22:32:10.960620  1829 net.cpp:94] Creating Layer inception_4d/5x5_reduce
I1129 22:32:10.960626  1829 net.cpp:435] inception_4d/5x5_reduce <- inception_4c/output_inception_4c/output_0_split_2
I1129 22:32:10.960654  1829 net.cpp:409] inception_4d/5x5_reduce -> inception_4d/5x5_reduce
I1129 22:32:10.961287  1829 net.cpp:144] Setting up inception_4d/5x5_reduce
I1129 22:32:10.961302  1829 net.cpp:151] Top shape: 16 32 14 14 (100352)
I1129 22:32:10.961308  1829 net.cpp:159] Memory required for data: 754828296
I1129 22:32:10.961316  1829 layer_factory.hpp:77] Creating layer inception_4d/relu_5x5_reduce
I1129 22:32:10.961328  1829 net.cpp:94] Creating Layer inception_4d/relu_5x5_reduce
I1129 22:32:10.961333  1829 net.cpp:435] inception_4d/relu_5x5_reduce <- inception_4d/5x5_reduce
I1129 22:32:10.961344  1829 net.cpp:396] inception_4d/relu_5x5_reduce -> inception_4d/5x5_reduce (in-place)
I1129 22:32:10.961354  1829 net.cpp:144] Setting up inception_4d/relu_5x5_reduce
I1129 22:32:10.961359  1829 net.cpp:151] Top shape: 16 32 14 14 (100352)
I1129 22:32:10.961364  1829 net.cpp:159] Memory required for data: 755229704
I1129 22:32:10.961369  1829 layer_factory.hpp:77] Creating layer inception_4d/5x5
I1129 22:32:10.961383  1829 net.cpp:94] Creating Layer inception_4d/5x5
I1129 22:32:10.961388  1829 net.cpp:435] inception_4d/5x5 <- inception_4d/5x5_reduce
I1129 22:32:10.961398  1829 net.cpp:409] inception_4d/5x5 -> inception_4d/5x5
I1129 22:32:10.962332  1829 net.cpp:144] Setting up inception_4d/5x5
I1129 22:32:10.962343  1829 net.cpp:151] Top shape: 16 64 14 14 (200704)
I1129 22:32:10.962350  1829 net.cpp:159] Memory required for data: 756032520
I1129 22:32:10.962364  1829 layer_factory.hpp:77] Creating layer inception_4d/relu_5x5
I1129 22:32:10.962378  1829 net.cpp:94] Creating Layer inception_4d/relu_5x5
I1129 22:32:10.962386  1829 net.cpp:435] inception_4d/relu_5x5 <- inception_4d/5x5
I1129 22:32:10.962396  1829 net.cpp:396] inception_4d/relu_5x5 -> inception_4d/5x5 (in-place)
I1129 22:32:10.962406  1829 net.cpp:144] Setting up inception_4d/relu_5x5
I1129 22:32:10.962414  1829 net.cpp:151] Top shape: 16 64 14 14 (200704)
I1129 22:32:10.962419  1829 net.cpp:159] Memory required for data: 756835336
I1129 22:32:10.962424  1829 layer_factory.hpp:77] Creating layer inception_4d/pool
I1129 22:32:10.962433  1829 net.cpp:94] Creating Layer inception_4d/pool
I1129 22:32:10.962440  1829 net.cpp:435] inception_4d/pool <- inception_4c/output_inception_4c/output_0_split_3
I1129 22:32:10.962450  1829 net.cpp:409] inception_4d/pool -> inception_4d/pool
I1129 22:32:10.962517  1829 net.cpp:144] Setting up inception_4d/pool
I1129 22:32:10.962525  1829 net.cpp:151] Top shape: 16 512 14 14 (1605632)
I1129 22:32:10.962532  1829 net.cpp:159] Memory required for data: 763257864
I1129 22:32:10.962537  1829 layer_factory.hpp:77] Creating layer inception_4d/pool_proj
I1129 22:32:10.962550  1829 net.cpp:94] Creating Layer inception_4d/pool_proj
I1129 22:32:10.962555  1829 net.cpp:435] inception_4d/pool_proj <- inception_4d/pool
I1129 22:32:10.962568  1829 net.cpp:409] inception_4d/pool_proj -> inception_4d/pool_proj
I1129 22:32:10.963335  1829 net.cpp:144] Setting up inception_4d/pool_proj
I1129 22:32:10.963347  1829 net.cpp:151] Top shape: 16 64 14 14 (200704)
I1129 22:32:10.963351  1829 net.cpp:159] Memory required for data: 764060680
I1129 22:32:10.963361  1829 layer_factory.hpp:77] Creating layer inception_4d/relu_pool_proj
I1129 22:32:10.963371  1829 net.cpp:94] Creating Layer inception_4d/relu_pool_proj
I1129 22:32:10.963377  1829 net.cpp:435] inception_4d/relu_pool_proj <- inception_4d/pool_proj
I1129 22:32:10.963387  1829 net.cpp:396] inception_4d/relu_pool_proj -> inception_4d/pool_proj (in-place)
I1129 22:32:10.963397  1829 net.cpp:144] Setting up inception_4d/relu_pool_proj
I1129 22:32:10.963403  1829 net.cpp:151] Top shape: 16 64 14 14 (200704)
I1129 22:32:10.963408  1829 net.cpp:159] Memory required for data: 764863496
I1129 22:32:10.963413  1829 layer_factory.hpp:77] Creating layer inception_4d/output
I1129 22:32:10.963423  1829 net.cpp:94] Creating Layer inception_4d/output
I1129 22:32:10.963428  1829 net.cpp:435] inception_4d/output <- inception_4d/1x1
I1129 22:32:10.963434  1829 net.cpp:435] inception_4d/output <- inception_4d/3x3
I1129 22:32:10.963455  1829 net.cpp:435] inception_4d/output <- inception_4d/5x5
I1129 22:32:10.963464  1829 net.cpp:435] inception_4d/output <- inception_4d/pool_proj
I1129 22:32:10.963471  1829 net.cpp:409] inception_4d/output -> inception_4d/output
I1129 22:32:10.963515  1829 net.cpp:144] Setting up inception_4d/output
I1129 22:32:10.963524  1829 net.cpp:151] Top shape: 16 528 14 14 (1655808)
I1129 22:32:10.963529  1829 net.cpp:159] Memory required for data: 771486728
I1129 22:32:10.963534  1829 layer_factory.hpp:77] Creating layer inception_4d/output_inception_4d/output_0_split
I1129 22:32:10.963544  1829 net.cpp:94] Creating Layer inception_4d/output_inception_4d/output_0_split
I1129 22:32:10.963551  1829 net.cpp:435] inception_4d/output_inception_4d/output_0_split <- inception_4d/output
I1129 22:32:10.963562  1829 net.cpp:409] inception_4d/output_inception_4d/output_0_split -> inception_4d/output_inception_4d/output_0_split_0
I1129 22:32:10.963574  1829 net.cpp:409] inception_4d/output_inception_4d/output_0_split -> inception_4d/output_inception_4d/output_0_split_1
I1129 22:32:10.963585  1829 net.cpp:409] inception_4d/output_inception_4d/output_0_split -> inception_4d/output_inception_4d/output_0_split_2
I1129 22:32:10.963595  1829 net.cpp:409] inception_4d/output_inception_4d/output_0_split -> inception_4d/output_inception_4d/output_0_split_3
I1129 22:32:10.963608  1829 net.cpp:409] inception_4d/output_inception_4d/output_0_split -> inception_4d/output_inception_4d/output_0_split_4
I1129 22:32:10.963722  1829 net.cpp:144] Setting up inception_4d/output_inception_4d/output_0_split
I1129 22:32:10.963732  1829 net.cpp:151] Top shape: 16 528 14 14 (1655808)
I1129 22:32:10.963737  1829 net.cpp:151] Top shape: 16 528 14 14 (1655808)
I1129 22:32:10.963744  1829 net.cpp:151] Top shape: 16 528 14 14 (1655808)
I1129 22:32:10.963750  1829 net.cpp:151] Top shape: 16 528 14 14 (1655808)
I1129 22:32:10.963757  1829 net.cpp:151] Top shape: 16 528 14 14 (1655808)
I1129 22:32:10.963760  1829 net.cpp:159] Memory required for data: 804602888
I1129 22:32:10.963766  1829 layer_factory.hpp:77] Creating layer loss2/ave_pool
I1129 22:32:10.963775  1829 net.cpp:94] Creating Layer loss2/ave_pool
I1129 22:32:10.963781  1829 net.cpp:435] loss2/ave_pool <- inception_4d/output_inception_4d/output_0_split_0
I1129 22:32:10.963790  1829 net.cpp:409] loss2/ave_pool -> loss2/ave_pool
I1129 22:32:10.963835  1829 net.cpp:144] Setting up loss2/ave_pool
I1129 22:32:10.963842  1829 net.cpp:151] Top shape: 16 528 4 4 (135168)
I1129 22:32:10.963847  1829 net.cpp:159] Memory required for data: 805143560
I1129 22:32:10.963852  1829 layer_factory.hpp:77] Creating layer loss2/conv
I1129 22:32:10.963866  1829 net.cpp:94] Creating Layer loss2/conv
I1129 22:32:10.963872  1829 net.cpp:435] loss2/conv <- loss2/ave_pool
I1129 22:32:10.963883  1829 net.cpp:409] loss2/conv -> loss2/conv
I1129 22:32:10.965865  1829 net.cpp:144] Setting up loss2/conv
I1129 22:32:10.965884  1829 net.cpp:151] Top shape: 16 128 4 4 (32768)
I1129 22:32:10.965889  1829 net.cpp:159] Memory required for data: 805274632
I1129 22:32:10.965898  1829 layer_factory.hpp:77] Creating layer loss2/relu_conv
I1129 22:32:10.965909  1829 net.cpp:94] Creating Layer loss2/relu_conv
I1129 22:32:10.965915  1829 net.cpp:435] loss2/relu_conv <- loss2/conv
I1129 22:32:10.965925  1829 net.cpp:396] loss2/relu_conv -> loss2/conv (in-place)
I1129 22:32:10.965936  1829 net.cpp:144] Setting up loss2/relu_conv
I1129 22:32:10.965942  1829 net.cpp:151] Top shape: 16 128 4 4 (32768)
I1129 22:32:10.965948  1829 net.cpp:159] Memory required for data: 805405704
I1129 22:32:10.965953  1829 layer_factory.hpp:77] Creating layer loss2/fc
I1129 22:32:10.965965  1829 net.cpp:94] Creating Layer loss2/fc
I1129 22:32:10.965970  1829 net.cpp:435] loss2/fc <- loss2/conv
I1129 22:32:10.965981  1829 net.cpp:409] loss2/fc -> loss2/fc
I1129 22:32:10.982472  1829 net.cpp:144] Setting up loss2/fc
I1129 22:32:10.982486  1829 net.cpp:151] Top shape: 16 1024 (16384)
I1129 22:32:10.982489  1829 net.cpp:159] Memory required for data: 805471240
I1129 22:32:10.982511  1829 layer_factory.hpp:77] Creating layer loss2/relu_fc
I1129 22:32:10.982518  1829 net.cpp:94] Creating Layer loss2/relu_fc
I1129 22:32:10.982523  1829 net.cpp:435] loss2/relu_fc <- loss2/fc
I1129 22:32:10.982530  1829 net.cpp:396] loss2/relu_fc -> loss2/fc (in-place)
I1129 22:32:10.982539  1829 net.cpp:144] Setting up loss2/relu_fc
I1129 22:32:10.982543  1829 net.cpp:151] Top shape: 16 1024 (16384)
I1129 22:32:10.982545  1829 net.cpp:159] Memory required for data: 805536776
I1129 22:32:10.982548  1829 layer_factory.hpp:77] Creating layer loss2/drop_fc
I1129 22:32:10.982558  1829 net.cpp:94] Creating Layer loss2/drop_fc
I1129 22:32:10.982560  1829 net.cpp:435] loss2/drop_fc <- loss2/fc
I1129 22:32:10.982566  1829 net.cpp:396] loss2/drop_fc -> loss2/fc (in-place)
I1129 22:32:10.982599  1829 net.cpp:144] Setting up loss2/drop_fc
I1129 22:32:10.982604  1829 net.cpp:151] Top shape: 16 1024 (16384)
I1129 22:32:10.982606  1829 net.cpp:159] Memory required for data: 805602312
I1129 22:32:10.982609  1829 layer_factory.hpp:77] Creating layer loss2/classifier
I1129 22:32:10.982619  1829 net.cpp:94] Creating Layer loss2/classifier
I1129 22:32:10.982622  1829 net.cpp:435] loss2/classifier <- loss2/fc
I1129 22:32:10.982628  1829 net.cpp:409] loss2/classifier -> loss2/classifier
I1129 22:32:10.982765  1829 net.cpp:144] Setting up loss2/classifier
I1129 22:32:10.982771  1829 net.cpp:151] Top shape: 16 3 (48)
I1129 22:32:10.982774  1829 net.cpp:159] Memory required for data: 805602504
I1129 22:32:10.982780  1829 layer_factory.hpp:77] Creating layer loss2/classifier_loss2/classifier_0_split
I1129 22:32:10.982787  1829 net.cpp:94] Creating Layer loss2/classifier_loss2/classifier_0_split
I1129 22:32:10.982791  1829 net.cpp:435] loss2/classifier_loss2/classifier_0_split <- loss2/classifier
I1129 22:32:10.982800  1829 net.cpp:409] loss2/classifier_loss2/classifier_0_split -> loss2/classifier_loss2/classifier_0_split_0
I1129 22:32:10.982806  1829 net.cpp:409] loss2/classifier_loss2/classifier_0_split -> loss2/classifier_loss2/classifier_0_split_1
I1129 22:32:10.982847  1829 net.cpp:144] Setting up loss2/classifier_loss2/classifier_0_split
I1129 22:32:10.982853  1829 net.cpp:151] Top shape: 16 3 (48)
I1129 22:32:10.982856  1829 net.cpp:151] Top shape: 16 3 (48)
I1129 22:32:10.982859  1829 net.cpp:159] Memory required for data: 805602888
I1129 22:32:10.982861  1829 layer_factory.hpp:77] Creating layer loss2/loss
I1129 22:32:10.982869  1829 net.cpp:94] Creating Layer loss2/loss
I1129 22:32:10.982873  1829 net.cpp:435] loss2/loss <- loss2/classifier_loss2/classifier_0_split_0
I1129 22:32:10.982877  1829 net.cpp:435] loss2/loss <- label_val-data_1_split_2
…
I1129 22:32:10.983062  1829 net.cpp:144] Setting up loss2/top-1
I1129 22:32:10.983067  1829 net.cpp:151] Top shape: (1)
I1129 22:32:10.983069  1829 net.cpp:159] Memory required for data: 805602896
I1129 22:32:10.983072  1829 layer_factory.hpp:77] Creating layer inception_4e/1x1
I1129 22:32:10.983083  1829 net.cpp:94] Creating Layer inception_4e/1x1
I1129 22:32:10.983088  1829 net.cpp:435] inception_4e/1x1 <- inception_4d/output_inception_4d/output_0_split_1
I1129 22:32:10.983093  1829 net.cpp:409] inception_4e/1x1 -> inception_4e/1x1
I1129 22:32:10.984073  1829 net.cpp:144] Setting up inception_4e/1x1
I1129 22:32:10.984091  1829 net.cpp:151] Top shape: 16 256 14 14 (802816)
I1129 22:32:10.984096  1829 net.cpp:159] Memory required for data: 808814160
I1129 22:32:10.984100  1829 layer_factory.hpp:77] Creating layer inception_4e/relu_1x1
I1129 22:32:10.984107  1829 net.cpp:94] Creating Layer inception_4e/relu_1x1
I1129 22:32:10.984112  1829 net.cpp:435] inception_4e/relu_1x1 <- inception_4e/1x1
I1129 22:32:10.984117  1829 net.cpp:396] inception_4e/relu_1x1 -> inception_4e/1x1 (in-place)
I1129 22:32:10.984123  1829 net.cpp:144] Setting up inception_4e/relu_1x1
I1129 22:32:10.984128  1829 net.cpp:151] Top shape: 16 256 14 14 (802816)
I1129 22:32:10.984130  1829 net.cpp:159] Memory required for data: 812025424
I1129 22:32:10.984133  1829 layer_factory.hpp:77] Creating layer inception_4e/3x3_reduce
I1129 22:32:10.984143  1829 net.cpp:94] Creating Layer inception_4e/3x3_reduce
I1129 22:32:10.984148  1829 net.cpp:435] inception_4e/3x3_reduce <- inception_4d/output_inception_4d/output_0_split_2
I1129 22:32:10.984153  1829 net.cpp:409] inception_4e/3x3_reduce -> inception_4e/3x3_reduce
I1129 22:32:10.985602  1829 net.cpp:144] Setting up inception_4e/3x3_reduce
I1129 22:32:10.985615  1829 net.cpp:151] Top shape: 16 160 14 14 (501760)
I1129 22:32:10.985620  1829 net.cpp:159] Memory required for data: 814032464
I1129 22:32:10.985626  1829 layer_factory.hpp:77] Creating layer inception_4e/relu_3x3_reduce
I1129 22:32:10.985635  1829 net.cpp:94] Creating Layer inception_4e/relu_3x3_reduce
I1129 22:32:10.985638  1829 net.cpp:435] inception_4e/relu_3x3_reduce <- inception_4e/3x3_reduce
I1129 22:32:10.985646  1829 net.cpp:396] inception_4e/relu_3x3_reduce -> inception_4e/3x3_reduce (in-place)
I1129 22:32:10.985653  1829 net.cpp:144] Setting up inception_4e/relu_3x3_reduce
I1129 22:32:10.985657  1829 net.cpp:151] Top shape: 16 160 14 14 (501760)
I1129 22:32:10.985661  1829 net.cpp:159] Memory required for data: 816039504
I1129 22:32:10.985663  1829 layer_factory.hpp:77] Creating layer inception_4e/3x3
I1129 22:32:10.985707  1829 net.cpp:94] Creating Layer inception_4e/3x3
I1129 22:32:10.985710  1829 net.cpp:435] inception_4e/3x3 <- inception_4e/3x3_reduce
I1129 22:32:10.985716  1829 net.cpp:409] inception_4e/3x3 -> inception_4e/3x3
I1129 22:32:10.990123  1829 net.cpp:144] Setting up inception_4e/3x3
I1129 22:32:10.990135  1829 net.cpp:151] Top shape: 16 320 14 14 (1003520)
I1129 22:32:10.990139  1829 net.cpp:159] Memory required for data: 820053584
I1129 22:32:10.990145  1829 layer_factory.hpp:77] Creating layer inception_4e/relu_3x3
I1129 22:32:10.990154  1829 net.cpp:94] Creating Layer inception_4e/relu_3x3
I1129 22:32:10.990157  1829 net.cpp:435] inception_4e/relu_3x3 <- inception_4e/3x3
I1129 22:32:10.990164  1829 net.cpp:396] inception_4e/relu_3x3 -> inception_4e/3x3 (in-place)
I1129 22:32:10.990171  1829 net.cpp:144] Setting up inception_4e/relu_3x3
I1129 22:32:10.990176  1829 net.cpp:151] Top shape: 16 320 14 14 (1003520)
I1129 22:32:10.990178  1829 net.cpp:159] Memory required for data: 824067664
I1129 22:32:10.990181  1829 layer_factory.hpp:77] Creating layer inception_4e/5x5_reduce
I1129 22:32:10.990191  1829 net.cpp:94] Creating Layer inception_4e/5x5_reduce
I1129 22:32:10.990195  1829 net.cpp:435] inception_4e/5x5_reduce <- inception_4d/output_inception_4d/output_0_split_3
I1129 22:32:10.990203  1829 net.cpp:409] inception_4e/5x5_reduce -> inception_4e/5x5_reduce
I1129 22:32:10.990532  1829 net.cpp:144] Setting up inception_4e/5x5_reduce
I1129 22:32:10.990540  1829 net.cpp:151] Top shape: 16 32 14 14 (100352)
I1129 22:32:10.990543  1829 net.cpp:159] Memory required for data: 824469072
I1129 22:32:10.990548  1829 layer_factory.hpp:77] Creating layer inception_4e/relu_5x5_reduce
I1129 22:32:10.990555  1829 net.cpp:94] Creating Layer inception_4e/relu_5x5_reduce
I1129 22:32:10.990558  1829 net.cpp:435] inception_4e/relu_5x5_reduce <- inception_4e/5x5_reduce
I1129 22:32:10.990566  1829 net.cpp:396] inception_4e/relu_5x5_reduce -> inception_4e/5x5_reduce (in-place)
I1129 22:32:10.990571  1829 net.cpp:144] Setting up inception_4e/relu_5x5_reduce
I1129 22:32:10.990587  1829 net.cpp:151] Top shape: 16 32 14 14 (100352)
I1129 22:32:10.990591  1829 net.cpp:159] Memory required for data: 824870480
I1129 22:32:10.990594  1829 layer_factory.hpp:77] Creating layer inception_4e/5x5
I1129 22:32:10.990608  1829 net.cpp:94] Creating Layer inception_4e/5x5
I1129 22:32:10.990612  1829 net.cpp:435] inception_4e/5x5 <- inception_4e/5x5_reduce
I1129 22:32:10.990619  1829 net.cpp:409] inception_4e/5x5 -> inception_4e/5x5
I1129 22:32:10.991391  1829 net.cpp:144] Setting up inception_4e/5x5
I1129 22:32:10.991399  1829 net.cpp:151] Top shape: 16 128 14 14 (401408)
I1129 22:32:10.991401  1829 net.cpp:159] Memory required for data: 826476112
I1129 22:32:10.991410  1829 layer_factory.hpp:77] Creating layer inception_4e/relu_5x5
I1129 22:32:10.991416  1829 net.cpp:94] Creating Layer inception_4e/relu_5x5
I1129 22:32:10.991420  1829 net.cpp:435] inception_4e/relu_5x5 <- inception_4e/5x5
I1129 22:32:10.991423  1829 net.cpp:396] inception_4e/relu_5x5 -> inception_4e/5x5 (in-place)
I1129 22:32:10.991430  1829 net.cpp:144] Setting up inception_4e/relu_5x5
I1129 22:32:10.991434  1829 net.cpp:151] Top shape: 16 128 14 14 (401408)
I1129 22:32:10.991436  1829 net.cpp:159] Memory required for data: 828081744
I1129 22:32:10.991439  1829 layer_factory.hpp:77] Creating layer inception_4e/pool
I1129 22:32:10.991447  1829 net.cpp:94] Creating Layer inception_4e/pool
I1129 22:32:10.991451  1829 net.cpp:435] inception_4e/pool <- inception_4d/output_inception_4d/output_0_split_4
I1129 22:32:10.991456  1829 net.cpp:409] inception_4e/pool -> inception_4e/pool
I1129 22:32:10.991497  1829 net.cpp:144] Setting up inception_4e/pool
I1129 22:32:10.991503  1829 net.cpp:151] Top shape: 16 528 14 14 (1655808)
I1129 22:32:10.991505  1829 net.cpp:159] Memory required for data: 834704976
I1129 22:32:10.991508  1829 layer_factory.hpp:77] Creating layer inception_4e/pool_proj
I1129 22:32:10.991519  1829 net.cpp:94] Creating Layer inception_4e/pool_proj
I1129 22:32:10.991523  1829 net.cpp:435] inception_4e/pool_proj <- inception_4e/pool
I1129 22:32:10.991530  1829 net.cpp:409] inception_4e/pool_proj -> inception_4e/pool_proj
I1129 22:32:10.992105  1829 net.cpp:144] Setting up inception_4e/pool_proj
I1129 22:32:10.992112  1829 net.cpp:151] Top shape: 16 128 14 14 (401408)
I1129 22:32:10.992115  1829 net.cpp:159] Memory required for data: 836310608
I1129 22:32:10.992121  1829 layer_factory.hpp:77] Creating layer inception_4e/relu_pool_proj
I1129 22:32:10.992126  1829 net.cpp:94] Creating Layer inception_4e/relu_pool_proj
I1129 22:32:10.992130  1829 net.cpp:435] inception_4e/relu_pool_proj <- inception_4e/pool_proj
I1129 22:32:10.992136  1829 net.cpp:396] inception_4e/relu_pool_proj -> inception_4e/pool_proj (in-place)
I1129 22:32:10.992143  1829 net.cpp:144] Setting up inception_4e/relu_pool_proj
I1129 22:32:10.992146  1829 net.cpp:151] Top shape: 16 128 14 14 (401408)
I1129 22:32:10.992149  1829 net.cpp:159] Memory required for data: 837916240
I1129 22:32:10.992151  1829 layer_factory.hpp:77] Creating layer inception_4e/output
I1129 22:32:10.992158  1829 net.cpp:94] Creating Layer inception_4e/output
I1129 22:32:10.992161  1829 net.cpp:435] inception_4e/output <- inception_4e/1x1
I1129 22:32:10.992166  1829 net.cpp:435] inception_4e/output <- inception_4e/3x3
I1129 22:32:10.992168  1829 net.cpp:435] inception_4e/output <- inception_4e/5x5
I1129 22:32:10.992172  1829 net.cpp:435] inception_4e/output <- inception_4e/pool_proj
I1129 22:32:10.992177  1829 net.cpp:409] inception_4e/output -> inception_4e/output
I1129 22:32:10.992202  1829 net.cpp:144] Setting up inception_4e/output
I1129 22:32:10.992208  1829 net.cpp:151] Top shape: 16 832 14 14 (2609152)
I1129 22:32:10.992211  1829 net.cpp:159] Memory required for data: 848352848
I1129 22:32:10.992214  1829 layer_factory.hpp:77] Creating layer pool4/3x3_s2
I1129 22:32:10.992220  1829 net.cpp:94] Creating Layer pool4/3x3_s2
I1129 22:32:10.992223  1829 net.cpp:435] pool4/3x3_s2 <- inception_4e/output
I1129 22:32:10.992229  1829 net.cpp:409] pool4/3x3_s2 -> pool4/3x3_s2
I1129 22:32:10.992276  1829 net.cpp:144] Setting up pool4/3x3_s2
I1129 22:32:10.992282  1829 net.cpp:151] Top shape: 16 832 7 7 (652288)
I1129 22:32:10.992285  1829 net.cpp:159] Memory required for data: 850962000
I1129 22:32:10.992288  1829 layer_factory.hpp:77] Creating layer pool4/3x3_s2_pool4/3x3_s2_0_split
I1129 22:32:10.992295  1829 net.cpp:94] Creating Layer pool4/3x3_s2_pool4/3x3_s2_0_split
I1129 22:32:10.992298  1829 net.cpp:435] pool4/3x3_s2_pool4/3x3_s2_0_split <- pool4/3x3_s2
I1129 22:32:10.992306  1829 net.cpp:409] pool4/3x3_s2_pool4/3x3_s2_0_split -> pool4/3x3_s2_pool4/3x3_s2_0_split_0
I1129 22:32:10.992313  1829 net.cpp:409] pool4/3x3_s2_pool4/3x3_s2_0_split -> pool4/3x3_s2_pool4/3x3_s2_0_split_1
I1129 22:32:10.992321  1829 net.cpp:409] pool4/3x3_s2_pool4/3x3_s2_0_split -> pool4/3x3_s2_pool4/3x3_s2_0_split_2
I1129 22:32:10.992327  1829 net.cpp:409] pool4/3x3_s2_pool4/3x3_s2_0_split -> pool4/3x3_s2_pool4/3x3_s2_0_split_3
I1129 22:32:10.992380  1829 net.cpp:144] Setting up pool4/3x3_s2_pool4/3x3_s2_0_split
I1129 22:32:10.992386  1829 net.cpp:151] Top shape: 16 832 7 7 (652288)
I1129 22:32:10.992390  1829 net.cpp:151] Top shape: 16 832 7 7 (652288)
I1129 22:32:10.992393  1829 net.cpp:151] Top shape: 16 832 7 7 (652288)
I1129 22:32:10.992398  1829 net.cpp:151] Top shape: 16 832 7 7 (652288)
I1129 22:32:10.992400  1829 net.cpp:159] Memory required for data: 861398608
I1129 22:32:10.992403  1829 layer_factory.hpp:77] Creating layer inception_5a/1x1
I1129 22:32:10.992413  1829 net.cpp:94] Creating Layer inception_5a/1x1
I1129 22:32:10.992416  1829 net.cpp:435] inception_5a/1x1 <- pool4/3x3_s2_pool4/3x3_s2_0_split_0
I1129 22:32:10.992424  1829 net.cpp:409] inception_5a/1x1 -> inception_5a/1x1
I1129 22:32:10.994482  1829 net.cpp:144] Setting up inception_5a/1x1
I1129 22:32:10.994493  1829 net.cpp:151] Top shape: 16 256 7 7 (200704)
I1129 22:32:10.994496  1829 net.cpp:159] Memory required for data: 862201424
I1129 22:32:10.994503  1829 layer_factory.hpp:77] Creating layer inception_5a/relu_1x1
I1129 22:32:10.994513  1829 net.cpp:94] Creating Layer inception_5a/relu_1x1
I1129 22:32:10.994518  1829 net.cpp:435] inception_5a/relu_1x1 <- inception_5a/1x1
I1129 22:32:10.994523  1829 net.cpp:396] inception_5a/relu_1x1 -> inception_5a/1x1 (in-place)
I1129 22:32:10.994530  1829 net.cpp:144] Setting up inception_5a/relu_1x1
I1129 22:32:10.994534  1829 net.cpp:151] Top shape: 16 256 7 7 (200704)
I1129 22:32:10.994536  1829 net.cpp:159] Memory required for data: 863004240
I1129 22:32:10.994539  1829 layer_factory.hpp:77] Creating layer inception_5a/3x3_reduce
I1129 22:32:10.994550  1829 net.cpp:94] Creating Layer inception_5a/3x3_reduce
I1129 22:32:10.994554  1829 net.cpp:435] inception_5a/3x3_reduce <- pool4/3x3_s2_pool4/3x3_s2_0_split_1
I1129 22:32:10.994561  1829 net.cpp:409] inception_5a/3x3_reduce -> inception_5a/3x3_reduce
I1129 22:32:10.996181  1829 net.cpp:144] Setting up inception_5a/3x3_reduce
I1129 22:32:10.996194  1829 net.cpp:151] Top shape: 16 160 7 7 (125440)
I1129 22:32:10.996197  1829 net.cpp:159] Memory required for data: 863506000
I1129 22:32:10.996203  1829 layer_factory.hpp:77] Creating layer inception_5a/relu_3x3_reduce
I1129 22:32:10.996210  1829 net.cpp:94] Creating Layer inception_5a/relu_3x3_reduce
I1129 22:32:10.996215  1829 net.cpp:435] inception_5a/relu_3x3_reduce <- inception_5a/3x3_reduce
I1129 22:32:10.996222  1829 net.cpp:396] inception_5a/relu_3x3_reduce -> inception_5a/3x3_reduce (in-place)
I1129 22:32:10.996230  1829 net.cpp:144] Setting up inception_5a/relu_3x3_reduce
I1129 22:32:10.996234  1829 net.cpp:151] Top shape: 16 160 7 7 (125440)
I1129 22:32:10.996237  1829 net.cpp:159] Memory required for data: 864007760
I1129 22:32:10.996240  1829 layer_factory.hpp:77] Creating layer inception_5a/3x3
I1129 22:32:10.996250  1829 net.cpp:94] Creating Layer inception_5a/3x3
I1129 22:32:10.996253  1829 net.cpp:435] inception_5a/3x3 <- inception_5a/3x3_reduce
I1129 22:32:10.996261  1829 net.cpp:409] inception_5a/3x3 -> inception_5a/3x3
I1129 22:32:11.000025  1829 net.cpp:144] Setting up inception_5a/3x3
I1129 22:32:11.000048  1829 net.cpp:151] Top shape: 16 320 7 7 (250880)
I1129 22:32:11.000052  1829 net.cpp:159] Memory required for data: 865011280
I1129 22:32:11.000059  1829 layer_factory.hpp:77] Creating layer inception_5a/relu_3x3
I1129 22:32:11.000066  1829 net.cpp:94] Creating Layer inception_5a/relu_3x3
I1129 22:32:11.000071  1829 net.cpp:435] inception_5a/relu_3x3 <- inception_5a/3x3
I1129 22:32:11.000075  1829 net.cpp:396] inception_5a/relu_3x3 -> inception_5a/3x3 (in-place)
I1129 22:32:11.000084  1829 net.cpp:144] Setting up inception_5a/relu_3x3
I1129 22:32:11.000088  1829 net.cpp:151] Top shape: 16 320 7 7 (250880)
I1129 22:32:11.000090  1829 net.cpp:159] Memory required for data: 866014800
I1129 22:32:11.000093  1829 layer_factory.hpp:77] Creating layer inception_5a/5x5_reduce
I1129 22:32:11.000108  1829 net.cpp:94] Creating Layer inception_5a/5x5_reduce
I1129 22:32:11.000110  1829 net.cpp:435] inception_5a/5x5_reduce <- pool4/3x3_s2_pool4/3x3_s2_0_split_2
I1129 22:32:11.000116  1829 net.cpp:409] inception_5a/5x5_reduce -> inception_5a/5x5_reduce
I1129 22:32:11.001210  1829 net.cpp:144] Setting up inception_5a/5x5_reduce
I1129 22:32:11.001224  1829 net.cpp:151] Top shape: 16 32 7 7 (25088)
I1129 22:32:11.001227  1829 net.cpp:159] Memory required for data: 866115152
I1129 22:32:11.001233  1829 layer_factory.hpp:77] Creating layer inception_5a/relu_5x5_reduce
I1129 22:32:11.001240  1829 net.cpp:94] Creating Layer inception_5a/relu_5x5_reduce
I1129 22:32:11.001245  1829 net.cpp:435] inception_5a/relu_5x5_reduce <- inception_5a/5x5_reduce
I1129 22:32:11.001250  1829 net.cpp:396] inception_5a/relu_5x5_reduce -> inception_5a/5x5_reduce (in-place)
I1129 22:32:11.001256  1829 net.cpp:144] Setting up inception_5a/relu_5x5_reduce
I1129 22:32:11.001260  1829 net.cpp:151] Top shape: 16 32 7 7 (25088)
I1129 22:32:11.001263  1829 net.cpp:159] Memory required for data: 866215504
I1129 22:32:11.001266  1829 layer_factory.hpp:77] Creating layer inception_5a/5x5
I1129 22:32:11.001279  1829 net.cpp:94] Creating Layer inception_5a/5x5
I1129 22:32:11.001282  1829 net.cpp:435] inception_5a/5x5 <- inception_5a/5x5_reduce
I1129 22:32:11.001288  1829 net.cpp:409] inception_5a/5x5 -> inception_5a/5x5
I1129 22:32:11.002065  1829 net.cpp:144] Setting up inception_5a/5x5
I1129 22:32:11.002073  1829 net.cpp:151] Top shape: 16 128 7 7 (100352)
I1129 22:32:11.002074  1829 net.cpp:159] Memory required for data: 866616912
I1129 22:32:11.002080  1829 layer_factory.hpp:77] Creating layer inception_5a/relu_5x5
I1129 22:32:11.002086  1829 net.cpp:94] Creating Layer inception_5a/relu_5x5
I1129 22:32:11.002089  1829 net.cpp:435] inception_5a/relu_5x5 <- inception_5a/5x5
I1129 22:32:11.002096  1829 net.cpp:396] inception_5a/relu_5x5 -> inception_5a/5x5 (in-place)
I1129 22:32:11.002104  1829 net.cpp:144] Setting up inception_5a/relu_5x5
I1129 22:32:11.002107  1829 net.cpp:151] Top shape: 16 128 7 7 (100352)
I1129 22:32:11.002110  1829 net.cpp:159] Memory required for data: 867018320
I1129 22:32:11.002112  1829 layer_factory.hpp:77] Creating layer inception_5a/pool
I1129 22:32:11.002118  1829 net.cpp:94] Creating Layer inception_5a/pool
I1129 22:32:11.002122  1829 net.cpp:435] inception_5a/pool <- pool4/3x3_s2_pool4/3x3_s2_0_split_3
I1129 22:32:11.002130  1829 net.cpp:409] inception_5a/pool -> inception_5a/pool
I1129 22:32:11.002199  1829 net.cpp:144] Setting up inception_5a/pool
I1129 22:32:11.002207  1829 net.cpp:151] Top shape: 16 832 7 7 (652288)
I1129 22:32:11.002208  1829 net.cpp:159] Memory required for data: 869627472
I1129 22:32:11.002212  1829 layer_factory.hpp:77] Creating layer inception_5a/pool_proj
I1129 22:32:11.002219  1829 net.cpp:94] Creating Layer inception_5a/pool_proj
I1129 22:32:11.002224  1829 net.cpp:435] inception_5a/pool_proj <- inception_5a/pool
I1129 22:32:11.002230  1829 net.cpp:409] inception_5a/pool_proj -> inception_5a/pool_proj
I1129 22:32:11.003667  1829 net.cpp:144] Setting up inception_5a/pool_proj
I1129 22:32:11.003679  1829 net.cpp:151] Top shape: 16 128 7 7 (100352)
I1129 22:32:11.003695  1829 net.cpp:159] Memory required for data: 870028880
I1129 22:32:11.003700  1829 layer_factory.hpp:77] Creating layer inception_5a/relu_pool_proj
I1129 22:32:11.003707  1829 net.cpp:94] Creating Layer inception_5a/relu_pool_proj
I1129 22:32:11.003711  1829 net.cpp:435] inception_5a/relu_pool_proj <- inception_5a/pool_proj
I1129 22:32:11.003717  1829 net.cpp:396] inception_5a/relu_pool_proj -> inception_5a/pool_proj (in-place)
I1129 22:32:11.003726  1829 net.cpp:144] Setting up inception_5a/relu_pool_proj
I1129 22:32:11.003729  1829 net.cpp:151] Top shape: 16 128 7 7 (100352)
I1129 22:32:11.003731  1829 net.cpp:159] Memory required for data: 870430288
I1129 22:32:11.003736  1829 layer_factory.hpp:77] Creating layer inception_5a/output
I1129 22:32:11.003742  1829 net.cpp:94] Creating Layer inception_5a/output
I1129 22:32:11.003746  1829 net.cpp:435] inception_5a/output <- inception_5a/1x1
I1129 22:32:11.003749  1829 net.cpp:435] inception_5a/output <- inception_5a/3x3
I1129 22:32:11.003754  1829 net.cpp:435] inception_5a/output <- inception_5a/5x5
I1129 22:32:11.003757  1829 net.cpp:435] inception_5a/output <- inception_5a/pool_proj
I1129 22:32:11.003762  1829 net.cpp:409] inception_5a/output -> inception_5a/output
I1129 22:32:11.003789  1829 net.cpp:144] Setting up inception_5a/output
I1129 22:32:11.003795  1829 net.cpp:151] Top shape: 16 832 7 7 (652288)
I1129 22:32:11.003798  1829 net.cpp:159] Memory required for data: 873039440
I1129 22:32:11.003800  1829 layer_factory.hpp:77] Creating layer inception_5a/output_inception_5a/output_0_split
I1129 22:32:11.003808  1829 net.cpp:94] Creating Layer inception_5a/output_inception_5a/output_0_split
I1129 22:32:11.003813  1829 net.cpp:435] inception_5a/output_inception_5a/output_0_split <- inception_5a/output
I1129 22:32:11.003818  1829 net.cpp:409] inception_5a/output_inception_5a/output_0_split -> inception_5a/output_inception_5a/output_0_split_0
I1129 22:32:11.003826  1829 net.cpp:409] inception_5a/output_inception_5a/output_0_split -> inception_5a/output_inception_5a/output_0_split_1
I1129 22:32:11.003832  1829 net.cpp:409] inception_5a/output_inception_5a/output_0_split -> inception_5a/output_inception_5a/output_0_split_2
I1129 22:32:11.003839  1829 net.cpp:409] inception_5a/output_inception_5a/output_0_split -> inception_5a/output_inception_5a/output_0_split_3
I1129 22:32:11.003895  1829 net.cpp:144] Setting up inception_5a/output_inception_5a/output_0_split
I1129 22:32:11.003901  1829 net.cpp:151] Top shape: 16 832 7 7 (652288)
I1129 22:32:11.003904  1829 net.cpp:151] Top shape: 16 832 7 7 (652288)
I1129 22:32:11.003908  1829 net.cpp:151] Top shape: 16 832 7 7 (652288)
I1129 22:32:11.003911  1829 net.cpp:151] Top shape: 16 832 7 7 (652288)
I1129 22:32:11.003913  1829 net.cpp:159] Memory required for data: 883476048
I1129 22:32:11.003916  1829 layer_factory.hpp:77] Creating layer inception_5b/1x1
I1129 22:32:11.003928  1829 net.cpp:94] Creating Layer inception_5b/1x1
I1129 22:32:11.003931  1829 net.cpp:435] inception_5b/1x1 <- inception_5a/output_inception_5a/output_0_split_0
I1129 22:32:11.003938  1829 net.cpp:409] inception_5b/1x1 -> inception_5b/1x1
I1129 22:32:11.006669  1829 net.cpp:144] Setting up inception_5b/1x1
I1129 22:32:11.006682  1829 net.cpp:151] Top shape: 16 384 7 7 (301056)
I1129 22:32:11.006685  1829 net.cpp:159] Memory required for data: 884680272
I1129 22:32:11.006691  1829 layer_factory.hpp:77] Creating layer inception_5b/relu_1x1
I1129 22:32:11.006700  1829 net.cpp:94] Creating Layer inception_5b/relu_1x1
I1129 22:32:11.006705  1829 net.cpp:435] inception_5b/relu_1x1 <- inception_5b/1x1
I1129 22:32:11.006711  1829 net.cpp:396] inception_5b/relu_1x1 -> inception_5b/1x1 (in-place)
I1129 22:32:11.006719  1829 net.cpp:144] Setting up inception_5b/relu_1x1
I1129 22:32:11.006723  1829 net.cpp:151] Top shape: 16 384 7 7 (301056)
I1129 22:32:11.006726  1829 net.cpp:159] Memory required for data: 885884496
I1129 22:32:11.006729  1829 layer_factory.hpp:77] Creating layer inception_5b/3x3_reduce
I1129 22:32:11.006739  1829 net.cpp:94] Creating Layer inception_5b/3x3_reduce
I1129 22:32:11.006757  1829 net.cpp:435] inception_5b/3x3_reduce <- inception_5a/output_inception_5a/output_0_split_1
I1129 22:32:11.006765  1829 net.cpp:409] inception_5b/3x3_reduce -> inception_5b/3x3_reduce
I1129 22:32:11.008513  1829 net.cpp:144] Setting up inception_5b/3x3_reduce
I1129 22:32:11.008525  1829 net.cpp:151] Top shape: 16 192 7 7 (150528)
I1129 22:32:11.008527  1829 net.cpp:159] Memory required for data: 886486608
I1129 22:32:11.008534  1829 layer_factory.hpp:77] Creating layer inception_5b/relu_3x3_reduce
I1129 22:32:11.008543  1829 net.cpp:94] Creating Layer inception_5b/relu_3x3_reduce
I1129 22:32:11.008548  1829 net.cpp:435] inception_5b/relu_3x3_reduce <- inception_5b/3x3_reduce
I1129 22:32:11.008553  1829 net.cpp:396] inception_5b/relu_3x3_reduce -> inception_5b/3x3_reduce (in-place)
I1129 22:32:11.008560  1829 net.cpp:144] Setting up inception_5b/relu_3x3_reduce
I1129 22:32:11.008566  1829 net.cpp:151] Top shape: 16 192 7 7 (150528)
I1129 22:32:11.008569  1829 net.cpp:159] Memory required for data: 887088720
I1129 22:32:11.008571  1829 layer_factory.hpp:77] Creating layer inception_5b/3x3
I1129 22:32:11.008581  1829 net.cpp:94] Creating Layer inception_5b/3x3
I1129 22:32:11.008584  1829 net.cpp:435] inception_5b/3x3 <- inception_5b/3x3_reduce
I1129 22:32:11.008591  1829 net.cpp:409] inception_5b/3x3 -> inception_5b/3x3
I1129 22:32:11.013844  1829 net.cpp:144] Setting up inception_5b/3x3
I1129 22:32:11.013859  1829 net.cpp:151] Top shape: 16 384 7 7 (301056)
I1129 22:32:11.013861  1829 net.cpp:159] Memory required for data: 888292944
I1129 22:32:11.013867  1829 layer_factory.hpp:77] Creating layer inception_5b/relu_3x3
I1129 22:32:11.013875  1829 net.cpp:94] Creating Layer inception_5b/relu_3x3
I1129 22:32:11.013878  1829 net.cpp:435] inception_5b/relu_3x3 <- inception_5b/3x3
I1129 22:32:11.013886  1829 net.cpp:396] inception_5b/relu_3x3 -> inception_5b/3x3 (in-place)
I1129 22:32:11.013895  1829 net.cpp:144] Setting up inception_5b/relu_3x3
I1129 22:32:11.013898  1829 net.cpp:151] Top shape: 16 384 7 7 (301056)
I1129 22:32:11.013901  1829 net.cpp:159] Memory required for data: 889497168
I1129 22:32:11.013905  1829 layer_factory.hpp:77] Creating layer inception_5b/5x5_reduce
I1129 22:32:11.013914  1829 net.cpp:94] Creating Layer inception_5b/5x5_reduce
I1129 22:32:11.013918  1829 net.cpp:435] inception_5b/5x5_reduce <- inception_5a/output_inception_5a/output_0_split_2
I1129 22:32:11.013926  1829 net.cpp:409] inception_5b/5x5_reduce -> inception_5b/5x5_reduce
I1129 22:32:11.014380  1829 net.cpp:144] Setting up inception_5b/5x5_reduce
I1129 22:32:11.014387  1829 net.cpp:151] Top shape: 16 48 7 7 (37632)
I1129 22:32:11.014389  1829 net.cpp:159] Memory required for data: 889647696
I1129 22:32:11.014396  1829 layer_factory.hpp:77] Creating layer inception_5b/relu_5x5_reduce
I1129 22:32:11.014405  1829 net.cpp:94] Creating Layer inception_5b/relu_5x5_reduce
I1129 22:32:11.014407  1829 net.cpp:435] inception_5b/relu_5x5_reduce <- inception_5b/5x5_reduce
I1129 22:32:11.014412  1829 net.cpp:396] inception_5b/relu_5x5_reduce -> inception_5b/5x5_reduce (in-place)
I1129 22:32:11.014420  1829 net.cpp:144] Setting up inception_5b/relu_5x5_reduce
I1129 22:32:11.014423  1829 net.cpp:151] Top shape: 16 48 7 7 (37632)
I1129 22:32:11.014426  1829 net.cpp:159] Memory required for data: 889798224
I1129 22:32:11.014428  1829 layer_factory.hpp:77] Creating layer inception_5b/5x5
I1129 22:32:11.014441  1829 net.cpp:94] Creating Layer inception_5b/5x5
I1129 22:32:11.014443  1829 net.cpp:435] inception_5b/5x5 <- inception_5b/5x5_reduce
I1129 22:32:11.014451  1829 net.cpp:409] inception_5b/5x5 -> inception_5b/5x5
I1129 22:32:11.015488  1829 net.cpp:144] Setting up inception_5b/5x5
I1129 22:32:11.015496  1829 net.cpp:151] Top shape: 16 128 7 7 (100352)
I1129 22:32:11.015498  1829 net.cpp:159] Memory required for data: 890199632
I1129 22:32:11.015503  1829 layer_factory.hpp:77] Creating layer inception_5b/relu_5x5
I1129 22:32:11.015509  1829 net.cpp:94] Creating Layer inception_5b/relu_5x5
I1129 22:32:11.015527  1829 net.cpp:435] inception_5b/relu_5x5 <- inception_5b/5x5
I1129 22:32:11.015534  1829 net.cpp:396] inception_5b/relu_5x5 -> inception_5b/5x5 (in-place)
I1129 22:32:11.015540  1829 net.cpp:144] Setting up inception_5b/relu_5x5
I1129 22:32:11.015544  1829 net.cpp:151] Top shape: 16 128 7 7 (100352)
I1129 22:32:11.015548  1829 net.cpp:159] Memory required for data: 890601040
I1129 22:32:11.015552  1829 layer_factory.hpp:77] Creating layer inception_5b/pool
I1129 22:32:11.015558  1829 net.cpp:94] Creating Layer inception_5b/pool
I1129 22:32:11.015560  1829 net.cpp:435] inception_5b/pool <- inception_5a/output_inception_5a/output_0_split_3
I1129 22:32:11.015568  1829 net.cpp:409] inception_5b/pool -> inception_5b/pool
I1129 22:32:11.015609  1829 net.cpp:144] Setting up inception_5b/pool
I1129 22:32:11.015614  1829 net.cpp:151] Top shape: 16 832 7 7 (652288)
I1129 22:32:11.015616  1829 net.cpp:159] Memory required for data: 893210192
I1129 22:32:11.015620  1829 layer_factory.hpp:77] Creating layer inception_5b/pool_proj
I1129 22:32:11.015632  1829 net.cpp:94] Creating Layer inception_5b/pool_proj
I1129 22:32:11.015636  1829 net.cpp:435] inception_5b/pool_proj <- inception_5b/pool
I1129 22:32:11.015642  1829 net.cpp:409] inception_5b/pool_proj -> inception_5b/pool_proj
I1129 22:32:11.017138  1829 net.cpp:144] Setting up inception_5b/pool_proj
I1129 22:32:11.017153  1829 net.cpp:151] Top shape: 16 128 7 7 (100352)
I1129 22:32:11.017156  1829 net.cpp:159] Memory required for data: 893611600
I1129 22:32:11.017163  1829 layer_factory.hpp:77] Creating layer inception_5b/relu_pool_proj
I1129 22:32:11.017170  1829 net.cpp:94] Creating Layer inception_5b/relu_pool_proj
I1129 22:32:11.017175  1829 net.cpp:435] inception_5b/relu_pool_proj <- inception_5b/pool_proj
I1129 22:32:11.017180  1829 net.cpp:396] inception_5b/relu_pool_proj -> inception_5b/pool_proj (in-place)
I1129 22:32:11.017187  1829 net.cpp:144] Setting up inception_5b/relu_pool_proj
I1129 22:32:11.017192  1829 net.cpp:151] Top shape: 16 128 7 7 (100352)
I1129 22:32:11.017195  1829 net.cpp:159] Memory required for data: 894013008
I1129 22:32:11.017197  1829 layer_factory.hpp:77] Creating layer inception_5b/output
I1129 22:32:11.017206  1829 net.cpp:94] Creating Layer inception_5b/output
I1129 22:32:11.017211  1829 net.cpp:435] inception_5b/output <- inception_5b/1x1
I1129 22:32:11.017215  1829 net.cpp:435] inception_5b/output <- inception_5b/3x3
I1129 22:32:11.017218  1829 net.cpp:435] inception_5b/output <- inception_5b/5x5
I1129 22:32:11.017221  1829 net.cpp:435] inception_5b/output <- inception_5b/pool_proj
I1129 22:32:11.017227  1829 net.cpp:409] inception_5b/output -> inception_5b/output
I1129 22:32:11.017256  1829 net.cpp:144] Setting up inception_5b/output
I1129 22:32:11.017261  1829 net.cpp:151] Top shape: 16 1024 7 7 (802816)
I1129 22:32:11.017264  1829 net.cpp:159] Memory required for data: 897224272
I1129 22:32:11.017267  1829 layer_factory.hpp:77] Creating layer pool5/7x7_s1
I1129 22:32:11.017272  1829 net.cpp:94] Creating Layer pool5/7x7_s1
I1129 22:32:11.017277  1829 net.cpp:435] pool5/7x7_s1 <- inception_5b/output
I1129 22:32:11.017283  1829 net.cpp:409] pool5/7x7_s1 -> pool5/7x7_s1
I1129 22:32:11.017310  1829 net.cpp:144] Setting up pool5/7x7_s1
I1129 22:32:11.017316  1829 net.cpp:151] Top shape: 16 1024 1 1 (16384)
I1129 22:32:11.017318  1829 net.cpp:159] Memory required for data: 897289808
I1129 22:32:11.017321  1829 layer_factory.hpp:77] Creating layer pool5/drop_7x7_s1
I1129 22:32:11.017328  1829 net.cpp:94] Creating Layer pool5/drop_7x7_s1
I1129 22:32:11.017331  1829 net.cpp:435] pool5/drop_7x7_s1 <- pool5/7x7_s1
I1129 22:32:11.017338  1829 net.cpp:396] pool5/drop_7x7_s1 -> pool5/7x7_s1 (in-place)
I1129 22:32:11.017359  1829 net.cpp:144] Setting up pool5/drop_7x7_s1
I1129 22:32:11.017366  1829 net.cpp:151] Top shape: 16 1024 1 1 (16384)
I1129 22:32:11.017369  1829 net.cpp:159] Memory required for data: 897355344
I1129 22:32:11.017371  1829 layer_factory.hpp:77] Creating layer loss3/classifier
I1129 22:32:11.017379  1829 net.cpp:94] Creating Layer loss3/classifier
I1129 22:32:11.017395  1829 net.cpp:435] loss3/classifier <- pool5/7x7_s1
I1129 22:32:11.017405  1829 net.cpp:409] loss3/classifier -> loss3/classifier
I1129 22:32:11.017537  1829 net.cpp:144] Setting up loss3/classifier
I1129 22:32:11.017544  1829 net.cpp:151] Top shape: 16 3 (48)
I1129 22:32:11.017547  1829 net.cpp:159] Memory required for data: 897355536
I1129 22:32:11.017554  1829 layer_factory.hpp:77] Creating layer loss3/classifier_loss3/classifier_0_split
I1129 22:32:11.017560  1829 net.cpp:94] Creating Layer loss3/classifier_loss3/classifier_0_split
I1129 22:32:11.017562  1829 net.cpp:435] loss3/classifier_loss3/classifier_0_split <- loss3/classifier
I1129 22:32:11.017568  1829 net.cpp:409] loss3/classifier_loss3/classifier_0_split -> loss3/classifier_loss3/classifier_0_split_0
I1129 22:32:11.017575  1829 net.cpp:409] loss3/classifier_loss3/classifier_0_split -> loss3/classifier_loss3/classifier_0_split_1
I1129 22:32:11.017616  1829 net.cpp:144] Setting up loss3/classifier_loss3/classifier_0_split
I1129 22:32:11.017621  1829 net.cpp:151] Top shape: 16 3 (48)
I1129 22:32:11.017624  1829 net.cpp:151] Top shape: 16 3 (48)
I1129 22:32:11.017627  1829 net.cpp:159] Memory required for data: 897355920
I1129 22:32:11.017629  1829 layer_factory.hpp:77] Creating layer loss3/loss
I1129 22:32:11.017634  1829 net.cpp:94] Creating Layer loss3/loss
I1129 22:32:11.017639  1829 net.cpp:435] loss3/loss <- loss3/classifier_loss3/classifier_0_split_0
I1129 22:32:11.017643  1829 net.cpp:435] loss3/loss <- label_val-data_1_split_4
…
