…
I1201 02:35:00.477708  2045 net.cpp:323] The NetState phase (0) differed from the phase (1) specified by a rule in layer loss3/top-1
I1201 02:35:00.478655  2045 net.cpp:52] Initializing net from parameters:
state {
phase: TRAIN
}
layer {
name: "train-data"
type: "Data"
top: "data"
top: "label"
include {
phase: TRAIN
}
transform_param {
mirror: true
crop_size: 224
mean_file: "/home/ubuntu/digits/digits/jobs/20171201-022351-be3c/mean.binaryproto"
}
data_param {
source: "/home/ubuntu/digits/digits/jobs/20171201-022351-be3c/train_db"
batch_size: 32
backend: LMDB
}
}
layer {
name: "conv1/7x7_s2"
type: "Convolution"
bottom: "data"
top: "conv1/7x7_s2"
param {
lr_mult: 1
decay_mult: 1
}
param {
lr_mult: 2
decay_mult: 0
}
convolution_param {
num_output: 64
pad: 3
kernel_size: 7
stride: 2
weight_filler {
type: "xavier"
std: 0.1
}
bias_filler {
type: "constant"
value: 0.2
}
}
}
layer {
name: "conv1/relu_7x7"
type: "ReLU"
bottom: "conv1/7x7_s2"
top: "conv1/7x7_s2"
}
layer {
name: "pool1/3x3_s2"
type: "Pooling"
bottom: "conv1/7x7_s2"
top: "pool1/3x3_s2"
pooling_param {
pool: MAX
kernel_size: 3
stride: 2
}
}
layer {
name: "pool1/norm1"
type: "LRN"
bottom: "pool1/3x3_s2"
top: "pool1/norm1"
lrn_param {
local_size: 5
alpha: 0.0001
beta: 0.75
}
}
layer {
name: "conv2/3x3_reduce"
type: "Convolution"
bottom: "pool1/norm1"
top: "conv2/3x3_reduce"
param {
lr_mult: 1
decay_mult: 1
}
param {
lr_mult: 2
decay_mult: 0
}
convolution_param {
num_output: 64
kernel_size: 1
weight_filler {
type: "xavier"
std: 0.1
}
bias_filler {
type: "constant"
value: 0.2
}
}
}
layer {
name: "conv2/relu_3x3_reduce"
type: "ReLU"
bottom: "conv2/3x3_reduce"
top: "conv2/3x3_reduce"
}
layer {
name: "conv2/3x3"
type: "Convolution"
bottom: "conv2/3x3_reduce"
top: "conv2/3x3"
param {
lr_mult: 1
decay_mult: 1
}
param {
lr_mult: 2
decay_mult: 0
}
convolution_param {
num_output: 192
pad: 1
kernel_size: 3
weight_filler {
type: "xavier"
std: 0.03
}
bias_filler {
type: "constant"
value: 0.2
}
}
}
layer {
name: "conv2/relu_3x3"
type: "ReLU"
bottom: "conv2/3x3"
top: "conv2/3x3"
}
layer {
name: "conv2/norm2"
type: "LRN"
bottom: "conv2/3x3"
top: "conv2/norm2"
lrn_param {
local_size: 5
alpha: 0.0001
beta: 0.75
}
}
layer {
name: "pool2/3x3_s2"
type: "Pooling"
bottom: "conv2/norm2"
top: "pool2/3x3_s2"
pooling_param {
pool: MAX
kernel_size: 3
stride: 2
}
}
layer {
name: "inception_3a/1x1"
type: "Convolution"
bottom: "pool2/3x3_s2"
top: "inception_3a/1x1"
param {
lr_mult: 1
decay_mult: 1
}
param {
lr_mult: 2
decay_mult: 0
}
convolution_param {
num_output: 64
kernel_size: 1
weight_filler {
type: "xavier"
std: 0.03
}
bias_filler {
type: "constant"
value: 0.2
}
}
}
layer {
name: "inception_3a/relu_1x1"
type: "ReLU"
bottom: "inception_3a/1x1"
top: "inception_3a/1x1"
}
layer {
name: "inception_3a/3x3_reduce"
type: "Convolution"
bottom: "pool2/3x3_s2"
top: "inception_3a/3x3_reduce"
param {
lr_mult: 1
decay_mult: 1
}
param {
lr_mult: 2
decay_mult: 0
}
convolution_param {
num_output: 96
kernel_size: 1
weight_filler {
type: "xavier"
std: 0.09
}
bias_filler {
type: "constant"
value: 0.2
}
}
}
layer {
name: "inception_3a/relu_3x3_reduce"
type: "ReLU"
bottom: "inception_3a/3x3_reduce"
top: "inception_3a/3x3_reduce"
}
layer {
name: "inception_3a/3x3"
type: "Convolution"
bottom: "inception_3a/3x3_reduce"
top: "inception_3a/3x3"
param {
lr_mult: 1
decay_mult: 1
}
param {
lr_mult: 2
decay_mult: 0
}
convolution_param {
num_output: 128
pad: 1
kernel_size: 3
weight_filler {
type: "xavier"
std: 0.03
}
bias_filler {
type: "constant"
value: 0.2
}
}
}
layer {
name: "inception_3a/relu_3x3"
type: "ReLU"
bottom: "inception_3a/3x3"
top: "inception_3a/3x3"
}
layer {
name: "inception_3a/5x5_reduce"
type: "Convolution"
bottom: "pool2/3x3_s2"
top: "inception_3a/5x5_reduce"
param {
lr_mult: 1
decay_mult: 1
}
param {
lr_mult: 2
decay_mult: 0
}
convolution_param {
num_output: 16
kernel_size: 1
weight_filler {
type: "xavier"
std: 0.2
}
bias_filler {
type: "constant"
value: 0.2
}
}
}
layer {
name: "inception_3a/relu_5x5_reduce"
type: "ReLU"
bottom: "inception_3a/5x5_reduce"
top: "inception_3a/5x5_reduce"
}
layer {
name: "inception_3a/5x5"
type: "Convolution"
bottom: "inception_3a/5x5_reduce"
top: "inception_3a/5x5"
param {
lr_mult: 1
decay_mult: 1
}
param {
lr_mult: 2
decay_mult: 0
}
convolution_param {
num_output: 32
pad: 2
kernel_size: 5
weight_filler {
type: "xavier"
std: 0.03
}
bias_filler {
type: "constant"
value: 0.2
}
}
}
layer {
name: "inception_3a/relu_5x5"
type: "ReLU"
bottom: "inception_3a/5x5"
top: "inception_3a/5x5"
}
layer {
name: "inception_3a/pool"
type: "Pooling"
bottom: "pool2/3x3_s2"
top: "inception_3a/pool"
pooling_param {
pool: MAX
kernel_size: 3
stride: 1
pad: 1
}
}
layer {
name: "inception_3a/pool_proj"
type: "Convolution"
bottom: "inception_3a/pool"
top: "inception_3a/pool_proj"
param {
lr_mult: 1
decay_mult: 1
}
param {
lr_mult: 2
decay_mult: 0
}
convolution_param {
num_output: 32
kernel_size: 1
weight_filler {
type: "xavier"
std: 0.1
}
bias_filler {
type: "constant"
value: 0.2
}
}
}
layer {
name: "inception_3a/relu_pool_proj"
type: "ReLU"
bottom: "inception_3a/pool_proj"
top: "inception_3a/pool_proj"
}
layer {
name: "inception_3a/output"
type: "Concat"
bottom: "inception_3a/1x1"
bottom: "inception_3a/3x3"
bottom: "inception_3a/5x5"
bottom: "inception_3a/pool_proj"
top: "inception_3a/output"
}
layer {
name: "inception_3b/1x1"
type: "Convolution"
bottom: "inception_3a/output"
top: "inception_3b/1x1"
param {
lr_mult: 1
decay_mult: 1
}
param {
lr_mult: 2
decay_mult: 0
}
convolution_param {
num_output: 128
kernel_size: 1
weight_filler {
type: "xavier"
std: 0.03
}
bias_filler {
type: "constant"
value: 0.2
}
}
}
layer {
name: "inception_3b/relu_1x1"
type: "ReLU"
bottom: "inception_3b/1x1"
top: "inception_3b/1x1"
}
layer {
name: "inception_3b/3x3_reduce"
type: "Convolution"
bottom: "inception_3a/output"
top: "inception_3b/3x3_reduce"
param {
lr_mult: 1
decay_mult: 1
}
param {
lr_mult: 2
decay_mult: 0
}
convolution_param {
num_output: 128
kernel_size: 1
weight_filler {
type: "xavier"
std: 0.09
}
bias_filler {
type: "constant"
value: 0.2
}
}
}
layer {
name: "inception_3b/relu_3x3_reduce"
type: "ReLU"
bottom: "inception_3b/3x3_reduce"
top: "inception_3b/3x3_reduce"
}
layer {
name: "inception_3b/3x3"
type: "Convolution"
bottom: "inception_3b/3x3_reduce"
top: "inception_3b/3x3"
param {
lr_mult: 1
decay_mult: 1
}
param {
lr_mult: 2
decay_mult: 0
}
convolution_param {
num_output: 192
pad: 1
kernel_size: 3
weight_filler {
type: "xavier"
std: 0.03
}
bias_filler {
type: "constant"
value: 0.2
}
}
}
layer {
name: "inception_3b/relu_3x3"
type: "ReLU"
bottom: "inception_3b/3x3"
top: "inception_3b/3x3"
}
layer {
name: "inception_3b/5x5_reduce"
type: "Convolution"
bottom: "inception_3a/output"
top: "inception_3b/5x5_reduce"
param {
lr_mult: 1
decay_mult: 1
}
param {
lr_mult: 2
decay_mult: 0
}
convolution_param {
num_output: 32
kernel_size: 1
weight_filler {
type: "xavier"
std: 0.2
}
bias_filler {
type: "constant"
value: 0.2
}
}
}
layer {
name: "inception_3b/relu_5x5_reduce"
type: "ReLU"
bottom: "inception_3b/5x5_reduce"
top: "inception_3b/5x5_reduce"
}
layer {
name: "inception_3b/5x5"
type: "Convolution"
bottom: "inception_3b/5x5_reduce"
top: "inception_3b/5x5"
param {
lr_mult: 1
decay_mult: 1
}
param {
lr_mult: 2
decay_mult: 0
}
convolution_param {
num_output: 96
pad: 2
kernel_size: 5
weight_filler {
type: "xavier"
std: 0.03
}
bias_filler {
type: "constant"
value: 0.2
}
}
}
layer {
name: "inception_3b/relu_5x5"
type: "ReLU"
bottom: "inception_3b/5x5"
top: "inception_3b/5x5"
}
layer {
name: "inception_3b/pool"
type: "Pooling"
bottom: "inception_3a/output"
top: "inception_3b/pool"
pooling_param {
pool: MAX
kernel_size: 3
stride: 1
pad: 1
}
}
layer {
name: "inception_3b/pool_proj"
type: "Convolution"
bottom: "inception_3b/pool"
top: "inception_3b/pool_proj"
param {
lr_mult: 1
decay_mult: 1
}
param {
lr_mult: 2
decay_mult: 0
}
convolution_param {
num_output: 64
kernel_size: 1
weight_filler {
type: "xavier"
std: 0.1
}
bias_filler {
type: "constant"
value: 0.2
}
}
}
layer {
name: "inception_3b/relu_pool_proj"
type: "ReLU"
bottom: "inception_3b/pool_proj"
top: "inception_3b/pool_proj"
}
layer {
name: "inception_3b/output"
type: "Concat"
bottom: "inception_3b/1x1"
bottom: "inception_3b/3x3"
bottom: "inception_3b/5x5"
bottom: "inception_3b/pool_proj"
top: "inception_3b/output"
}
layer {
name: "pool3/3x3_s2"
type: "Pooling"
bottom: "inception_3b/output"
top: "pool3/3x3_s2"
pooling_param {
pool: MAX
kernel_size: 3
stride: 2
}
}
layer {
name: "inception_4a/1x1"
type: "Convolution"
bottom: "pool3/3x3_s2"
top: "inception_4a/1x1"
param {
lr_mult: 1
decay_mult: 1
}
param {
lr_mult: 2
decay_mult: 0
}
convolution_param {
num_output: 192
kernel_size: 1
weight_filler {
type: "xavier"
std: 0.03
}
bias_filler {
type: "constant"
value: 0.2
}
}
}
layer {
name: "inception_4a/relu_1x1"
type: "ReLU"
bottom: "inception_4a/1x1"
top: "inception_4a/1x1"
}
layer {
name: "inception_4a/3x3_reduce"
type: "Convolution"
bottom: "pool3/3x3_s2"
top: "inception_4a/3x3_reduce"
param {
lr_mult: 1
decay_mult: 1
}
param {
lr_mult: 2
decay_mult: 0
}
convolution_param {
num_output: 96
kernel_size: 1
weight_filler {
type: "xavier"
std: 0.09
}
bias_filler {
type: "constant"
value: 0.2
}
}
}
layer {
name: "inception_4a/relu_3x3_reduce"
type: "ReLU"
bottom: "inception_4a/3x3_reduce"
top: "inception_4a/3x3_reduce"
}
layer {
name: "inception_4a/3x3"
type: "Convolution"
bottom: "inception_4a/3x3_reduce"
top: "inception_4a/3x3"
param {
lr_mult: 1
decay_mult: 1
}
param {
lr_mult: 2
decay_mult: 0
}
convolution_param {
num_output: 208
pad: 1
kernel_size: 3
weight_filler {
type: "xavier"
std: 0.03
}
bias_filler {
type: "constant"
value: 0.2
}
}
}
layer {
name: "inception_4a/relu_3x3"
type: "ReLU"
bottom: "inception_4a/3x3"
top: "inception_4a/3x3"
}
layer {
name: "inception_4a/5x5_reduce"
type: "Convolution"
bottom: "pool3/3x3_s2"
top: "inception_4a/5x5_reduce"
param {
lr_mult: 1
decay_mult: 1
}
param {
lr_mult: 2
decay_mult: 0
}
convolution_param {
num_output: 16
kernel_size: 1
weight_filler {
type: "xavier"
std: 0.2
}
bias_filler {
type: "constant"
value: 0.2
}
}
}
layer {
name: "inception_4a/relu_5x5_reduce"
type: "ReLU"
bottom: "inception_4a/5x5_reduce"
top: "inception_4a/5x5_reduce"
}
layer {
name: "inception_4a/5x5"
type: "Convolution"
bottom: "inception_4a/5x5_reduce"
top: "inception_4a/5x5"
param {
lr_mult: 1
decay_mult: 1
}
param {
lr_mult: 2
decay_mult: 0
}
convolution_param {
num_output: 48
pad: 2
kernel_size: 5
weight_filler {
type: "xavier"
std: 0.03
}
bias_filler {
type: "constant"
value: 0.2
}
}
}
layer {
name: "inception_4a/relu_5x5"
type: "ReLU"
bottom: "inception_4a/5x5"
top: "inception_4a/5x5"
}
layer {
name: "inception_4a/pool"
type: "Pooling"
bottom: "pool3/3x3_s2"
top: "inception_4a/pool"
pooling_param {
pool: MAX
kernel_size: 3
stride: 1
pad: 1
}
}
layer {
name: "inception_4a/pool_proj"
type: "Convolution"
bottom: "inception_4a/pool"
top: "inception_4a/pool_proj"
param {
lr_mult: 1
decay_mult: 1
}
param {
lr_mult: 2
decay_mult: 0
}
convolution_param {
num_output: 64
kernel_size: 1
weight_filler {
type: "xavier"
std: 0.1
}
bias_filler {
type: "constant"
value: 0.2
}
}
}
layer {
name: "inception_4a/relu_pool_proj"
type: "ReLU"
bottom: "inception_4a/pool_proj"
top: "inception_4a/pool_proj"
}
layer {
name: "inception_4a/output"
type: "Concat"
bottom: "inception_4a/1x1"
bottom: "inception_4a/3x3"
bottom: "inception_4a/5x5"
bottom: "inception_4a/pool_proj"
top: "inception_4a/output"
}
layer {
name: "loss1/ave_pool"
type: "Pooling"
bottom: "inception_4a/output"
top: "loss1/ave_pool"
pooling_param {
pool: AVE
kernel_size: 5
stride: 3
}
}
layer {
name: "loss1/conv"
type: "Convolution"
bottom: "loss1/ave_pool"
top: "loss1/conv"
param {
lr_mult: 1
decay_mult: 1
}
param {
lr_mult: 2
decay_mult: 0
}
convolution_param {
num_output: 128
kernel_size: 1
weight_filler {
type: "xavier"
std: 0.08
}
bias_filler {
type: "constant"
value: 0.2
}
}
}
layer {
name: "loss1/relu_conv"
type: "ReLU"
bottom: "loss1/conv"
top: "loss1/conv"
}
layer {
name: "loss1/fc"
type: "InnerProduct"
bottom: "loss1/conv"
top: "loss1/fc"
param {
lr_mult: 1
decay_mult: 1
}
param {
lr_mult: 2
decay_mult: 0
}
inner_product_param {
num_output: 1024
weight_filler {
type: "xavier"
std: 0.02
}
bias_filler {
type: "constant"
value: 0.2
}
}
}
layer {
name: "loss1/relu_fc"
type: "ReLU"
bottom: "loss1/fc"
top: "loss1/fc"
}
layer {
name: "loss1/drop_fc"
type: "Dropout"
bottom: "loss1/fc"
top: "loss1/fc"
dropout_param {
dropout_ratio: 0.7
}
}
layer {
name: "loss1/classifier"
type: "InnerProduct"
bottom: "loss1/fc"
top: "loss1/classifier"
param {
lr_mult: 1
decay_mult: 1
}
param {
lr_mult: 2
decay_mult: 0
}
inner_product_param {
num_output: 3
weight_filler {
type: "xavier"
std: 0.0009765625
}
bias_filler {
type: "constant"
value: 0
}
}
}
layer {
name: "loss1/loss"
type: "SoftmaxWithLoss"
bottom: "loss1/classifier"
bottom: "label"
top: "loss1/loss"
loss_weight: 0.3
}
layer {
name: "inception_4b/1x1"
type: "Convolution"
bottom: "inception_4a/output"
top: "inception_4b/1x1"
param {
lr_mult: 1
decay_mult: 1
}
param {
lr_mult: 2
decay_mult: 0
}
convolution_param {
num_output: 160
kernel_size: 1
weight_filler {
type: "xavier"
std: 0.03
}
bias_filler {
type: "constant"
value: 0.2
}
}
}
layer {
name: "inception_4b/relu_1x1"
type: "ReLU"
bottom: "inception_4b/1x1"
top: "inception_4b/1x1"
}
layer {
name: "inception_4b/3x3_reduce"
type: "Convolution"
bottom: "inception_4a/output"
top: "inception_4b/3x3_reduce"
param {
lr_mult: 1
decay_mult: 1
}
param {
lr_mult: 2
decay_mult: 0
}
convolution_param {
num_output: 112
kernel_size: 1
weight_filler {
type: "xavier"
std: 0.09
}
bias_filler {
type: "constant"
value: 0.2
}
}
}
layer {
name: "inception_4b/relu_3x3_reduce"
type: "ReLU"
bottom: "inception_4b/3x3_reduce"
top: "inception_4b/3x3_reduce"
}
layer {
name: "inception_4b/3x3"
type: "Convolution"
bottom: "inception_4b/3x3_reduce"
top: "inception_4b/3x3"
param {
lr_mult: 1
decay_mult: 1
}
param {
lr_mult: 2
decay_mult: 0
}
convolution_param {
num_output: 224
pad: 1
kernel_size: 3
weight_filler {
type: "xavier"
std: 0.03
}
bias_filler {
type: "constant"
value: 0.2
}
}
}
layer {
name: "inception_4b/relu_3x3"
type: "ReLU"
bottom: "inception_4b/3x3"
top: "inception_4b/3x3"
}
layer {
name: "inception_4b/5x5_reduce"
type: "Convolution"
bottom: "inception_4a/output"
top: "inception_4b/5x5_reduce"
param {
lr_mult: 1
decay_mult: 1
}
param {
lr_mult: 2
decay_mult: 0
}
convolution_param {
num_output: 24
kernel_size: 1
weight_filler {
type: "xavier"
std: 0.2
}
bias_filler {
type: "constant"
value: 0.2
}
}
}
layer {
name: "inception_4b/relu_5x5_reduce"
type: "ReLU"
bottom: "inception_4b/5x5_reduce"
top: "inception_4b/5x5_reduce"
}
layer {
name: "inception_4b/5x5"
type: "Convolution"
bottom: "inception_4b/5x5_reduce"
top: "inception_4b/5x5"
param {
lr_mult: 1
decay_mult: 1
}
param {
lr_mult: 2
decay_mult: 0
}
convolution_param {
num_output: 64
pad: 2
kernel_size: 5
weight_filler {
type: "xavier"
std: 0.03
}
bias_filler {
type: "constant"
value: 0.2
}
}
}
layer {
name: "inception_4b/relu_5x5"
type: "ReLU"
bottom: "inception_4b/5x5"
top: "inception_4b/5x5"
}
layer {
name: "inception_4b/pool"
type: "Pooling"
bottom: "inception_4a/output"
top: "inception_4b/pool"
pooling_param {
pool: MAX
kernel_size: 3
stride: 1
pad: 1
}
}
layer {
name: "inception_4b/pool_proj"
type: "Convolution"
bottom: "inception_4b/pool"
top: "inception_4b/pool_proj"
param {
lr_mult: 1
decay_mult: 1
}
param {
lr_mult: 2
decay_mult: 0
}
convolution_param {
num_output: 64
kernel_size: 1
weight_filler {
type: "xavier"
std: 0.1
}
bias_filler {
type: "constant"
value: 0.2
}
}
}
layer {
name: "inception_4b/relu_pool_proj"
type: "ReLU"
bottom: "inception_4b/pool_proj"
top: "inception_4b/pool_proj"
}
layer {
name: "inception_4b/output"
type: "Concat"
bottom: "inception_4b/1x1"
bottom: "inception_4b/3x3"
bottom: "inception_4b/5x5"
bottom: "inception_4b/pool_proj"
top: "inception_4b/output"
}
layer {
name: "inception_4c/1x1"
type: "Convolution"
bottom: "inception_4b/output"
top: "inception_4c/1x1"
param {
lr_mult: 1
decay_mult: 1
}
param {
lr_mult: 2
decay_mult: 0
}
convolution_param {
num_output: 128
kernel_size: 1
weight_filler {
type: "xavier"
std: 0.03
}
bias_filler {
type: "constant"
value: 0.2
}
}
}
layer {
name: "inception_4c/relu_1x1"
type: "ReLU"
bottom: "inception_4c/1x1"
top: "inception_4c/1x1"
}
layer {
name: "inception_4c/3x3_reduce"
type: "Convolution"
bottom: "inception_4b/output"
top: "inception_4c/3x3_reduce"
param {
lr_mult: 1
decay_mult: 1
}
param {
lr_mult: 2
decay_mult: 0
}
convolution_param {
num_output: 128
kernel_size: 1
weight_filler {
type: "xavier"
std: 0.09
}
bias_filler {
type: "constant"
value: 0.2
}
}
}
layer {
name: "inception_4c/relu_3x3_reduce"
type: "ReLU"
bottom: "inception_4c/3x3_reduce"
top: "inception_4c/3x3_reduce"
}
layer {
name: "inception_4c/3x3"
type: "Convolution"
bottom: "inception_4c/3x3_reduce"
top: "inception_4c/3x3"
param {
lr_mult: 1
decay_mult: 1
}
param {
lr_mult: 2
decay_mult: 0
}
convolution_param {
num_output: 256
pad: 1
kernel_size: 3
weight_filler {
type: "xavier"
std: 0.03
}
bias_filler {
type: "constant"
value: 0.2
}
}
}
layer {
name: "inception_4c/relu_3x3"
type: "ReLU"
bottom: "inception_4c/3x3"
top: "inception_4c/3x3"
}
layer {
name: "inception_4c/5x5_reduce"
type: "Convolution"
bottom: "inception_4b/output"
top: "inception_4c/5x5_reduce"
param {
lr_mult: 1
decay_mult: 1
}
param {
lr_mult: 2
decay_mult: 0
}
convolution_param {
num_output: 24
kernel_size: 1
weight_filler {
type: "xavier"
std: 0.2
}
bias_filler {
type: "constant"
value: 0.2
}
}
}
layer {
name: "inception_4c/relu_5x5_reduce"
type: "ReLU"
bottom: "inception_4c/5x5_reduce"
top: "inception_4c/5x5_reduce"
}
layer {
name: "inception_4c/5x5"
type: "Convolution"
bottom: "inception_4c/5x5_reduce"
top: "inception_4c/5x5"
param {
lr_mult: 1
decay_mult: 1
}
param {
lr_mult: 2
decay_mult: 0
}
convolution_param {
num_output: 64
pad: 2
kernel_size: 5
weight_filler {
type: "xavier"
std: 0.03
}
bias_filler {
type: "constant"
value: 0.2
}
}
}
layer {
name: "inception_4c/relu_5x5"
type: "ReLU"
bottom: "inception_4c/5x5"
top: "inception_4c/5x5"
}
layer {
name: "inception_4c/pool"
type: "Pooling"
bottom: "inception_4b/output"
top: "inception_4c/pool"
pooling_param {
pool: MAX
kernel_size: 3
stride: 1
pad: 1
}
}
layer {
name: "inception_4c/pool_proj"
type: "Convolution"
bottom: "inception_4c/pool"
top: "inception_4c/pool_proj"
param {
lr_mult: 1
decay_mult: 1
}
param {
lr_mult: 2
decay_mult: 0
}
convolution_param {
num_output: 64
kernel_size: 1
weight_filler {
type: "xavier"
std: 0.1
}
bias_filler {
type: "constant"
value: 0.2
}
}
}
layer {
name: "inception_4c/relu_pool_proj"
type: "ReLU"
bottom: "inception_4c/pool_proj"
top: "inception_4c/pool_proj"
}
layer {
name: "inception_4c/output"
type: "Concat"
bottom: "inception_4c/1x1"
bottom: "inception_4c/3x3"
bottom: "inception_4c/5x5"
bottom: "inception_4c/pool_proj"
top: "inception_4c/output"
}
layer {
name: "inception_4d/1x1"
type: "Convolution"
bottom: "inception_4c/output"
top: "inception_4d/1x1"
param {
lr_mult: 1
decay_mult: 1
}
param {
lr_mult: 2
decay_mult: 0
}
convolution_param {
num_output: 112
kernel_size: 1
weight_filler {
type: "xavier"
std: 0.03
}
bias_filler {
type: "constant"
value: 0.2
}
}
}
layer {
name: "inception_4d/relu_1x1"
type: "ReLU"
bottom: "inception_4d/1x1"
top: "inception_4d/1x1"
}
layer {
name: "inception_4d/3x3_reduce"
type: "Convolution"
bottom: "inception_4c/output"
top: "inception_4d/3x3_reduce"
param {
lr_mult: 1
decay_mult: 1
}
param {
lr_mult: 2
decay_mult: 0
}
convolution_param {
num_output: 144
kernel_size: 1
weight_filler {
type: "xavier"
std: 0.09
}
bias_filler {
type: "constant"
value: 0.2
}
}
}
layer {
name: "inception_4d/relu_3x3_reduce"
type: "ReLU"
bottom: "inception_4d/3x3_reduce"
top: "inception_4d/3x3_reduce"
}
layer {
name: "inception_4d/3x3"
type: "Convolution"
bottom: "inception_4d/3x3_reduce"
top: "inception_4d/3x3"
param {
lr_mult: 1
decay_mult: 1
}
param {
lr_mult: 2
decay_mult: 0
}
convolution_param {
num_output: 288
pad: 1
kernel_size: 3
weight_filler {
type: "xavier"
std: 0.03
}
bias_filler {
type: "constant"
value: 0.2
}
}
}
layer {
name: "inception_4d/relu_3x3"
type: "ReLU"
bottom: "inception_4d/3x3"
top: "inception_4d/3x3"
}
layer {
name: "inception_4d/5x5_reduce"
type: "Convolution"
bottom: "inception_4c/output"
top: "inception_4d/5x5_reduce"
param {
lr_mult: 1
decay_mult: 1
}
param {
lr_mult: 2
decay_mult: 0
}
convolution_param {
num_output: 32
kernel_size: 1
weight_filler {
type: "xavier"
std: 0.2
}
bias_filler {
type: "constant"
value: 0.2
}
}
}
layer {
name: "inception_4d/relu_5x5_reduce"
type: "ReLU"
bottom: "inception_4d/5x5_reduce"
top: "inception_4d/5x5_reduce"
}
layer {
name: "inception_4d/5x5"
type: "Convolution"
bottom: "inception_4d/5x5_reduce"
top: "inception_4d/5x5"
param {
lr_mult: 1
decay_mult: 1
}
param {
lr_mult: 2
decay_mult: 0
}
convolution_param {
num_output: 64
pad: 2
kernel_size: 5
weight_filler {
type: "xavier"
std: 0.03
}
bias_filler {
type: "constant"
value: 0.2
}
}
}
layer {
name: "inception_4d/relu_5x5"
type: "ReLU"
bottom: "inception_4d/5x5"
top: "inception_4d/5x5"
}
layer {
name: "inception_4d/pool"
type: "Pooling"
bottom: "inception_4c/output"
top: "inception_4d/pool"
pooling_param {
pool: MAX
kernel_size: 3
stride: 1
pad: 1
}
}
layer {
name: "inception_4d/pool_proj"
type: "Convolution"
bottom: "inception_4d/pool"
top: "inception_4d/pool_proj"
param {
lr_mult: 1
decay_mult: 1
}
param {
lr_mult: 2
decay_mult: 0
}
convolution_param {
num_output: 64
kernel_size: 1
weight_filler {
type: "xavier"
std: 0.1
}
bias_filler {
type: "constant"
value: 0.2
}
}
}
layer {
name: "inception_4d/relu_pool_proj"
type: "ReLU"
bottom: "inception_4d/pool_proj"
top: "inception_4d/pool_proj"
}
layer {
name: "inception_4d/output"
type: "Concat"
bottom: "inception_4d/1x1"
bottom: "inception_4d/3x3"
bottom: "inception_4d/5x5"
bottom: "inception_4d/pool_proj"
top: "inception_4d/output"
}
layer {
name: "loss2/ave_pool"
type: "Pooling"
bottom: "inception_4d/output"
top: "loss2/ave_pool"
pooling_param {
pool: AVE
kernel_size: 5
stride: 3
}
}
layer {
name: "loss2/conv"
type: "Convolution"
bottom: "loss2/ave_pool"
top: "loss2/conv"
param {
lr_mult: 1
decay_mult: 1
}
param {
lr_mult: 2
decay_mult: 0
}
convolution_param {
num_output: 128
kernel_size: 1
weight_filler {
type: "xavier"
std: 0.08
}
bias_filler {
type: "constant"
value: 0.2
}
}
}
layer {
name: "loss2/relu_conv"
type: "ReLU"
bottom: "loss2/conv"
top: "loss2/conv"
}
layer {
name: "loss2/fc"
type: "InnerProduct"
bottom: "loss2/conv"
top: "loss2/fc"
param {
lr_mult: 1
decay_mult: 1
}
param {
lr_mult: 2
decay_mult: 0
}
inner_product_param {
num_output: 1024
weight_filler {
type: "xavier"
std: 0.02
}
bias_filler {
type: "constant"
value: 0.2
}
}
}
layer {
name: "loss2/relu_fc"
type: "ReLU"
bottom: "loss2/fc"
top: "loss2/fc"
}
layer {
name: "loss2/drop_fc"
type: "Dropout"
bottom: "loss2/fc"
top: "loss2/fc"
dropout_param {
dropout_ratio: 0.7
}
}
layer {
name: "loss2/classifier"
type: "InnerProduct"
bottom: "loss2/fc"
top: "loss2/classifier"
param {
lr_mult: 1
decay_mult: 1
}
param {
lr_mult: 2
decay_mult: 0
}
inner_product_param {
num_output: 3
weight_filler {
type: "xavier"
std: 0.0009765625
}
bias_filler {
type: "constant"
value: 0
}
}
}
layer {
name: "loss2/loss"
type: "SoftmaxWithLoss"
bottom: "loss2/classifier"
bottom: "label"
top: "loss2/loss"
loss_weight: 0.3
}
layer {
name: "inception_4e/1x1"
type: "Convolution"
bottom: "inception_4d/output"
top: "inception_4e/1x1"
param {
lr_mult: 1
decay_mult: 1
}
param {
lr_mult: 2
decay_mult: 0
}
convolution_param {
num_output: 256
kernel_size: 1
weight_filler {
type: "xavier"
std: 0.03
}
bias_filler {
type: "constant"
value: 0.2
}
}
}
layer {
name: "inception_4e/relu_1x1"
type: "ReLU"
bottom: "inception_4e/1x1"
top: "inception_4e/1x1"
}
layer {
name: "inception_4e/3x3_reduce"
type: "Convolution"
bottom: "inception_4d/output"
top: "inception_4e/3x3_reduce"
param {
lr_mult: 1
decay_mult: 1
}
param {
lr_mult: 2
decay_mult: 0
}
convolution_param {
num_output: 160
kernel_size: 1
weight_filler {
type: "xavier"
std: 0.09
}
bias_filler {
type: "constant"
value: 0.2
}
}
}
layer {
name: "inception_4e/relu_3x3_reduce"
type: "ReLU"
bottom: "inception_4e/3x3_reduce"
top: "inception_4e/3x3_reduce"
}
layer {
name: "inception_4e/3x3"
type: "Convolution"
bottom: "inception_4e/3x3_reduce"
top: "inception_4e/3x3"
param {
lr_mult: 1
decay_mult: 1
}
param {
lr_mult: 2
decay_mult: 0
}
convolution_param {
num_output: 320
pad: 1
kernel_size: 3
weight_filler {
type: "xavier"
std: 0.03
}
bias_filler {
type: "constant"
value: 0.2
}
}
}
layer {
name: "inception_4e/relu_3x3"
type: "ReLU"
bottom: "inception_4e/3x3"
top: "inception_4e/3x3"
}
layer {
name: "inception_4e/5x5_reduce"
type: "Convolution"
bottom: "inception_4d/output"
top: "inception_4e/5x5_reduce"
param {
lr_mult: 1
decay_mult: 1
}
param {
lr_mult: 2
decay_mult: 0
}
convolution_param {
num_output: 32
kernel_size: 1
weight_filler {
type: "xavier"
std: 0.2
}
bias_filler {
type: "constant"
value: 0.2
}
}
}
layer {
I1201 02:35:00.479380  2045 layer_factory.hpp:77] Creating layer train-data
I1201 02:35:00.480469  2045 net.cpp:94] Creating Layer train-data
I1201 02:35:00.480489  2045 net.cpp:409] train-data -> data
I1201 02:35:00.480525  2045 net.cpp:409] train-data -> label
I1201 02:35:00.480545  2045 data_transformer.cpp:25] Loading mean file from: /home/ubuntu/digits/digits/jobs/20171201-022351-be3c/mean.binaryproto
I1201 02:35:00.481262  2049 db_lmdb.cpp:35] Opened lmdb /home/ubuntu/digits/digits/jobs/20171201-022351-be3c/train_db
I1201 02:35:00.491524  2045 data_layer.cpp:78] ReshapePrefetch 32, 3, 224, 224
I1201 02:35:00.491571  2045 data_layer.cpp:83] output data size: 32,3,224,224
I1201 02:35:00.525725  2045 net.cpp:144] Setting up train-data
I1201 02:35:00.525753  2045 net.cpp:151] Top shape: 32 3 224 224 (4816896)
I1201 02:35:00.525756  2045 net.cpp:151] Top shape: 32 (32)
I1201 02:35:00.525759  2045 net.cpp:159] Memory required for data: 19267712
I1201 02:35:00.525770  2045 layer_factory.hpp:77] Creating layer label_train-data_1_split
I1201 02:35:00.525784  2045 net.cpp:94] Creating Layer label_train-data_1_split
I1201 02:35:00.525791  2045 net.cpp:435] label_train-data_1_split <- label
I1201 02:35:00.525804  2045 net.cpp:409] label_train-data_1_split -> label_train-data_1_split_0
I1201 02:35:00.525815  2045 net.cpp:409] label_train-data_1_split -> label_train-data_1_split_1
I1201 02:35:00.525837  2045 net.cpp:409] label_train-data_1_split -> label_train-data_1_split_2
I1201 02:35:00.525981  2045 net.cpp:144] Setting up label_train-data_1_split
I1201 02:35:00.525990  2045 net.cpp:151] Top shape: 32 (32)
I1201 02:35:00.525995  2045 net.cpp:151] Top shape: 32 (32)
I1201 02:35:00.525998  2045 net.cpp:151] Top shape: 32 (32)
I1201 02:35:00.526001  2045 net.cpp:159] Memory required for data: 19268096
I1201 02:35:00.526005  2045 layer_factory.hpp:77] Creating layer conv1/7x7_s2
I1201 02:35:00.526022  2045 net.cpp:94] Creating Layer conv1/7x7_s2
I1201 02:35:00.526027  2045 net.cpp:435] conv1/7x7_s2 <- data
I1201 02:35:00.526033  2045 net.cpp:409] conv1/7x7_s2 -> conv1/7x7_s2
I1201 02:35:00.527432  2045 net.cpp:144] Setting up conv1/7x7_s2
I1201 02:35:00.527446  2045 net.cpp:151] Top shape: 32 64 112 112 (25690112)
I1201 02:35:00.527451  2045 net.cpp:159] Memory required for data: 122028544
I1201 02:35:00.527467  2045 layer_factory.hpp:77] Creating layer conv1/relu_7x7
I1201 02:35:00.527474  2045 net.cpp:94] Creating Layer conv1/relu_7x7
I1201 02:35:00.527478  2045 net.cpp:435] conv1/relu_7x7 <- conv1/7x7_s2
I1201 02:35:00.527484  2045 net.cpp:396] conv1/relu_7x7 -> conv1/7x7_s2 (in-place)
I1201 02:35:00.527501  2045 net.cpp:144] Setting up conv1/relu_7x7
I1201 02:35:00.527505  2045 net.cpp:151] Top shape: 32 64 112 112 (25690112)
I1201 02:35:00.527508  2045 net.cpp:159] Memory required for data: 224788992
I1201 02:35:00.527513  2045 layer_factory.hpp:77] Creating layer pool1/3x3_s2
I1201 02:35:00.527520  2045 net.cpp:94] Creating Layer pool1/3x3_s2
I1201 02:35:00.527523  2045 net.cpp:435] pool1/3x3_s2 <- conv1/7x7_s2
I1201 02:35:00.527529  2045 net.cpp:409] pool1/3x3_s2 -> pool1/3x3_s2
I1201 02:35:00.527596  2045 net.cpp:144] Setting up pool1/3x3_s2
I1201 02:35:00.527602  2045 net.cpp:151] Top shape: 32 64 56 56 (6422528)
I1201 02:35:00.527604  2045 net.cpp:159] Memory required for data: 250479104
I1201 02:35:00.527607  2045 layer_factory.hpp:77] Creating layer pool1/norm1
I1201 02:35:00.527618  2045 net.cpp:94] Creating Layer pool1/norm1
I1201 02:35:00.527622  2045 net.cpp:435] pool1/norm1 <- pool1/3x3_s2
I1201 02:35:00.527628  2045 net.cpp:409] pool1/norm1 -> pool1/norm1
I1201 02:35:00.527664  2045 net.cpp:144] Setting up pool1/norm1
I1201 02:35:00.527670  2045 net.cpp:151] Top shape: 32 64 56 56 (6422528)
I1201 02:35:00.527673  2045 net.cpp:159] Memory required for data: 276169216
I1201 02:35:00.527676  2045 layer_factory.hpp:77] Creating layer conv2/3x3_reduce
I1201 02:35:00.527696  2045 net.cpp:94] Creating Layer conv2/3x3_reduce
I1201 02:35:00.527701  2045 net.cpp:435] conv2/3x3_reduce <- pool1/norm1
I1201 02:35:00.527706  2045 net.cpp:409] conv2/3x3_reduce -> conv2/3x3_reduce
I1201 02:35:00.528518  2045 net.cpp:144] Setting up conv2/3x3_reduce
I1201 02:35:00.528530  2045 net.cpp:151] Top shape: 32 64 56 56 (6422528)
I1201 02:35:00.528534  2045 net.cpp:159] Memory required for data: 301859328
I1201 02:35:00.528542  2045 layer_factory.hpp:77] Creating layer conv2/relu_3x3_reduce
I1201 02:35:00.528549  2045 net.cpp:94] Creating Layer conv2/relu_3x3_reduce
I1201 02:35:00.528553  2045 net.cpp:435] conv2/relu_3x3_reduce <- conv2/3x3_reduce
I1201 02:35:00.528559  2045 net.cpp:396] conv2/relu_3x3_reduce -> conv2/3x3_reduce (in-place)
I1201 02:35:00.528566  2045 net.cpp:144] Setting up conv2/relu_3x3_reduce
I1201 02:35:00.528570  2045 net.cpp:151] Top shape: 32 64 56 56 (6422528)
I1201 02:35:00.528573  2045 net.cpp:159] Memory required for data: 327549440
I1201 02:35:00.528576  2045 layer_factory.hpp:77] Creating layer conv2/3x3
I1201 02:35:00.528587  2045 net.cpp:94] Creating Layer conv2/3x3
I1201 02:35:00.528590  2045 net.cpp:435] conv2/3x3 <- conv2/3x3_reduce
I1201 02:35:00.528596  2045 net.cpp:409] conv2/3x3 -> conv2/3x3
I1201 02:35:00.529989  2045 net.cpp:144] Setting up conv2/3x3
I1201 02:35:00.530000  2045 net.cpp:151] Top shape: 32 192 56 56 (19267584)
I1201 02:35:00.530004  2045 net.cpp:159] Memory required for data: 404619776
I1201 02:35:00.530012  2045 layer_factory.hpp:77] Creating layer conv2/relu_3x3
I1201 02:35:00.530033  2045 net.cpp:94] Creating Layer conv2/relu_3x3
I1201 02:35:00.530037  2045 net.cpp:435] conv2/relu_3x3 <- conv2/3x3
I1201 02:35:00.530043  2045 net.cpp:396] conv2/relu_3x3 -> conv2/3x3 (in-place)
I1201 02:35:00.530050  2045 net.cpp:144] Setting up conv2/relu_3x3
I1201 02:35:00.530055  2045 net.cpp:151] Top shape: 32 192 56 56 (19267584)
I1201 02:35:00.530057  2045 net.cpp:159] Memory required for data: 481690112
I1201 02:35:00.530061  2045 layer_factory.hpp:77] Creating layer conv2/norm2
I1201 02:35:00.530066  2045 net.cpp:94] Creating Layer conv2/norm2
I1201 02:35:00.530071  2045 net.cpp:435] conv2/norm2 <- conv2/3x3
I1201 02:35:00.530076  2045 net.cpp:409] conv2/norm2 -> conv2/norm2
I1201 02:35:00.530113  2045 net.cpp:144] Setting up conv2/norm2
I1201 02:35:00.530119  2045 net.cpp:151] Top shape: 32 192 56 56 (19267584)
I1201 02:35:00.530122  2045 net.cpp:159] Memory required for data: 558760448
I1201 02:35:00.530125  2045 layer_factory.hpp:77] Creating layer pool2/3x3_s2
I1201 02:35:00.530131  2045 net.cpp:94] Creating Layer pool2/3x3_s2
I1201 02:35:00.530134  2045 net.cpp:435] pool2/3x3_s2 <- conv2/norm2
I1201 02:35:00.530140  2045 net.cpp:409] pool2/3x3_s2 -> pool2/3x3_s2
I1201 02:35:00.530169  2045 net.cpp:144] Setting up pool2/3x3_s2
I1201 02:35:00.530174  2045 net.cpp:151] Top shape: 32 192 28 28 (4816896)
I1201 02:35:00.530176  2045 net.cpp:159] Memory required for data: 578028032
I1201 02:35:00.530180  2045 layer_factory.hpp:77] Creating layer pool2/3x3_s2_pool2/3x3_s2_0_split
I1201 02:35:00.530186  2045 net.cpp:94] Creating Layer pool2/3x3_s2_pool2/3x3_s2_0_split
I1201 02:35:00.530189  2045 net.cpp:435] pool2/3x3_s2_pool2/3x3_s2_0_split <- pool2/3x3_s2
I1201 02:35:00.530195  2045 net.cpp:409] pool2/3x3_s2_pool2/3x3_s2_0_split -> pool2/3x3_s2_pool2/3x3_s2_0_split_0
I1201 02:35:00.530201  2045 net.cpp:409] pool2/3x3_s2_pool2/3x3_s2_0_split -> pool2/3x3_s2_pool2/3x3_s2_0_split_1
I1201 02:35:00.530207  2045 net.cpp:409] pool2/3x3_s2_pool2/3x3_s2_0_split -> pool2/3x3_s2_pool2/3x3_s2_0_split_2
I1201 02:35:00.530212  2045 net.cpp:409] pool2/3x3_s2_pool2/3x3_s2_0_split -> pool2/3x3_s2_pool2/3x3_s2_0_split_3
I1201 02:35:00.530257  2045 net.cpp:144] Setting up pool2/3x3_s2_pool2/3x3_s2_0_split
I1201 02:35:00.530264  2045 net.cpp:151] Top shape: 32 192 28 28 (4816896)
I1201 02:35:00.530267  2045 net.cpp:151] Top shape: 32 192 28 28 (4816896)
I1201 02:35:00.530272  2045 net.cpp:151] Top shape: 32 192 28 28 (4816896)
I1201 02:35:00.530274  2045 net.cpp:151] Top shape: 32 192 28 28 (4816896)
I1201 02:35:00.530278  2045 net.cpp:159] Memory required for data: 655098368
I1201 02:35:00.530280  2045 layer_factory.hpp:77] Creating layer inception_3a/1x1
I1201 02:35:00.530290  2045 net.cpp:94] Creating Layer inception_3a/1x1
I1201 02:35:00.530294  2045 net.cpp:435] inception_3a/1x1 <- pool2/3x3_s2_pool2/3x3_s2_0_split_0
I1201 02:35:00.530302  2045 net.cpp:409] inception_3a/1x1 -> inception_3a/1x1
I1201 02:35:00.531123  2045 net.cpp:144] Setting up inception_3a/1x1
I1201 02:35:00.531136  2045 net.cpp:151] Top shape: 32 64 28 28 (1605632)
I1201 02:35:00.531138  2045 net.cpp:159] Memory required for data: 661520896
I1201 02:35:00.531147  2045 layer_factory.hpp:77] Creating layer inception_3a/relu_1x1
I1201 02:35:00.531153  2045 net.cpp:94] Creating Layer inception_3a/relu_1x1
I1201 02:35:00.531157  2045 net.cpp:435] inception_3a/relu_1x1 <- inception_3a/1x1
I1201 02:35:00.531162  2045 net.cpp:396] inception_3a/relu_1x1 -> inception_3a/1x1 (in-place)
I1201 02:35:00.531170  2045 net.cpp:144] Setting up inception_3a/relu_1x1
I1201 02:35:00.531175  2045 net.cpp:151] Top shape: 32 64 28 28 (1605632)
I1201 02:35:00.531177  2045 net.cpp:159] Memory required for data: 667943424
I1201 02:35:00.531180  2045 layer_factory.hpp:77] Creating layer inception_3a/3x3_reduce
I1201 02:35:00.531190  2045 net.cpp:94] Creating Layer inception_3a/3x3_reduce
I1201 02:35:00.531193  2045 net.cpp:435] inception_3a/3x3_reduce <- pool2/3x3_s2_pool2/3x3_s2_0_split_1
I1201 02:35:00.531199  2045 net.cpp:409] inception_3a/3x3_reduce -> inception_3a/3x3_reduce
I1201 02:35:00.534521  2045 net.cpp:144] Setting up inception_3a/3x3_reduce
I1201 02:35:00.534538  2045 net.cpp:151] Top shape: 32 96 28 28 (2408448)
I1201 02:35:00.534540  2045 net.cpp:159] Memory required for data: 677577216
I1201 02:35:00.534550  2045 layer_factory.hpp:77] Creating layer inception_3a/relu_3x3_reduce
I1201 02:35:00.534562  2045 net.cpp:94] Creating Layer inception_3a/relu_3x3_reduce
I1201 02:35:00.534566  2045 net.cpp:435] inception_3a/relu_3x3_reduce <- inception_3a/3x3_reduce
I1201 02:35:00.534574  2045 net.cpp:396] inception_3a/relu_3x3_reduce -> inception_3a/3x3_reduce (in-place)
I1201 02:35:00.534580  2045 net.cpp:144] Setting up inception_3a/relu_3x3_reduce
I1201 02:35:00.534584  2045 net.cpp:151] Top shape: 32 96 28 28 (2408448)
I1201 02:35:00.534588  2045 net.cpp:159] Memory required for data: 687211008
I1201 02:35:00.534590  2045 layer_factory.hpp:77] Creating layer inception_3a/3x3
I1201 02:35:00.534600  2045 net.cpp:94] Creating Layer inception_3a/3x3
I1201 02:35:00.534603  2045 net.cpp:435] inception_3a/3x3 <- inception_3a/3x3_reduce
I1201 02:35:00.534610  2045 net.cpp:409] inception_3a/3x3 -> inception_3a/3x3
I1201 02:35:00.535447  2045 net.cpp:144] Setting up inception_3a/3x3
I1201 02:35:00.535456  2045 net.cpp:151] Top shape: 32 128 28 28 (3211264)
I1201 02:35:00.535459  2045 net.cpp:159] Memory required for data: 700056064
I1201 02:35:00.535465  2045 layer_factory.hpp:77] Creating layer inception_3a/relu_3x3
I1201 02:35:00.535471  2045 net.cpp:94] Creating Layer inception_3a/relu_3x3
I1201 02:35:00.535475  2045 net.cpp:435] inception_3a/relu_3x3 <- inception_3a/3x3
I1201 02:35:00.535480  2045 net.cpp:396] inception_3a/relu_3x3 -> inception_3a/3x3 (in-place)
I1201 02:35:00.535487  2045 net.cpp:144] Setting up inception_3a/relu_3x3
I1201 02:35:00.535490  2045 net.cpp:151] Top shape: 32 128 28 28 (3211264)
I1201 02:35:00.535493  2045 net.cpp:159] Memory required for data: 712901120
I1201 02:35:00.535495  2045 layer_factory.hpp:77] Creating layer inception_3a/5x5_reduce
I1201 02:35:00.535504  2045 net.cpp:94] Creating Layer inception_3a/5x5_reduce
I1201 02:35:00.535508  2045 net.cpp:435] inception_3a/5x5_reduce <- pool2/3x3_s2_pool2/3x3_s2_0_split_2
I1201 02:35:00.535514  2045 net.cpp:409] inception_3a/5x5_reduce -> inception_3a/5x5_reduce
I1201 02:35:00.535745  2045 net.cpp:144] Setting up inception_3a/5x5_reduce
I1201 02:35:00.535753  2045 net.cpp:151] Top shape: 32 16 28 28 (401408)
I1201 02:35:00.535755  2045 net.cpp:159] Memory required for data: 714506752
I1201 02:35:00.535760  2045 layer_factory.hpp:77] Creating layer inception_3a/relu_5x5_reduce
I1201 02:35:00.535766  2045 net.cpp:94] Creating Layer inception_3a/relu_5x5_reduce
I1201 02:35:00.535770  2045 net.cpp:435] inception_3a/relu_5x5_reduce <- inception_3a/5x5_reduce
I1201 02:35:00.535776  2045 net.cpp:396] inception_3a/relu_5x5_reduce -> inception_3a/5x5_reduce (in-place)
I1201 02:35:00.535781  2045 net.cpp:144] Setting up inception_3a/relu_5x5_reduce
I1201 02:35:00.535785  2045 net.cpp:151] Top shape: 32 16 28 28 (401408)
I1201 02:35:00.535789  2045 net.cpp:159] Memory required for data: 716112384
I1201 02:35:00.535791  2045 layer_factory.hpp:77] Creating layer inception_3a/5x5
I1201 02:35:00.535799  2045 net.cpp:94] Creating Layer inception_3a/5x5
I1201 02:35:00.535802  2045 net.cpp:435] inception_3a/5x5 <- inception_3a/5x5_reduce
I1201 02:35:00.535809  2045 net.cpp:409] inception_3a/5x5 -> inception_3a/5x5
I1201 02:35:00.536078  2045 net.cpp:144] Setting up inception_3a/5x5
I1201 02:35:00.536085  2045 net.cpp:151] Top shape: 32 32 28 28 (802816)
I1201 02:35:00.536087  2045 net.cpp:159] Memory required for data: 719323648
I1201 02:35:00.536094  2045 layer_factory.hpp:77] Creating layer inception_3a/relu_5x5
I1201 02:35:00.536100  2045 net.cpp:94] Creating Layer inception_3a/relu_5x5
I1201 02:35:00.536103  2045 net.cpp:435] inception_3a/relu_5x5 <- inception_3a/5x5
I1201 02:35:00.536109  2045 net.cpp:396] inception_3a/relu_5x5 -> inception_3a/5x5 (in-place)
I1201 02:35:00.536115  2045 net.cpp:144] Setting up inception_3a/relu_5x5
I1201 02:35:00.536132  2045 net.cpp:151] Top shape: 32 32 28 28 (802816)
I1201 02:35:00.536135  2045 net.cpp:159] Memory required for data: 722534912
I1201 02:35:00.536139  2045 layer_factory.hpp:77] Creating layer inception_3a/pool
I1201 02:35:00.536145  2045 net.cpp:94] Creating Layer inception_3a/pool
I1201 02:35:00.536149  2045 net.cpp:435] inception_3a/pool <- pool2/3x3_s2_pool2/3x3_s2_0_split_3
I1201 02:35:00.536154  2045 net.cpp:409] inception_3a/pool -> inception_3a/pool
I1201 02:35:00.536190  2045 net.cpp:144] Setting up inception_3a/pool
I1201 02:35:00.536203  2045 net.cpp:151] Top shape: 32 192 28 28 (4816896)
I1201 02:35:00.536206  2045 net.cpp:159] Memory required for data: 741802496
I1201 02:35:00.536209  2045 layer_factory.hpp:77] Creating layer inception_3a/pool_proj
I1201 02:35:00.536218  2045 net.cpp:94] Creating Layer inception_3a/pool_proj
I1201 02:35:00.536222  2045 net.cpp:435] inception_3a/pool_proj <- inception_3a/pool
I1201 02:35:00.536228  2045 net.cpp:409] inception_3a/pool_proj -> inception_3a/pool_proj
I1201 02:35:00.536459  2045 net.cpp:144] Setting up inception_3a/pool_proj
I1201 02:35:00.536465  2045 net.cpp:151] Top shape: 32 32 28 28 (802816)
I1201 02:35:00.536469  2045 net.cpp:159] Memory required for data: 745013760
I1201 02:35:00.536479  2045 layer_factory.hpp:77] Creating layer inception_3a/relu_pool_proj
I1201 02:35:00.536485  2045 net.cpp:94] Creating Layer inception_3a/relu_pool_proj
I1201 02:35:00.536489  2045 net.cpp:435] inception_3a/relu_pool_proj <- inception_3a/pool_proj
I1201 02:35:00.536495  2045 net.cpp:396] inception_3a/relu_pool_proj -> inception_3a/pool_proj (in-place)
I1201 02:35:00.536500  2045 net.cpp:144] Setting up inception_3a/relu_pool_proj
I1201 02:35:00.536504  2045 net.cpp:151] Top shape: 32 32 28 28 (802816)
I1201 02:35:00.536507  2045 net.cpp:159] Memory required for data: 748225024
I1201 02:35:00.536510  2045 layer_factory.hpp:77] Creating layer inception_3a/output
I1201 02:35:00.536517  2045 net.cpp:94] Creating Layer inception_3a/output
I1201 02:35:00.536520  2045 net.cpp:435] inception_3a/output <- inception_3a/1x1
I1201 02:35:00.536523  2045 net.cpp:435] inception_3a/output <- inception_3a/3x3
I1201 02:35:00.536528  2045 net.cpp:435] inception_3a/output <- inception_3a/5x5
I1201 02:35:00.536531  2045 net.cpp:435] inception_3a/output <- inception_3a/pool_proj
I1201 02:35:00.536535  2045 net.cpp:409] inception_3a/output -> inception_3a/output
I1201 02:35:00.536558  2045 net.cpp:144] Setting up inception_3a/output
I1201 02:35:00.536564  2045 net.cpp:151] Top shape: 32 256 28 28 (6422528)
I1201 02:35:00.536567  2045 net.cpp:159] Memory required for data: 773915136
I1201 02:35:00.536571  2045 layer_factory.hpp:77] Creating layer inception_3a/output_inception_3a/output_0_split
I1201 02:35:00.536577  2045 net.cpp:94] Creating Layer inception_3a/output_inception_3a/output_0_split
I1201 02:35:00.536581  2045 net.cpp:435] inception_3a/output_inception_3a/output_0_split <- inception_3a/output
I1201 02:35:00.536586  2045 net.cpp:409] inception_3a/output_inception_3a/output_0_split -> inception_3a/output_inception_3a/output_0_split_0
I1201 02:35:00.536592  2045 net.cpp:409] inception_3a/output_inception_3a/output_0_split -> inception_3a/output_inception_3a/output_0_split_1
I1201 02:35:00.536598  2045 net.cpp:409] inception_3a/output_inception_3a/output_0_split -> inception_3a/output_inception_3a/output_0_split_2
I1201 02:35:00.536605  2045 net.cpp:409] inception_3a/output_inception_3a/output_0_split -> inception_3a/output_inception_3a/output_0_split_3
I1201 02:35:00.536653  2045 net.cpp:144] Setting up inception_3a/output_inception_3a/output_0_split
I1201 02:35:00.536659  2045 net.cpp:151] Top shape: 32 256 28 28 (6422528)
I1201 02:35:00.536662  2045 net.cpp:151] Top shape: 32 256 28 28 (6422528)
I1201 02:35:00.536666  2045 net.cpp:151] Top shape: 32 256 28 28 (6422528)
I1201 02:35:00.536669  2045 net.cpp:151] Top shape: 32 256 28 28 (6422528)
I1201 02:35:00.536672  2045 net.cpp:159] Memory required for data: 876675584
I1201 02:35:00.536684  2045 layer_factory.hpp:77] Creating layer inception_3b/1x1
I1201 02:35:00.536694  2045 net.cpp:94] Creating Layer inception_3b/1x1
I1201 02:35:00.536696  2045 net.cpp:435] inception_3b/1x1 <- inception_3a/output_inception_3a/output_0_split_0
I1201 02:35:00.536702  2045 net.cpp:409] inception_3b/1x1 -> inception_3b/1x1
I1201 02:35:00.537132  2045 net.cpp:144] Setting up inception_3b/1x1
I1201 02:35:00.537158  2045 net.cpp:151] Top shape: 32 128 28 28 (3211264)
I1201 02:35:00.537189  2045 net.cpp:159] Memory required for data: 889520640
I1201 02:35:00.537226  2045 layer_factory.hpp:77] Creating layer inception_3b/relu_1x1
I1201 02:35:00.537243  2045 net.cpp:94] Creating Layer inception_3b/relu_1x1
I1201 02:35:00.537250  2045 net.cpp:435] inception_3b/relu_1x1 <- inception_3b/1x1
I1201 02:35:00.537261  2045 net.cpp:396] inception_3b/relu_1x1 -> inception_3b/1x1 (in-place)
I1201 02:35:00.537271  2045 net.cpp:144] Setting up inception_3b/relu_1x1
I1201 02:35:00.537278  2045 net.cpp:151] Top shape: 32 128 28 28 (3211264)
I1201 02:35:00.537286  2045 net.cpp:159] Memory required for data: 902365696
I1201 02:35:00.537292  2045 layer_factory.hpp:77] Creating layer inception_3b/3x3_reduce
I1201 02:35:00.537308  2045 net.cpp:94] Creating Layer inception_3b/3x3_reduce
I1201 02:35:00.537315  2045 net.cpp:435] inception_3b/3x3_reduce <- inception_3a/output_inception_3a/output_0_split_1
I1201 02:35:00.537329  2045 net.cpp:409] inception_3b/3x3_reduce -> inception_3b/3x3_reduce
I1201 02:35:00.537745  2045 net.cpp:144] Setting up inception_3b/3x3_reduce
I1201 02:35:00.537756  2045 net.cpp:151] Top shape: 32 128 28 28 (3211264)
I1201 02:35:00.537760  2045 net.cpp:159] Memory required for data: 915210752
I1201 02:35:00.537765  2045 layer_factory.hpp:77] Creating layer inception_3b/relu_3x3_reduce
I1201 02:35:00.537771  2045 net.cpp:94] Creating Layer inception_3b/relu_3x3_reduce
I1201 02:35:00.537775  2045 net.cpp:435] inception_3b/relu_3x3_reduce <- inception_3b/3x3_reduce
I1201 02:35:00.537780  2045 net.cpp:396] inception_3b/relu_3x3_reduce -> inception_3b/3x3_reduce (in-place)
I1201 02:35:00.537787  2045 net.cpp:144] Setting up inception_3b/relu_3x3_reduce
I1201 02:35:00.537791  2045 net.cpp:151] Top shape: 32 128 28 28 (3211264)
I1201 02:35:00.537793  2045 net.cpp:159] Memory required for data: 928055808
I1201 02:35:00.537796  2045 layer_factory.hpp:77] Creating layer inception_3b/3x3
I1201 02:35:00.537811  2045 net.cpp:94] Creating Layer inception_3b/3x3
I1201 02:35:00.537814  2045 net.cpp:435] inception_3b/3x3 <- inception_3b/3x3_reduce
I1201 02:35:00.537820  2045 net.cpp:409] inception_3b/3x3 -> inception_3b/3x3
I1201 02:35:00.543083  2045 net.cpp:144] Setting up inception_3b/3x3
I1201 02:35:00.543102  2045 net.cpp:151] Top shape: 32 192 28 28 (4816896)
I1201 02:35:00.543108  2045 net.cpp:159] Memory required for data: 947323392
I1201 02:35:00.543118  2045 layer_factory.hpp:77] Creating layer inception_3b/relu_3x3
I1201 02:35:00.543128  2045 net.cpp:94] Creating Layer inception_3b/relu_3x3
I1201 02:35:00.543134  2045 net.cpp:435] inception_3b/relu_3x3 <- inception_3b/3x3
I1201 02:35:00.543144  2045 net.cpp:396] inception_3b/relu_3x3 -> inception_3b/3x3 (in-place)
I1201 02:35:00.543155  2045 net.cpp:144] Setting up inception_3b/relu_3x3
I1201 02:35:00.543162  2045 net.cpp:151] Top shape: 32 192 28 28 (4816896)
I1201 02:35:00.543167  2045 net.cpp:159] Memory required for data: 966590976
I1201 02:35:00.543172  2045 layer_factory.hpp:77] Creating layer inception_3b/5x5_reduce
I1201 02:35:00.543185  2045 net.cpp:94] Creating Layer inception_3b/5x5_reduce
I1201 02:35:00.543190  2045 net.cpp:435] inception_3b/5x5_reduce <- inception_3a/output_inception_3a/output_0_split_2
I1201 02:35:00.543201  2045 net.cpp:409] inception_3b/5x5_reduce -> inception_3b/5x5_reduce
I1201 02:35:00.543603  2045 net.cpp:144] Setting up inception_3b/5x5_reduce
I1201 02:35:00.543615  2045 net.cpp:151] Top shape: 32 32 28 28 (802816)
I1201 02:35:00.543620  2045 net.cpp:159] Memory required for data: 969802240
I1201 02:35:00.543630  2045 layer_factory.hpp:77] Creating layer inception_3b/relu_5x5_reduce
I1201 02:35:00.543654  2045 net.cpp:94] Creating Layer inception_3b/relu_5x5_reduce
I1201 02:35:00.543661  2045 net.cpp:435] inception_3b/relu_5x5_reduce <- inception_3b/5x5_reduce
I1201 02:35:00.543670  2045 net.cpp:396] inception_3b/relu_5x5_reduce -> inception_3b/5x5_reduce (in-place)
I1201 02:35:00.543682  2045 net.cpp:144] Setting up inception_3b/relu_5x5_reduce
I1201 02:35:00.543689  2045 net.cpp:151] Top shape: 32 32 28 28 (802816)
I1201 02:35:00.543694  2045 net.cpp:159] Memory required for data: 973013504
I1201 02:35:00.543699  2045 layer_factory.hpp:77] Creating layer inception_3b/5x5
I1201 02:35:00.543714  2045 net.cpp:94] Creating Layer inception_3b/5x5
I1201 02:35:00.543720  2045 net.cpp:435] inception_3b/5x5 <- inception_3b/5x5_reduce
I1201 02:35:00.543728  2045 net.cpp:409] inception_3b/5x5 -> inception_3b/5x5
I1201 02:35:00.554425  2045 net.cpp:144] Setting up inception_3b/5x5
I1201 02:35:00.554441  2045 net.cpp:151] Top shape: 32 96 28 28 (2408448)
I1201 02:35:00.554455  2045 net.cpp:159] Memory required for data: 982647296
I1201 02:35:00.554461  2045 layer_factory.hpp:77] Creating layer inception_3b/relu_5x5
I1201 02:35:00.554468  2045 net.cpp:94] Creating Layer inception_3b/relu_5x5
I1201 02:35:00.554473  2045 net.cpp:435] inception_3b/relu_5x5 <- inception_3b/5x5
I1201 02:35:00.554479  2045 net.cpp:396] inception_3b/relu_5x5 -> inception_3b/5x5 (in-place)
I1201 02:35:00.554487  2045 net.cpp:144] Setting up inception_3b/relu_5x5
I1201 02:35:00.554491  2045 net.cpp:151] Top shape: 32 96 28 28 (2408448)
I1201 02:35:00.554494  2045 net.cpp:159] Memory required for data: 992281088
I1201 02:35:00.554497  2045 layer_factory.hpp:77] Creating layer inception_3b/pool
I1201 02:35:00.554503  2045 net.cpp:94] Creating Layer inception_3b/pool
I1201 02:35:00.554507  2045 net.cpp:435] inception_3b/pool <- inception_3a/output_inception_3a/output_0_split_3
I1201 02:35:00.554513  2045 net.cpp:409] inception_3b/pool -> inception_3b/pool
I1201 02:35:00.554553  2045 net.cpp:144] Setting up inception_3b/pool
I1201 02:35:00.554558  2045 net.cpp:151] Top shape: 32 256 28 28 (6422528)
I1201 02:35:00.554561  2045 net.cpp:159] Memory required for data: 1017971200
I1201 02:35:00.554565  2045 layer_factory.hpp:77] Creating layer inception_3b/pool_proj
I1201 02:35:00.554575  2045 net.cpp:94] Creating Layer inception_3b/pool_proj
I1201 02:35:00.554579  2045 net.cpp:435] inception_3b/pool_proj <- inception_3b/pool
I1201 02:35:00.554585  2045 net.cpp:409] inception_3b/pool_proj -> inception_3b/pool_proj
I1201 02:35:00.554886  2045 net.cpp:144] Setting up inception_3b/pool_proj
I1201 02:35:00.554893  2045 net.cpp:151] Top shape: 32 64 28 28 (1605632)
I1201 02:35:00.554895  2045 net.cpp:159] Memory required for data: 1024393728
I1201 02:35:00.554901  2045 layer_factory.hpp:77] Creating layer inception_3b/relu_pool_proj
I1201 02:35:00.554908  2045 net.cpp:94] Creating Layer inception_3b/relu_pool_proj
I1201 02:35:00.554913  2045 net.cpp:435] inception_3b/relu_pool_proj <- inception_3b/pool_proj
I1201 02:35:00.554919  2045 net.cpp:396] inception_3b/relu_pool_proj -> inception_3b/pool_proj (in-place)
I1201 02:35:00.554924  2045 net.cpp:144] Setting up inception_3b/relu_pool_proj
I1201 02:35:00.554929  2045 net.cpp:151] Top shape: 32 64 28 28 (1605632)
I1201 02:35:00.554931  2045 net.cpp:159] Memory required for data: 1030816256
I1201 02:35:00.554934  2045 layer_factory.hpp:77] Creating layer inception_3b/output
I1201 02:35:00.554940  2045 net.cpp:94] Creating Layer inception_3b/output
I1201 02:35:00.554944  2045 net.cpp:435] inception_3b/output <- inception_3b/1x1
I1201 02:35:00.554949  2045 net.cpp:435] inception_3b/output <- inception_3b/3x3
I1201 02:35:00.554951  2045 net.cpp:435] inception_3b/output <- inception_3b/5x5
I1201 02:35:00.554955  2045 net.cpp:435] inception_3b/output <- inception_3b/pool_proj
I1201 02:35:00.554960  2045 net.cpp:409] inception_3b/output -> inception_3b/output
I1201 02:35:00.554983  2045 net.cpp:144] Setting up inception_3b/output
I1201 02:35:00.554987  2045 net.cpp:151] Top shape: 32 480 28 28 (12042240)
I1201 02:35:00.555002  2045 net.cpp:159] Memory required for data: 1078985216
I1201 02:35:00.555006  2045 layer_factory.hpp:77] Creating layer pool3/3x3_s2
I1201 02:35:00.555013  2045 net.cpp:94] Creating Layer pool3/3x3_s2
I1201 02:35:00.555016  2045 net.cpp:435] pool3/3x3_s2 <- inception_3b/output
I1201 02:35:00.555022  2045 net.cpp:409] pool3/3x3_s2 -> pool3/3x3_s2
I1201 02:35:00.555058  2045 net.cpp:144] Setting up pool3/3x3_s2
I1201 02:35:00.555063  2045 net.cpp:151] Top shape: 32 480 14 14 (3010560)
I1201 02:35:00.555065  2045 net.cpp:159] Memory required for data: 1091027456
I1201 02:35:00.555068  2045 layer_factory.hpp:77] Creating layer pool3/3x3_s2_pool3/3x3_s2_0_split
I1201 02:35:00.555075  2045 net.cpp:94] Creating Layer pool3/3x3_s2_pool3/3x3_s2_0_split
I1201 02:35:00.555078  2045 net.cpp:435] pool3/3x3_s2_pool3/3x3_s2_0_split <- pool3/3x3_s2
I1201 02:35:00.555084  2045 net.cpp:409] pool3/3x3_s2_pool3/3x3_s2_0_split -> pool3/3x3_s2_pool3/3x3_s2_0_split_0
I1201 02:35:00.555091  2045 net.cpp:409] pool3/3x3_s2_pool3/3x3_s2_0_split -> pool3/3x3_s2_pool3/3x3_s2_0_split_1
I1201 02:35:00.555099  2045 net.cpp:409] pool3/3x3_s2_pool3/3x3_s2_0_split -> pool3/3x3_s2_pool3/3x3_s2_0_split_2
I1201 02:35:00.555104  2045 net.cpp:409] pool3/3x3_s2_pool3/3x3_s2_0_split -> pool3/3x3_s2_pool3/3x3_s2_0_split_3
I1201 02:35:00.555151  2045 net.cpp:144] Setting up pool3/3x3_s2_pool3/3x3_s2_0_split
I1201 02:35:00.555157  2045 net.cpp:151] Top shape: 32 480 14 14 (3010560)
I1201 02:35:00.555161  2045 net.cpp:151] Top shape: 32 480 14 14 (3010560)
I1201 02:35:00.555166  2045 net.cpp:151] Top shape: 32 480 14 14 (3010560)
I1201 02:35:00.555169  2045 net.cpp:151] Top shape: 32 480 14 14 (3010560)
I1201 02:35:00.555171  2045 net.cpp:159] Memory required for data: 1139196416
I1201 02:35:00.555176  2045 layer_factory.hpp:77] Creating layer inception_4a/1x1
I1201 02:35:00.555184  2045 net.cpp:94] Creating Layer inception_4a/1x1
I1201 02:35:00.555187  2045 net.cpp:435] inception_4a/1x1 <- pool3/3x3_s2_pool3/3x3_s2_0_split_0
I1201 02:35:00.555193  2045 net.cpp:409] inception_4a/1x1 -> inception_4a/1x1
I1201 02:35:00.555884  2045 net.cpp:144] Setting up inception_4a/1x1
I1201 02:35:00.555891  2045 net.cpp:151] Top shape: 32 192 14 14 (1204224)
I1201 02:35:00.555894  2045 net.cpp:159] Memory required for data: 1144013312
I1201 02:35:00.555899  2045 layer_factory.hpp:77] Creating layer inception_4a/relu_1x1
I1201 02:35:00.555907  2045 net.cpp:94] Creating Layer inception_4a/relu_1x1
I1201 02:35:00.555910  2045 net.cpp:435] inception_4a/relu_1x1 <- inception_4a/1x1
I1201 02:35:00.555915  2045 net.cpp:396] inception_4a/relu_1x1 -> inception_4a/1x1 (in-place)
I1201 02:35:00.555922  2045 net.cpp:144] Setting up inception_4a/relu_1x1
I1201 02:35:00.555927  2045 net.cpp:151] Top shape: 32 192 14 14 (1204224)
I1201 02:35:00.555929  2045 net.cpp:159] Memory required for data: 1148830208
I1201 02:35:00.555932  2045 layer_factory.hpp:77] Creating layer inception_4a/3x3_reduce
I1201 02:35:00.555940  2045 net.cpp:94] Creating Layer inception_4a/3x3_reduce
I1201 02:35:00.555944  2045 net.cpp:435] inception_4a/3x3_reduce <- pool3/3x3_s2_pool3/3x3_s2_0_split_1
I1201 02:35:00.555951  2045 net.cpp:409] inception_4a/3x3_reduce -> inception_4a/3x3_reduce
I1201 02:35:00.556411  2045 net.cpp:144] Setting up inception_4a/3x3_reduce
I1201 02:35:00.556418  2045 net.cpp:151] Top shape: 32 96 14 14 (602112)
I1201 02:35:00.556421  2045 net.cpp:159] Memory required for data: 1151238656
I1201 02:35:00.556433  2045 layer_factory.hpp:77] Creating layer inception_4a/relu_3x3_reduce
I1201 02:35:00.556439  2045 net.cpp:94] Creating Layer inception_4a/relu_3x3_reduce
I1201 02:35:00.556442  2045 net.cpp:435] inception_4a/relu_3x3_reduce <- inception_4a/3x3_reduce
I1201 02:35:00.556449  2045 net.cpp:396] inception_4a/relu_3x3_reduce -> inception_4a/3x3_reduce (in-place)
I1201 02:35:00.556455  2045 net.cpp:144] Setting up inception_4a/relu_3x3_reduce
I1201 02:35:00.556459  2045 net.cpp:151] Top shape: 32 96 14 14 (602112)
I1201 02:35:00.556462  2045 net.cpp:159] Memory required for data: 1153647104
I1201 02:35:00.556474  2045 layer_factory.hpp:77] Creating layer inception_4a/3x3
I1201 02:35:00.556483  2045 net.cpp:94] Creating Layer inception_4a/3x3
I1201 02:35:00.556485  2045 net.cpp:435] inception_4a/3x3 <- inception_4a/3x3_reduce
I1201 02:35:00.556493  2045 net.cpp:409] inception_4a/3x3 -> inception_4a/3x3
I1201 02:35:00.563688  2045 net.cpp:144] Setting up inception_4a/3x3
I1201 02:35:00.563709  2045 net.cpp:151] Top shape: 32 208 14 14 (1304576)
I1201 02:35:00.563714  2045 net.cpp:159] Memory required for data: 1158865408
I1201 02:35:00.563724  2045 layer_factory.hpp:77] Creating layer inception_4a/relu_3x3
I1201 02:35:00.563736  2045 net.cpp:94] Creating Layer inception_4a/relu_3x3
I1201 02:35:00.563742  2045 net.cpp:435] inception_4a/relu_3x3 <- inception_4a/3x3
I1201 02:35:00.563751  2045 net.cpp:396] inception_4a/relu_3x3 -> inception_4a/3x3 (in-place)
I1201 02:35:00.563763  2045 net.cpp:144] Setting up inception_4a/relu_3x3
I1201 02:35:00.563771  2045 net.cpp:151] Top shape: 32 208 14 14 (1304576)
I1201 02:35:00.563776  2045 net.cpp:159] Memory required for data: 1164083712
I1201 02:35:00.563781  2045 layer_factory.hpp:77] Creating layer inception_4a/5x5_reduce
I1201 02:35:00.563793  2045 net.cpp:94] Creating Layer inception_4a/5x5_reduce
I1201 02:35:00.563802  2045 net.cpp:435] inception_4a/5x5_reduce <- pool3/3x3_s2_pool3/3x3_s2_0_split_2
I1201 02:35:00.563812  2045 net.cpp:409] inception_4a/5x5_reduce -> inception_4a/5x5_reduce
I1201 02:35:00.564209  2045 net.cpp:144] Setting up inception_4a/5x5_reduce
I1201 02:35:00.564220  2045 net.cpp:151] Top shape: 32 16 14 14 (100352)
I1201 02:35:00.564226  2045 net.cpp:159] Memory required for data: 1164485120
I1201 02:35:00.564235  2045 layer_factory.hpp:77] Creating layer inception_4a/relu_5x5_reduce
I1201 02:35:00.564245  2045 net.cpp:94] Creating Layer inception_4a/relu_5x5_reduce
I1201 02:35:00.564251  2045 net.cpp:435] inception_4a/relu_5x5_reduce <- inception_4a/5x5_reduce
I1201 02:35:00.564261  2045 net.cpp:396] inception_4a/relu_5x5_reduce -> inception_4a/5x5_reduce (in-place)
I1201 02:35:00.564271  2045 net.cpp:144] Setting up inception_4a/relu_5x5_reduce
I1201 02:35:00.564277  2045 net.cpp:151] Top shape: 32 16 14 14 (100352)
I1201 02:35:00.564282  2045 net.cpp:159] Memory required for data: 1164886528
I1201 02:35:00.564288  2045 layer_factory.hpp:77] Creating layer inception_4a/5x5
I1201 02:35:00.564301  2045 net.cpp:94] Creating Layer inception_4a/5x5
I1201 02:35:00.564308  2045 net.cpp:435] inception_4a/5x5 <- inception_4a/5x5_reduce
I1201 02:35:00.564318  2045 net.cpp:409] inception_4a/5x5 -> inception_4a/5x5
I1201 02:35:00.564838  2045 net.cpp:144] Setting up inception_4a/5x5
I1201 02:35:00.564849  2045 net.cpp:151] Top shape: 32 48 14 14 (301056)
I1201 02:35:00.564853  2045 net.cpp:159] Memory required for data: 1166090752
I1201 02:35:00.564862  2045 layer_factory.hpp:77] Creating layer inception_4a/relu_5x5
I1201 02:35:00.564873  2045 net.cpp:94] Creating Layer inception_4a/relu_5x5
I1201 02:35:00.564879  2045 net.cpp:435] inception_4a/relu_5x5 <- inception_4a/5x5
I1201 02:35:00.564887  2045 net.cpp:396] inception_4a/relu_5x5 -> inception_4a/5x5 (in-place)
I1201 02:35:00.564896  2045 net.cpp:144] Setting up inception_4a/relu_5x5
I1201 02:35:00.564904  2045 net.cpp:151] Top shape: 32 48 14 14 (301056)
I1201 02:35:00.564908  2045 net.cpp:159] Memory required for data: 1167294976
I1201 02:35:00.564913  2045 layer_factory.hpp:77] Creating layer inception_4a/pool
I1201 02:35:00.564923  2045 net.cpp:94] Creating Layer inception_4a/pool
I1201 02:35:00.564929  2045 net.cpp:435] inception_4a/pool <- pool3/3x3_s2_pool3/3x3_s2_0_split_3
I1201 02:35:00.564936  2045 net.cpp:409] inception_4a/pool -> inception_4a/pool
I1201 02:35:00.564990  2045 net.cpp:144] Setting up inception_4a/pool
I1201 02:35:00.564997  2045 net.cpp:151] Top shape: 32 480 14 14 (3010560)
I1201 02:35:00.565003  2045 net.cpp:159] Memory required for data: 1179337216
I1201 02:35:00.565008  2045 layer_factory.hpp:77] Creating layer inception_4a/pool_proj
I1201 02:35:00.565038  2045 net.cpp:94] Creating Layer inception_4a/pool_proj
I1201 02:35:00.565045  2045 net.cpp:435] inception_4a/pool_proj <- inception_4a/pool
I1201 02:35:00.565079  2045 net.cpp:409] inception_4a/pool_proj -> inception_4a/pool_proj
I1201 02:35:00.565722  2045 net.cpp:144] Setting up inception_4a/pool_proj
I1201 02:35:00.565732  2045 net.cpp:151] Top shape: 32 64 14 14 (401408)
I1201 02:35:00.565737  2045 net.cpp:159] Memory required for data: 1180942848
I1201 02:35:00.565747  2045 layer_factory.hpp:77] Creating layer inception_4a/relu_pool_proj
I1201 02:35:00.565757  2045 net.cpp:94] Creating Layer inception_4a/relu_pool_proj
I1201 02:35:00.565762  2045 net.cpp:435] inception_4a/relu_pool_proj <- inception_4a/pool_proj
I1201 02:35:00.565770  2045 net.cpp:396] inception_4a/relu_pool_proj -> inception_4a/pool_proj (in-place)
I1201 02:35:00.565781  2045 net.cpp:144] Setting up inception_4a/relu_pool_proj
I1201 02:35:00.565788  2045 net.cpp:151] Top shape: 32 64 14 14 (401408)
I1201 02:35:00.565793  2045 net.cpp:159] Memory required for data: 1182548480
I1201 02:35:00.565798  2045 layer_factory.hpp:77] Creating layer inception_4a/output
I1201 02:35:00.565807  2045 net.cpp:94] Creating Layer inception_4a/output
I1201 02:35:00.565814  2045 net.cpp:435] inception_4a/output <- inception_4a/1x1
I1201 02:35:00.565819  2045 net.cpp:435] inception_4a/output <- inception_4a/3x3
I1201 02:35:00.565825  2045 net.cpp:435] inception_4a/output <- inception_4a/5x5
I1201 02:35:00.565832  2045 net.cpp:435] inception_4a/output <- inception_4a/pool_proj
I1201 02:35:00.565840  2045 net.cpp:409] inception_4a/output -> inception_4a/output
I1201 02:35:00.565872  2045 net.cpp:144] Setting up inception_4a/output
I1201 02:35:00.565881  2045 net.cpp:151] Top shape: 32 512 14 14 (3211264)
I1201 02:35:00.565886  2045 net.cpp:159] Memory required for data: 1195393536
I1201 02:35:00.565891  2045 layer_factory.hpp:77] Creating layer inception_4a/output_inception_4a/output_0_split
I1201 02:35:00.565901  2045 net.cpp:94] Creating Layer inception_4a/output_inception_4a/output_0_split
I1201 02:35:00.565907  2045 net.cpp:435] inception_4a/output_inception_4a/output_0_split <- inception_4a/output
I1201 02:35:00.565917  2045 net.cpp:409] inception_4a/output_inception_4a/output_0_split -> inception_4a/output_inception_4a/output_0_split_0
I1201 02:35:00.565928  2045 net.cpp:409] inception_4a/output_inception_4a/output_0_split -> inception_4a/output_inception_4a/output_0_split_1
I1201 02:35:00.565939  2045 net.cpp:409] inception_4a/output_inception_4a/output_0_split -> inception_4a/output_inception_4a/output_0_split_2
I1201 02:35:00.565949  2045 net.cpp:409] inception_4a/output_inception_4a/output_0_split -> inception_4a/output_inception_4a/output_0_split_3
I1201 02:35:00.565960  2045 net.cpp:409] inception_4a/output_inception_4a/output_0_split -> inception_4a/output_inception_4a/output_0_split_4
I1201 02:35:00.566064  2045 net.cpp:144] Setting up inception_4a/output_inception_4a/output_0_split
I1201 02:35:00.566074  2045 net.cpp:151] Top shape: 32 512 14 14 (3211264)
I1201 02:35:00.566081  2045 net.cpp:151] Top shape: 32 512 14 14 (3211264)
I1201 02:35:00.566088  2045 net.cpp:151] Top shape: 32 512 14 14 (3211264)
I1201 02:35:00.566093  2045 net.cpp:151] Top shape: 32 512 14 14 (3211264)
I1201 02:35:00.566099  2045 net.cpp:151] Top shape: 32 512 14 14 (3211264)
I1201 02:35:00.566104  2045 net.cpp:159] Memory required for data: 1259618816
I1201 02:35:00.566110  2045 layer_factory.hpp:77] Creating layer loss1/ave_pool
I1201 02:35:00.566118  2045 net.cpp:94] Creating Layer loss1/ave_pool
I1201 02:35:00.566124  2045 net.cpp:435] loss1/ave_pool <- inception_4a/output_inception_4a/output_0_split_0
I1201 02:35:00.566133  2045 net.cpp:409] loss1/ave_pool -> loss1/ave_pool
I1201 02:35:00.566172  2045 net.cpp:144] Setting up loss1/ave_pool
I1201 02:35:00.566181  2045 net.cpp:151] Top shape: 32 512 4 4 (262144)
I1201 02:35:00.566185  2045 net.cpp:159] Memory required for data: 1260667392
I1201 02:35:00.566190  2045 layer_factory.hpp:77] Creating layer loss1/conv
I1201 02:35:00.566218  2045 net.cpp:94] Creating Layer loss1/conv
I1201 02:35:00.566224  2045 net.cpp:435] loss1/conv <- loss1/ave_pool
I1201 02:35:00.566233  2045 net.cpp:409] loss1/conv -> loss1/conv
I1201 02:35:00.567235  2045 net.cpp:144] Setting up loss1/conv
I1201 02:35:00.567248  2045 net.cpp:151] Top shape: 32 128 4 4 (65536)
I1201 02:35:00.567253  2045 net.cpp:159] Memory required for data: 1260929536
I1201 02:35:00.567262  2045 layer_factory.hpp:77] Creating layer loss1/relu_conv
I1201 02:35:00.567271  2045 net.cpp:94] Creating Layer loss1/relu_conv
I1201 02:35:00.567277  2045 net.cpp:435] loss1/relu_conv <- loss1/conv
I1201 02:35:00.567286  2045 net.cpp:396] loss1/relu_conv -> loss1/conv (in-place)
I1201 02:35:00.567294  2045 net.cpp:144] Setting up loss1/relu_conv
I1201 02:35:00.567301  2045 net.cpp:151] Top shape: 32 128 4 4 (65536)
I1201 02:35:00.567306  2045 net.cpp:159] Memory required for data: 1261191680
I1201 02:35:00.567312  2045 layer_factory.hpp:77] Creating layer loss1/fc
I1201 02:35:00.567322  2045 net.cpp:94] Creating Layer loss1/fc
I1201 02:35:00.567327  2045 net.cpp:435] loss1/fc <- loss1/conv
I1201 02:35:00.567337  2045 net.cpp:409] loss1/fc -> loss1/fc
I1201 02:35:00.594633  2045 net.cpp:144] Setting up loss1/fc
I1201 02:35:00.594653  2045 net.cpp:151] Top shape: 32 1024 (32768)
I1201 02:35:00.594658  2045 net.cpp:159] Memory required for data: 1261322752
I1201 02:35:00.594669  2045 layer_factory.hpp:77] Creating layer loss1/relu_fc
I1201 02:35:00.594679  2045 net.cpp:94] Creating Layer loss1/relu_fc
I1201 02:35:00.594686  2045 net.cpp:435] loss1/relu_fc <- loss1/fc
I1201 02:35:00.594694  2045 net.cpp:396] loss1/relu_fc -> loss1/fc (in-place)
I1201 02:35:00.594707  2045 net.cpp:144] Setting up loss1/relu_fc
I1201 02:35:00.594714  2045 net.cpp:151] Top shape: 32 1024 (32768)
I1201 02:35:00.594718  2045 net.cpp:159] Memory required for data: 1261453824
I1201 02:35:00.594723  2045 layer_factory.hpp:77] Creating layer loss1/drop_fc
I1201 02:35:00.594749  2045 net.cpp:94] Creating Layer loss1/drop_fc
I1201 02:35:00.594755  2045 net.cpp:435] loss1/drop_fc <- loss1/fc
I1201 02:35:00.594763  2045 net.cpp:396] loss1/drop_fc -> loss1/fc (in-place)
I1201 02:35:00.594797  2045 net.cpp:144] Setting up loss1/drop_fc
I1201 02:35:00.594806  2045 net.cpp:151] Top shape: 32 1024 (32768)
I1201 02:35:00.594811  2045 net.cpp:159] Memory required for data: 1261584896
I1201 02:35:00.594816  2045 layer_factory.hpp:77] Creating layer loss1/classifier
I1201 02:35:00.594827  2045 net.cpp:94] Creating Layer loss1/classifier
I1201 02:35:00.594835  2045 net.cpp:435] loss1/classifier <- loss1/fc
I1201 02:35:00.594844  2045 net.cpp:409] loss1/classifier -> loss1/classifier
I1201 02:35:00.595021  2045 net.cpp:144] Setting up loss1/classifier
I1201 02:35:00.595031  2045 net.cpp:151] Top shape: 32 3 (96)
I1201 02:35:00.595036  2045 net.cpp:159] Memory required for data: 1261585280
I1201 02:35:00.595046  2045 layer_factory.hpp:77] Creating layer loss1/loss
I1201 02:35:00.595055  2045 net.cpp:94] Creating Layer loss1/loss
I1201 02:35:00.595060  2045 net.cpp:435] loss1/loss <- loss1/classifier
I1201 02:35:00.595068  2045 net.cpp:435] loss1/loss <- label_train-data_1_split_0
I1201 02:35:00.595078  2045 net.cpp:409] loss1/loss -> loss1/loss
I1201 02:35:00.595090  2045 layer_factory.hpp:77] Creating layer loss1/loss
I1201 02:35:00.595216  2045 net.cpp:144] Setting up loss1/loss
I1201 02:35:00.595227  2045 net.cpp:151] Top shape: (1)
I1201 02:35:00.595230  2045 net.cpp:154]     with loss weight 0.3
I1201 02:35:00.595259  2045 net.cpp:159] Memory required for data: 1261585284
I1201 02:35:00.595265  2045 layer_factory.hpp:77] Creating layer inception_4b/1x1
I1201 02:35:00.595280  2045 net.cpp:94] Creating Layer inception_4b/1x1
I1201 02:35:00.595286  2045 net.cpp:435] inception_4b/1x1 <- inception_4a/output_inception_4a/output_0_split_1
I1201 02:35:00.595299  2045 net.cpp:409] inception_4b/1x1 -> inception_4b/1x1
I1201 02:35:00.596501  2045 net.cpp:144] Setting up inception_4b/1x1
I1201 02:35:00.596514  2045 net.cpp:151] Top shape: 32 160 14 14 (1003520)
I1201 02:35:00.596539  2045 net.cpp:159] Memory required for data: 1265599364
I1201 02:35:00.596549  2045 layer_factory.hpp:77] Creating layer inception_4b/relu_1x1
I1201 02:35:00.596560  2045 net.cpp:94] Creating Layer inception_4b/relu_1x1
I1201 02:35:00.596566  2045 net.cpp:435] inception_4b/relu_1x1 <- inception_4b/1x1
I1201 02:35:00.596576  2045 net.cpp:396] inception_4b/relu_1x1 -> inception_4b/1x1 (in-place)
I1201 02:35:00.596585  2045 net.cpp:144] Setting up inception_4b/relu_1x1
I1201 02:35:00.596592  2045 net.cpp:151] Top shape: 32 160 14 14 (1003520)
I1201 02:35:00.596598  2045 net.cpp:159] Memory required for data: 1269613444
I1201 02:35:00.596603  2045 layer_factory.hpp:77] Creating layer inception_4b/3x3_reduce
I1201 02:35:00.596614  2045 net.cpp:94] Creating Layer inception_4b/3x3_reduce
I1201 02:35:00.596619  2045 net.cpp:435] inception_4b/3x3_reduce <- inception_4a/output_inception_4a/output_0_split_2
I1201 02:35:00.596633  2045 net.cpp:409] inception_4b/3x3_reduce -> inception_4b/3x3_reduce
I1201 02:35:00.598345  2045 net.cpp:144] Setting up inception_4b/3x3_reduce
I1201 02:35:00.598361  2045 net.cpp:151] Top shape: 32 112 14 14 (702464)
I1201 02:35:00.598366  2045 net.cpp:159] Memory required for data: 1272423300
I1201 02:35:00.598377  2045 layer_factory.hpp:77] Creating layer inception_4b/relu_3x3_reduce
I1201 02:35:00.598387  2045 net.cpp:94] Creating Layer inception_4b/relu_3x3_reduce
I1201 02:35:00.598392  2045 net.cpp:435] inception_4b/relu_3x3_reduce <- inception_4b/3x3_reduce
I1201 02:35:00.598402  2045 net.cpp:396] inception_4b/relu_3x3_reduce -> inception_4b/3x3_reduce (in-place)
I1201 02:35:00.598414  2045 net.cpp:144] Setting up inception_4b/relu_3x3_reduce
I1201 02:35:00.598420  2045 net.cpp:151] Top shape: 32 112 14 14 (702464)
I1201 02:35:00.598424  2045 net.cpp:159] Memory required for data: 1275233156
I1201 02:35:00.598429  2045 layer_factory.hpp:77] Creating layer inception_4b/3x3
I1201 02:35:00.598448  2045 net.cpp:94] Creating Layer inception_4b/3x3
I1201 02:35:00.598456  2045 net.cpp:435] inception_4b/3x3 <- inception_4b/3x3_reduce
I1201 02:35:00.598472  2045 net.cpp:409] inception_4b/3x3 -> inception_4b/3x3
I1201 02:35:00.601951  2045 net.cpp:144] Setting up inception_4b/3x3
I1201 02:35:00.601969  2045 net.cpp:151] Top shape: 32 224 14 14 (1404928)
I1201 02:35:00.601974  2045 net.cpp:159] Memory required for data: 1280852868
I1201 02:35:00.601985  2045 layer_factory.hpp:77] Creating layer inception_4b/relu_3x3
I1201 02:35:00.601994  2045 net.cpp:94] Creating Layer inception_4b/relu_3x3
I1201 02:35:00.602001  2045 net.cpp:435] inception_4b/relu_3x3 <- inception_4b/3x3
I1201 02:35:00.602011  2045 net.cpp:396] inception_4b/relu_3x3 -> inception_4b/3x3 (in-place)
I1201 02:35:00.602022  2045 net.cpp:144] Setting up inception_4b/relu_3x3
I1201 02:35:00.602030  2045 net.cpp:151] Top shape: 32 224 14 14 (1404928)
I1201 02:35:00.602035  2045 net.cpp:159] Memory required for data: 1286472580
I1201 02:35:00.602039  2045 layer_factory.hpp:77] Creating layer inception_4b/5x5_reduce
I1201 02:35:00.602053  2045 net.cpp:94] Creating Layer inception_4b/5x5_reduce
I1201 02:35:00.602059  2045 net.cpp:435] inception_4b/5x5_reduce <- inception_4a/output_inception_4a/output_0_split_3
I1201 02:35:00.602069  2045 net.cpp:409] inception_4b/5x5_reduce -> inception_4b/5x5_reduce
I1201 02:35:00.602541  2045 net.cpp:144] Setting up inception_4b/5x5_reduce
I1201 02:35:00.602552  2045 net.cpp:151] Top shape: 32 24 14 14 (150528)
I1201 02:35:00.602557  2045 net.cpp:159] Memory required for data: 1287074692
I1201 02:35:00.602567  2045 layer_factory.hpp:77] Creating layer inception_4b/relu_5x5_reduce
I1201 02:35:00.602578  2045 net.cpp:94] Creating Layer inception_4b/relu_5x5_reduce
I1201 02:35:00.602584  2045 net.cpp:435] inception_4b/relu_5x5_reduce <- inception_4b/5x5_reduce
I1201 02:35:00.602591  2045 net.cpp:396] inception_4b/relu_5x5_reduce -> inception_4b/5x5_reduce (in-place)
I1201 02:35:00.602602  2045 net.cpp:144] Setting up inception_4b/relu_5x5_reduce
I1201 02:35:00.602624  2045 net.cpp:151] Top shape: 32 24 14 14 (150528)
I1201 02:35:00.602629  2045 net.cpp:159] Memory required for data: 1287676804
I1201 02:35:00.602634  2045 layer_factory.hpp:77] Creating layer inception_4b/5x5
I1201 02:35:00.602648  2045 net.cpp:94] Creating Layer inception_4b/5x5
I1201 02:35:00.602653  2045 net.cpp:435] inception_4b/5x5 <- inception_4b/5x5_reduce
I1201 02:35:00.602664  2045 net.cpp:409] inception_4b/5x5 -> inception_4b/5x5
I1201 02:35:00.603400  2045 net.cpp:144] Setting up inception_4b/5x5
I1201 02:35:00.603412  2045 net.cpp:151] Top shape: 32 64 14 14 (401408)
I1201 02:35:00.603417  2045 net.cpp:159] Memory required for data: 1289282436
I1201 02:35:00.603426  2045 layer_factory.hpp:77] Creating layer inception_4b/relu_5x5
I1201 02:35:00.603436  2045 net.cpp:94] Creating Layer inception_4b/relu_5x5
I1201 02:35:00.603443  2045 net.cpp:435] inception_4b/relu_5x5 <- inception_4b/5x5
I1201 02:35:00.603451  2045 net.cpp:396] inception_4b/relu_5x5 -> inception_4b/5x5 (in-place)
I1201 02:35:00.603461  2045 net.cpp:144] Setting up inception_4b/relu_5x5
I1201 02:35:00.603466  2045 net.cpp:151] Top shape: 32 64 14 14 (401408)
I1201 02:35:00.603471  2045 net.cpp:159] Memory required for data: 1290888068
I1201 02:35:00.603477  2045 layer_factory.hpp:77] Creating layer inception_4b/pool
I1201 02:35:00.603487  2045 net.cpp:94] Creating Layer inception_4b/pool
I1201 02:35:00.603492  2045 net.cpp:435] inception_4b/pool <- inception_4a/output_inception_4a/output_0_split_4
I1201 02:35:00.603502  2045 net.cpp:409] inception_4b/pool -> inception_4b/pool
I1201 02:35:00.603575  2045 net.cpp:144] Setting up inception_4b/pool
I1201 02:35:00.603585  2045 net.cpp:151] Top shape: 32 512 14 14 (3211264)
I1201 02:35:00.603590  2045 net.cpp:159] Memory required for data: 1303733124
I1201 02:35:00.603596  2045 layer_factory.hpp:77] Creating layer inception_4b/pool_proj
I1201 02:35:00.603608  2045 net.cpp:94] Creating Layer inception_4b/pool_proj
I1201 02:35:00.603616  2045 net.cpp:435] inception_4b/pool_proj <- inception_4b/pool
I1201 02:35:00.603626  2045 net.cpp:409] inception_4b/pool_proj -> inception_4b/pool_proj
I1201 02:35:00.604285  2045 net.cpp:144] Setting up inception_4b/pool_proj
I1201 02:35:00.604297  2045 net.cpp:151] Top shape: 32 64 14 14 (401408)
I1201 02:35:00.604302  2045 net.cpp:159] Memory required for data: 1305338756
I1201 02:35:00.604311  2045 layer_factory.hpp:77] Creating layer inception_4b/relu_pool_proj
I1201 02:35:00.604323  2045 net.cpp:94] Creating Layer inception_4b/relu_pool_proj
I1201 02:35:00.604329  2045 net.cpp:435] inception_4b/relu_pool_proj <- inception_4b/pool_proj
I1201 02:35:00.604336  2045 net.cpp:396] inception_4b/relu_pool_proj -> inception_4b/pool_proj (in-place)
I1201 02:35:00.604346  2045 net.cpp:144] Setting up inception_4b/relu_pool_proj
I1201 02:35:00.604354  2045 net.cpp:151] Top shape: 32 64 14 14 (401408)
I1201 02:35:00.604358  2045 net.cpp:159] Memory required for data: 1306944388
I1201 02:35:00.604363  2045 layer_factory.hpp:77] Creating layer inception_4b/output
I1201 02:35:00.604374  2045 net.cpp:94] Creating Layer inception_4b/output
I1201 02:35:00.604380  2045 net.cpp:435] inception_4b/output <- inception_4b/1x1
I1201 02:35:00.604387  2045 net.cpp:435] inception_4b/output <- inception_4b/3x3
I1201 02:35:00.604393  2045 net.cpp:435] inception_4b/output <- inception_4b/5x5
I1201 02:35:00.604398  2045 net.cpp:435] inception_4b/output <- inception_4b/pool_proj
I1201 02:35:00.604408  2045 net.cpp:409] inception_4b/output -> inception_4b/output
I1201 02:35:00.604444  2045 net.cpp:144] Setting up inception_4b/output
I1201 02:35:00.604452  2045 net.cpp:151] Top shape: 32 512 14 14 (3211264)
I1201 02:35:00.604456  2045 net.cpp:159] Memory required for data: 1319789444
I1201 02:35:00.604462  2045 layer_factory.hpp:77] Creating layer inception_4b/output_inception_4b/output_0_split
I1201 02:35:00.604471  2045 net.cpp:94] Creating Layer inception_4b/output_inception_4b/output_0_split
I1201 02:35:00.604476  2045 net.cpp:435] inception_4b/output_inception_4b/output_0_split <- inception_4b/output
I1201 02:35:00.604501  2045 net.cpp:409] inception_4b/output_inception_4b/output_0_split -> inception_4b/output_inception_4b/output_0_split_0
I1201 02:35:00.604512  2045 net.cpp:409] inception_4b/output_inception_4b/output_0_split -> inception_4b/output_inception_4b/output_0_split_1
I1201 02:35:00.604521  2045 net.cpp:409] inception_4b/output_inception_4b/output_0_split -> inception_4b/output_inception_4b/output_0_split_2
I1201 02:35:00.604532  2045 net.cpp:409] inception_4b/output_inception_4b/output_0_split -> inception_4b/output_inception_4b/output_0_split_3
I1201 02:35:00.604614  2045 net.cpp:144] Setting up inception_4b/output_inception_4b/output_0_split
I1201 02:35:00.604624  2045 net.cpp:151] Top shape: 32 512 14 14 (3211264)
I1201 02:35:00.604631  2045 net.cpp:151] Top shape: 32 512 14 14 (3211264)
I1201 02:35:00.604637  2045 net.cpp:151] Top shape: 32 512 14 14 (3211264)
I1201 02:35:00.604643  2045 net.cpp:151] Top shape: 32 512 14 14 (3211264)
I1201 02:35:00.604650  2045 net.cpp:159] Memory required for data: 1371169668
I1201 02:35:00.604655  2045 layer_factory.hpp:77] Creating layer inception_4c/1x1
I1201 02:35:00.604668  2045 net.cpp:94] Creating Layer inception_4c/1x1
I1201 02:35:00.604674  2045 net.cpp:435] inception_4c/1x1 <- inception_4b/output_inception_4b/output_0_split_0
I1201 02:35:00.604686  2045 net.cpp:409] inception_4c/1x1 -> inception_4c/1x1
I1201 02:35:00.605712  2045 net.cpp:144] Setting up inception_4c/1x1
I1201 02:35:00.605726  2045 net.cpp:151] Top shape: 32 128 14 14 (802816)
I1201 02:35:00.605731  2045 net.cpp:159] Memory required for data: 1374380932
I1201 02:35:00.605742  2045 layer_factory.hpp:77] Creating layer inception_4c/relu_1x1
I1201 02:35:00.605751  2045 net.cpp:94] Creating Layer inception_4c/relu_1x1
I1201 02:35:00.605756  2045 net.cpp:435] inception_4c/relu_1x1 <- inception_4c/1x1
I1201 02:35:00.605767  2045 net.cpp:396] inception_4c/relu_1x1 -> inception_4c/1x1 (in-place)
I1201 02:35:00.605778  2045 net.cpp:144] Setting up inception_4c/relu_1x1
I1201 02:35:00.605784  2045 net.cpp:151] Top shape: 32 128 14 14 (802816)
I1201 02:35:00.605789  2045 net.cpp:159] Memory required for data: 1377592196
I1201 02:35:00.605793  2045 layer_factory.hpp:77] Creating layer inception_4c/3x3_reduce
I1201 02:35:00.605813  2045 net.cpp:94] Creating Layer inception_4c/3x3_reduce
I1201 02:35:00.605818  2045 net.cpp:435] inception_4c/3x3_reduce <- inception_4b/output_inception_4b/output_0_split_1
I1201 02:35:00.605828  2045 net.cpp:409] inception_4c/3x3_reduce -> inception_4c/3x3_reduce
I1201 02:35:00.606894  2045 net.cpp:144] Setting up inception_4c/3x3_reduce
I1201 02:35:00.606909  2045 net.cpp:151] Top shape: 32 128 14 14 (802816)
I1201 02:35:00.606914  2045 net.cpp:159] Memory required for data: 1380803460
I1201 02:35:00.606925  2045 layer_factory.hpp:77] Creating layer inception_4c/relu_3x3_reduce
I1201 02:35:00.606935  2045 net.cpp:94] Creating Layer inception_4c/relu_3x3_reduce
I1201 02:35:00.606942  2045 net.cpp:435] inception_4c/relu_3x3_reduce <- inception_4c/3x3_reduce
I1201 02:35:00.606950  2045 net.cpp:396] inception_4c/relu_3x3_reduce -> inception_4c/3x3_reduce (in-place)
I1201 02:35:00.606961  2045 net.cpp:144] Setting up inception_4c/relu_3x3_reduce
I1201 02:35:00.606968  2045 net.cpp:151] Top shape: 32 128 14 14 (802816)
I1201 02:35:00.606974  2045 net.cpp:159] Memory required for data: 1384014724
I1201 02:35:00.606979  2045 layer_factory.hpp:77] Creating layer inception_4c/3x3
I1201 02:35:00.606992  2045 net.cpp:94] Creating Layer inception_4c/3x3
I1201 02:35:00.606997  2045 net.cpp:435] inception_4c/3x3 <- inception_4c/3x3_reduce
I1201 02:35:00.607009  2045 net.cpp:409] inception_4c/3x3 -> inception_4c/3x3
I1201 02:35:00.611234  2045 net.cpp:144] Setting up inception_4c/3x3
I1201 02:35:00.611253  2045 net.cpp:151] Top shape: 32 256 14 14 (1605632)
I1201 02:35:00.611259  2045 net.cpp:159] Memory required for data: 1390437252
I1201 02:35:00.611284  2045 layer_factory.hpp:77] Creating layer inception_4c/relu_3x3
I1201 02:35:00.611295  2045 net.cpp:94] Creating Layer inception_4c/relu_3x3
I1201 02:35:00.611317  2045 net.cpp:435] inception_4c/relu_3x3 <- inception_4c/3x3
I1201 02:35:00.611326  2045 net.cpp:396] inception_4c/relu_3x3 -> inception_4c/3x3 (in-place)
I1201 02:35:00.611344  2045 net.cpp:144] Setting up inception_4c/relu_3x3
I1201 02:35:00.611351  2045 net.cpp:151] Top shape: 32 256 14 14 (1605632)
I1201 02:35:00.611356  2045 net.cpp:159] Memory required for data: 1396859780
I1201 02:35:00.611361  2045 layer_factory.hpp:77] Creating layer inception_4c/5x5_reduce
I1201 02:35:00.611374  2045 net.cpp:94] Creating Layer inception_4c/5x5_reduce
I1201 02:35:00.611380  2045 net.cpp:435] inception_4c/5x5_reduce <- inception_4b/output_inception_4b/output_0_split_2
I1201 02:35:00.611389  2045 net.cpp:409] inception_4c/5x5_reduce -> inception_4c/5x5_reduce
I1201 02:35:00.611856  2045 net.cpp:144] Setting up inception_4c/5x5_reduce
I1201 02:35:00.611868  2045 net.cpp:151] Top shape: 32 24 14 14 (150528)
I1201 02:35:00.611873  2045 net.cpp:159] Memory required for data: 1397461892
I1201 02:35:00.611882  2045 layer_factory.hpp:77] Creating layer inception_4c/relu_5x5_reduce
I1201 02:35:00.611892  2045 net.cpp:94] Creating Layer inception_4c/relu_5x5_reduce
I1201 02:35:00.611899  2045 net.cpp:435] inception_4c/relu_5x5_reduce <- inception_4c/5x5_reduce
I1201 02:35:00.611909  2045 net.cpp:396] inception_4c/relu_5x5_reduce -> inception_4c/5x5_reduce (in-place)
I1201 02:35:00.611918  2045 net.cpp:144] Setting up inception_4c/relu_5x5_reduce
I1201 02:35:00.611925  2045 net.cpp:151] Top shape: 32 24 14 14 (150528)
I1201 02:35:00.611932  2045 net.cpp:159] Memory required for data: 1398064004
I1201 02:35:00.611935  2045 layer_factory.hpp:77] Creating layer inception_4c/5x5
I1201 02:35:00.611948  2045 net.cpp:94] Creating Layer inception_4c/5x5
I1201 02:35:00.611953  2045 net.cpp:435] inception_4c/5x5 <- inception_4c/5x5_reduce
I1201 02:35:00.611965  2045 net.cpp:409] inception_4c/5x5 -> inception_4c/5x5
I1201 02:35:00.613442  2045 net.cpp:144] Setting up inception_4c/5x5
I1201 02:35:00.613459  2045 net.cpp:151] Top shape: 32 64 14 14 (401408)
I1201 02:35:00.613464  2045 net.cpp:159] Memory required for data: 1399669636
I1201 02:35:00.613476  2045 layer_factory.hpp:77] Creating layer inception_4c/relu_5x5
I1201 02:35:00.613484  2045 net.cpp:94] Creating Layer inception_4c/relu_5x5
I1201 02:35:00.613490  2045 net.cpp:435] inception_4c/relu_5x5 <- inception_4c/5x5
I1201 02:35:00.613500  2045 net.cpp:396] inception_4c/relu_5x5 -> inception_4c/5x5 (in-place)
I1201 02:35:00.613513  2045 net.cpp:144] Setting up inception_4c/relu_5x5
I1201 02:35:00.613520  2045 net.cpp:151] Top shape: 32 64 14 14 (401408)
I1201 02:35:00.613524  2045 net.cpp:159] Memory required for data: 1401275268
I1201 02:35:00.613529  2045 layer_factory.hpp:77] Creating layer inception_4c/pool
I1201 02:35:00.613540  2045 net.cpp:94] Creating Layer inception_4c/pool
I1201 02:35:00.613545  2045 net.cpp:435] inception_4c/pool <- inception_4b/output_inception_4b/output_0_split_3
I1201 02:35:00.613554  2045 net.cpp:409] inception_4c/pool -> inception_4c/pool
I1201 02:35:00.613612  2045 net.cpp:144] Setting up inception_4c/pool
I1201 02:35:00.613623  2045 net.cpp:151] Top shape: 32 512 14 14 (3211264)
I1201 02:35:00.613627  2045 net.cpp:159] Memory required for data: 1414120324
I1201 02:35:00.613632  2045 layer_factory.hpp:77] Creating layer inception_4c/pool_proj
I1201 02:35:00.613646  2045 net.cpp:94] Creating Layer inception_4c/pool_proj
I1201 02:35:00.613654  2045 net.cpp:435] inception_4c/pool_proj <- inception_4c/pool
I1201 02:35:00.613665  2045 net.cpp:409] inception_4c/pool_proj -> inception_4c/pool_proj
I1201 02:35:00.614341  2045 net.cpp:144] Setting up inception_4c/pool_proj
I1201 02:35:00.614352  2045 net.cpp:151] Top shape: 32 64 14 14 (401408)
I1201 02:35:00.614358  2045 net.cpp:159] Memory required for data: 1415725956
I1201 02:35:00.614367  2045 layer_factory.hpp:77] Creating layer inception_4c/relu_pool_proj
I1201 02:35:00.614375  2045 net.cpp:94] Creating Layer inception_4c/relu_pool_proj
I1201 02:35:00.614382  2045 net.cpp:435] inception_4c/relu_pool_proj <- inception_4c/pool_proj
I1201 02:35:00.614404  2045 net.cpp:396] inception_4c/relu_pool_proj -> inception_4c/pool_proj (in-place)
I1201 02:35:00.614415  2045 net.cpp:144] Setting up inception_4c/relu_pool_proj
I1201 02:35:00.614423  2045 net.cpp:151] Top shape: 32 64 14 14 (401408)
I1201 02:35:00.614428  2045 net.cpp:159] Memory required for data: 1417331588
I1201 02:35:00.614434  2045 layer_factory.hpp:77] Creating layer inception_4c/output
I1201 02:35:00.614441  2045 net.cpp:94] Creating Layer inception_4c/output
I1201 02:35:00.614446  2045 net.cpp:435] inception_4c/output <- inception_4c/1x1
I1201 02:35:00.614452  2045 net.cpp:435] inception_4c/output <- inception_4c/3x3
I1201 02:35:00.614459  2045 net.cpp:435] inception_4c/output <- inception_4c/5x5
I1201 02:35:00.614465  2045 net.cpp:435] inception_4c/output <- inception_4c/pool_proj
I1201 02:35:00.614472  2045 net.cpp:409] inception_4c/output -> inception_4c/output
I1201 02:35:00.614511  2045 net.cpp:144] Setting up inception_4c/output
I1201 02:35:00.614521  2045 net.cpp:151] Top shape: 32 512 14 14 (3211264)
I1201 02:35:00.614524  2045 net.cpp:159] Memory required for data: 1430176644
I1201 02:35:00.614528  2045 layer_factory.hpp:77] Creating layer inception_4c/output_inception_4c/output_0_split
I1201 02:35:00.614537  2045 net.cpp:94] Creating Layer inception_4c/output_inception_4c/output_0_split
I1201 02:35:00.614543  2045 net.cpp:435] inception_4c/output_inception_4c/output_0_split <- inception_4c/output
I1201 02:35:00.614552  2045 net.cpp:409] inception_4c/output_inception_4c/output_0_split -> inception_4c/output_inception_4c/output_0_split_0
I1201 02:35:00.614563  2045 net.cpp:409] inception_4c/output_inception_4c/output_0_split -> inception_4c/output_inception_4c/output_0_split_1
I1201 02:35:00.614573  2045 net.cpp:409] inception_4c/output_inception_4c/output_0_split -> inception_4c/output_inception_4c/output_0_split_2
I1201 02:35:00.614583  2045 net.cpp:409] inception_4c/output_inception_4c/output_0_split -> inception_4c/output_inception_4c/output_0_split_3
I1201 02:35:00.614665  2045 net.cpp:144] Setting up inception_4c/output_inception_4c/output_0_split
I1201 02:35:00.614673  2045 net.cpp:151] Top shape: 32 512 14 14 (3211264)
I1201 02:35:00.614679  2045 net.cpp:151] Top shape: 32 512 14 14 (3211264)
I1201 02:35:00.614687  2045 net.cpp:151] Top shape: 32 512 14 14 (3211264)
I1201 02:35:00.614692  2045 net.cpp:151] Top shape: 32 512 14 14 (3211264)
I1201 02:35:00.614697  2045 net.cpp:159] Memory required for data: 1481556868
I1201 02:35:00.614702  2045 layer_factory.hpp:77] Creating layer inception_4d/1x1
I1201 02:35:00.614714  2045 net.cpp:94] Creating Layer inception_4d/1x1
I1201 02:35:00.614719  2045 net.cpp:435] inception_4d/1x1 <- inception_4c/output_inception_4c/output_0_split_0
I1201 02:35:00.614730  2045 net.cpp:409] inception_4d/1x1 -> inception_4d/1x1
I1201 02:35:00.615665  2045 net.cpp:144] Setting up inception_4d/1x1
I1201 02:35:00.615679  2045 net.cpp:151] Top shape: 32 112 14 14 (702464)
I1201 02:35:00.615682  2045 net.cpp:159] Memory required for data: 1484366724
I1201 02:35:00.615691  2045 layer_factory.hpp:77] Creating layer inception_4d/relu_1x1
I1201 02:35:00.615700  2045 net.cpp:94] Creating Layer inception_4d/relu_1x1
I1201 02:35:00.615707  2045 net.cpp:435] inception_4d/relu_1x1 <- inception_4d/1x1
I1201 02:35:00.615716  2045 net.cpp:396] inception_4d/relu_1x1 -> inception_4d/1x1 (in-place)
I1201 02:35:00.615726  2045 net.cpp:144] Setting up inception_4d/relu_1x1
I1201 02:35:00.615733  2045 net.cpp:151] Top shape: 32 112 14 14 (702464)
I1201 02:35:00.615738  2045 net.cpp:159] Memory required for data: 1487176580
I1201 02:35:00.615743  2045 layer_factory.hpp:77] Creating layer inception_4d/3x3_reduce
I1201 02:35:00.615756  2045 net.cpp:94] Creating Layer inception_4d/3x3_reduce
I1201 02:35:00.615762  2045 net.cpp:435] inception_4d/3x3_reduce <- inception_4c/output_inception_4c/output_0_split_1
I1201 02:35:00.615774  2045 net.cpp:409] inception_4d/3x3_reduce -> inception_4d/3x3_reduce
I1201 02:35:00.616928  2045 net.cpp:144] Setting up inception_4d/3x3_reduce
I1201 02:35:00.616941  2045 net.cpp:151] Top shape: 32 144 14 14 (903168)
I1201 02:35:00.616946  2045 net.cpp:159] Memory required for data: 1490789252
I1201 02:35:00.616956  2045 layer_factory.hpp:77] Creating layer inception_4d/relu_3x3_reduce
I1201 02:35:00.616966  2045 net.cpp:94] Creating Layer inception_4d/relu_3x3_reduce
I1201 02:35:00.616971  2045 net.cpp:435] inception_4d/relu_3x3_reduce <- inception_4d/3x3_reduce
I1201 02:35:00.616981  2045 net.cpp:396] inception_4d/relu_3x3_reduce -> inception_4d/3x3_reduce (in-place)
I1201 02:35:00.616991  2045 net.cpp:144] Setting up inception_4d/relu_3x3_reduce
I1201 02:35:00.616998  2045 net.cpp:151] Top shape: 32 144 14 14 (903168)
I1201 02:35:00.617002  2045 net.cpp:159] Memory required for data: 1494401924
I1201 02:35:00.617007  2045 layer_factory.hpp:77] Creating layer inception_4d/3x3
I1201 02:35:00.617022  2045 net.cpp:94] Creating Layer inception_4d/3x3
I1201 02:35:00.617027  2045 net.cpp:435] inception_4d/3x3 <- inception_4d/3x3_reduce
I1201 02:35:00.617036  2045 net.cpp:409] inception_4d/3x3 -> inception_4d/3x3
I1201 02:35:00.622236  2045 net.cpp:144] Setting up inception_4d/3x3
I1201 02:35:00.622254  2045 net.cpp:151] Top shape: 32 288 14 14 (1806336)
I1201 02:35:00.622259  2045 net.cpp:159] Memory required for data: 1501627268
I1201 02:35:00.622268  2045 layer_factory.hpp:77] Creating layer inception_4d/relu_3x3
I1201 02:35:00.622279  2045 net.cpp:94] Creating Layer inception_4d/relu_3x3
I1201 02:35:00.622287  2045 net.cpp:435] inception_4d/relu_3x3 <- inception_4d/3x3
I1201 02:35:00.622295  2045 net.cpp:396] inception_4d/relu_3x3 -> inception_4d/3x3 (in-place)
I1201 02:35:00.622306  2045 net.cpp:144] Setting up inception_4d/relu_3x3
I1201 02:35:00.622313  2045 net.cpp:151] Top shape: 32 288 14 14 (1806336)
I1201 02:35:00.622319  2045 net.cpp:159] Memory required for data: 1508852612
I1201 02:35:00.622324  2045 layer_factory.hpp:77] Creating layer inception_4d/5x5_reduce
I1201 02:35:00.622337  2045 net.cpp:94] Creating Layer inception_4d/5x5_reduce
I1201 02:35:00.622344  2045 net.cpp:435] inception_4d/5x5_reduce <- inception_4c/output_inception_4c/output_0_split_2
I1201 02:35:00.622355  2045 net.cpp:409] inception_4d/5x5_reduce -> inception_4d/5x5_reduce
I1201 02:35:00.622879  2045 net.cpp:144] Setting up inception_4d/5x5_reduce
I1201 02:35:00.622891  2045 net.cpp:151] Top shape: 32 32 14 14 (200704)
I1201 02:35:00.622895  2045 net.cpp:159] Memory required for data: 1509655428
I1201 02:35:00.622905  2045 layer_factory.hpp:77] Creating layer inception_4d/relu_5x5_reduce
I1201 02:35:00.622915  2045 net.cpp:94] Creating Layer inception_4d/relu_5x5_reduce
I1201 02:35:00.622920  2045 net.cpp:435] inception_4d/relu_5x5_reduce <- inception_4d/5x5_reduce
I1201 02:35:00.622928  2045 net.cpp:396] inception_4d/relu_5x5_reduce -> inception_4d/5x5_reduce (in-place)
I1201 02:35:00.622939  2045 net.cpp:144] Setting up inception_4d/relu_5x5_reduce
I1201 02:35:00.622946  2045 net.cpp:151] Top shape: 32 32 14 14 (200704)
I1201 02:35:00.622951  2045 net.cpp:159] Memory required for data: 1510458244
I1201 02:35:00.622956  2045 layer_factory.hpp:77] Creating layer inception_4d/5x5
I1201 02:35:00.622969  2045 net.cpp:94] Creating Layer inception_4d/5x5
I1201 02:35:00.622974  2045 net.cpp:435] inception_4d/5x5 <- inception_4d/5x5_reduce
I1201 02:35:00.622983  2045 net.cpp:409] inception_4d/5x5 -> inception_4d/5x5
I1201 02:35:00.623855  2045 net.cpp:144] Setting up inception_4d/5x5
I1201 02:35:00.623867  2045 net.cpp:151] Top shape: 32 64 14 14 (401408)
I1201 02:35:00.623872  2045 net.cpp:159] Memory required for data: 1512063876
I1201 02:35:00.623880  2045 layer_factory.hpp:77] Creating layer inception_4d/relu_5x5
I1201 02:35:00.623890  2045 net.cpp:94] Creating Layer inception_4d/relu_5x5
I1201 02:35:00.623898  2045 net.cpp:435] inception_4d/relu_5x5 <- inception_4d/5x5
I1201 02:35:00.623905  2045 net.cpp:396] inception_4d/relu_5x5 -> inception_4d/5x5 (in-place)
I1201 02:35:00.623914  2045 net.cpp:144] Setting up inception_4d/relu_5x5
I1201 02:35:00.623935  2045 net.cpp:151] Top shape: 32 64 14 14 (401408)
I1201 02:35:00.623942  2045 net.cpp:159] Memory required for data: 1513669508
I1201 02:35:00.623947  2045 layer_factory.hpp:77] Creating layer inception_4d/pool
I1201 02:35:00.623956  2045 net.cpp:94] Creating Layer inception_4d/pool
I1201 02:35:00.623962  2045 net.cpp:435] inception_4d/pool <- inception_4c/output_inception_4c/output_0_split_3
I1201 02:35:00.623972  2045 net.cpp:409] inception_4d/pool -> inception_4d/pool
I1201 02:35:00.624028  2045 net.cpp:144] Setting up inception_4d/pool
I1201 02:35:00.624037  2045 net.cpp:151] Top shape: 32 512 14 14 (3211264)
I1201 02:35:00.624042  2045 net.cpp:159] Memory required for data: 1526514564
I1201 02:35:00.624048  2045 layer_factory.hpp:77] Creating layer inception_4d/pool_proj
I1201 02:35:00.624061  2045 net.cpp:94] Creating Layer inception_4d/pool_proj
I1201 02:35:00.624068  2045 net.cpp:435] inception_4d/pool_proj <- inception_4d/pool
I1201 02:35:00.624076  2045 net.cpp:409] inception_4d/pool_proj -> inception_4d/pool_proj
I1201 02:35:00.624743  2045 net.cpp:144] Setting up inception_4d/pool_proj
I1201 02:35:00.624754  2045 net.cpp:151] Top shape: 32 64 14 14 (401408)
I1201 02:35:00.624758  2045 net.cpp:159] Memory required for data: 1528120196
I1201 02:35:00.624766  2045 layer_factory.hpp:77] Creating layer inception_4d/relu_pool_proj
I1201 02:35:00.624776  2045 net.cpp:94] Creating Layer inception_4d/relu_pool_proj
I1201 02:35:00.624783  2045 net.cpp:435] inception_4d/relu_pool_proj <- inception_4d/pool_proj
I1201 02:35:00.624790  2045 net.cpp:396] inception_4d/relu_pool_proj -> inception_4d/pool_proj (in-place)
I1201 02:35:00.624799  2045 net.cpp:144] Setting up inception_4d/relu_pool_proj
I1201 02:35:00.624809  2045 net.cpp:151] Top shape: 32 64 14 14 (401408)
I1201 02:35:00.624812  2045 net.cpp:159] Memory required for data: 1529725828
I1201 02:35:00.624817  2045 layer_factory.hpp:77] Creating layer inception_4d/output
I1201 02:35:00.624826  2045 net.cpp:94] Creating Layer inception_4d/output
I1201 02:35:00.624835  2045 net.cpp:435] inception_4d/output <- inception_4d/1x1
I1201 02:35:00.624840  2045 net.cpp:435] inception_4d/output <- inception_4d/3x3
I1201 02:35:00.624846  2045 net.cpp:435] inception_4d/output <- inception_4d/5x5
I1201 02:35:00.624851  2045 net.cpp:435] inception_4d/output <- inception_4d/pool_proj
I1201 02:35:00.624861  2045 net.cpp:409] inception_4d/output -> inception_4d/output
I1201 02:35:00.624897  2045 net.cpp:144] Setting up inception_4d/output
I1201 02:35:00.624905  2045 net.cpp:151] Top shape: 32 528 14 14 (3311616)
I1201 02:35:00.624909  2045 net.cpp:159] Memory required for data: 1542972292
I1201 02:35:00.624915  2045 layer_factory.hpp:77] Creating layer inception_4d/output_inception_4d/output_0_split
I1201 02:35:00.624925  2045 net.cpp:94] Creating Layer inception_4d/output_inception_4d/output_0_split
I1201 02:35:00.624932  2045 net.cpp:435] inception_4d/output_inception_4d/output_0_split <- inception_4d/output
I1201 02:35:00.624941  2045 net.cpp:409] inception_4d/output_inception_4d/output_0_split -> inception_4d/output_inception_4d/output_0_split_0
I1201 02:35:00.624953  2045 net.cpp:409] inception_4d/output_inception_4d/output_0_split -> inception_4d/output_inception_4d/output_0_split_1
I1201 02:35:00.624963  2045 net.cpp:409] inception_4d/output_inception_4d/output_0_split -> inception_4d/output_inception_4d/output_0_split_2
I1201 02:35:00.624972  2045 net.cpp:409] inception_4d/output_inception_4d/output_0_split -> inception_4d/output_inception_4d/output_0_split_3
I1201 02:35:00.624981  2045 net.cpp:409] inception_4d/output_inception_4d/output_0_split -> inception_4d/output_inception_4d/output_0_split_4
I1201 02:35:00.625113  2045 net.cpp:144] Setting up inception_4d/output_inception_4d/output_0_split
I1201 02:35:00.625123  2045 net.cpp:151] Top shape: 32 528 14 14 (3311616)
I1201 02:35:00.625130  2045 net.cpp:151] Top shape: 32 528 14 14 (3311616)
I1201 02:35:00.625140  2045 net.cpp:151] Top shape: 32 528 14 14 (3311616)
I1201 02:35:00.625164  2045 net.cpp:151] Top shape: 32 528 14 14 (3311616)
I1201 02:35:00.625172  2045 net.cpp:151] Top shape: 32 528 14 14 (3311616)
I1201 02:35:00.625180  2045 net.cpp:159] Memory required for data: 1609204612
I1201 02:35:00.625185  2045 layer_factory.hpp:77] Creating layer loss2/ave_pool
I1201 02:35:00.625198  2045 net.cpp:94] Creating Layer loss2/ave_pool
I1201 02:35:00.625205  2045 net.cpp:435] loss2/ave_pool <- inception_4d/output_inception_4d/output_0_split_0
I1201 02:35:00.625214  2045 net.cpp:409] loss2/ave_pool -> loss2/ave_pool
I1201 02:35:00.625255  2045 net.cpp:144] Setting up loss2/ave_pool
I1201 02:35:00.625265  2045 net.cpp:151] Top shape: 32 528 4 4 (270336)
I1201 02:35:00.625269  2045 net.cpp:159] Memory required for data: 1610285956
I1201 02:35:00.625274  2045 layer_factory.hpp:77] Creating layer loss2/conv
I1201 02:35:00.625288  2045 net.cpp:94] Creating Layer loss2/conv
I1201 02:35:00.625294  2045 net.cpp:435] loss2/conv <- loss2/ave_pool
I1201 02:35:00.625304  2045 net.cpp:409] loss2/conv -> loss2/conv
I1201 02:35:00.637967  2045 net.cpp:144] Setting up loss2/conv
I1201 02:35:00.637985  2045 net.cpp:151] Top shape: 32 128 4 4 (65536)
I1201 02:35:00.637991  2045 net.cpp:159] Memory required for data: 1610548100
I1201 02:35:00.638001  2045 layer_factory.hpp:77] Creating layer loss2/relu_conv
I1201 02:35:00.638011  2045 net.cpp:94] Creating Layer loss2/relu_conv
I1201 02:35:00.638017  2045 net.cpp:435] loss2/relu_conv <- loss2/conv
I1201 02:35:00.638027  2045 net.cpp:396] loss2/relu_conv -> loss2/conv (in-place)
I1201 02:35:00.638037  2045 net.cpp:144] Setting up loss2/relu_conv
I1201 02:35:00.638044  2045 net.cpp:151] Top shape: 32 128 4 4 (65536)
I1201 02:35:00.638049  2045 net.cpp:159] Memory required for data: 1610810244
I1201 02:35:00.638056  2045 layer_factory.hpp:77] Creating layer loss2/fc
I1201 02:35:00.638065  2045 net.cpp:94] Creating Layer loss2/fc
I1201 02:35:00.638070  2045 net.cpp:435] loss2/fc <- loss2/conv
I1201 02:35:00.638079  2045 net.cpp:409] loss2/fc -> loss2/fc
I1201 02:35:00.655385  2045 net.cpp:144] Setting up loss2/fc
I1201 02:35:00.655402  2045 net.cpp:151] Top shape: 32 1024 (32768)
I1201 02:35:00.655407  2045 net.cpp:159] Memory required for data: 1610941316
I1201 02:35:00.655417  2045 layer_factory.hpp:77] Creating layer loss2/relu_fc
I1201 02:35:00.655428  2045 net.cpp:94] Creating Layer loss2/relu_fc
I1201 02:35:00.655436  2045 net.cpp:435] loss2/relu_fc <- loss2/fc
I1201 02:35:00.655443  2045 net.cpp:396] loss2/relu_fc -> loss2/fc (in-place)
I1201 02:35:00.655454  2045 net.cpp:144] Setting up loss2/relu_fc
I1201 02:35:00.655462  2045 net.cpp:151] Top shape: 32 1024 (32768)
I1201 02:35:00.655467  2045 net.cpp:159] Memory required for data: 1611072388
I1201 02:35:00.655472  2045 layer_factory.hpp:77] Creating layer loss2/drop_fc
I1201 02:35:00.655480  2045 net.cpp:94] Creating Layer loss2/drop_fc
I1201 02:35:00.655486  2045 net.cpp:435] loss2/drop_fc <- loss2/fc
I1201 02:35:00.655493  2045 net.cpp:396] loss2/drop_fc -> loss2/fc (in-place)
I1201 02:35:00.655527  2045 net.cpp:144] Setting up loss2/drop_fc
I1201 02:35:00.655534  2045 net.cpp:151] Top shape: 32 1024 (32768)
I1201 02:35:00.655540  2045 net.cpp:159] Memory required for data: 1611203460
I1201 02:35:00.655544  2045 layer_factory.hpp:77] Creating layer loss2/classifier
I1201 02:35:00.655555  2045 net.cpp:94] Creating Layer loss2/classifier
I1201 02:35:00.655560  2045 net.cpp:435] loss2/classifier <- loss2/fc
I1201 02:35:00.655570  2045 net.cpp:409] loss2/classifier -> loss2/classifier
I1201 02:35:00.655752  2045 net.cpp:144] Setting up loss2/classifier
I1201 02:35:00.655761  2045 net.cpp:151] Top shape: 32 3 (96)
I1201 02:35:00.655766  2045 net.cpp:159] Memory required for data: 1611203844
I1201 02:35:00.655776  2045 layer_factory.hpp:77] Creating layer loss2/loss
I1201 02:35:00.655786  2045 net.cpp:94] Creating Layer loss2/loss
I1201 02:35:00.655791  2045 net.cpp:435] loss2/loss <- loss2/classifier
I1201 02:35:00.655797  2045 net.cpp:435] loss2/loss <- label_train-data_1_split_1
I1201 02:35:00.655807  2045 net.cpp:409] loss2/loss -> loss2/loss
I1201 02:35:00.655834  2045 layer_factory.hpp:77] Creating layer loss2/loss
I1201 02:35:00.655964  2045 net.cpp:144] Setting up loss2/loss
I1201 02:35:00.655973  2045 net.cpp:151] Top shape: (1)
I1201 02:35:00.655978  2045 net.cpp:154]     with loss weight 0.3
I1201 02:35:00.655994  2045 net.cpp:159] Memory required for data: 1611203848
I1201 02:35:00.655999  2045 layer_factory.hpp:77] Creating layer inception_4e/1x1
I1201 02:35:00.656013  2045 net.cpp:94] Creating Layer inception_4e/1x1
I1201 02:35:00.656019  2045 net.cpp:435] inception_4e/1x1 <- inception_4d/output_inception_4d/output_0_split_1
I1201 02:35:00.656030  2045 net.cpp:409] inception_4e/1x1 -> inception_4e/1x1
I1201 02:35:00.657816  2045 net.cpp:144] Setting up inception_4e/1x1
I1201 02:35:00.657831  2045 net.cpp:151] Top shape: 32 256 14 14 (1605632)
I1201 02:35:00.657837  2045 net.cpp:159] Memory required for data: 1617626376
I1201 02:35:00.657846  2045 layer_factory.hpp:77] Creating layer inception_4e/relu_1x1
I1201 02:35:00.657856  2045 net.cpp:94] Creating Layer inception_4e/relu_1x1
I1201 02:35:00.657862  2045 net.cpp:435] inception_4e/relu_1x1 <- inception_4e/1x1
I1201 02:35:00.657872  2045 net.cpp:396] inception_4e/relu_1x1 -> inception_4e/1x1 (in-place)
I1201 02:35:00.657882  2045 net.cpp:144] Setting up inception_4e/relu_1x1
I1201 02:35:00.657889  2045 net.cpp:151] Top shape: 32 256 14 14 (1605632)
I1201 02:35:00.657894  2045 net.cpp:159] Memory required for data: 1624048904
I1201 02:35:00.657899  2045 layer_factory.hpp:77] Creating layer inception_4e/3x3_reduce
I1201 02:35:00.657913  2045 net.cpp:94] Creating Layer inception_4e/3x3_reduce
I1201 02:35:00.657918  2045 net.cpp:435] inception_4e/3x3_reduce <- inception_4d/output_inception_4d/output_0_split_2
I1201 02:35:00.657928  2045 net.cpp:409] inception_4e/3x3_reduce -> inception_4e/3x3_reduce
I1201 02:35:00.659879  2045 net.cpp:144] Setting up inception_4e/3x3_reduce
I1201 02:35:00.659896  2045 net.cpp:151] Top shape: 32 160 14 14 (1003520)
I1201 02:35:00.659901  2045 net.cpp:159] Memory required for data: 1628062984
I1201 02:35:00.659911  2045 layer_factory.hpp:77] Creating layer inception_4e/relu_3x3_reduce
I1201 02:35:00.659922  2045 net.cpp:94] Creating Layer inception_4e/relu_3x3_reduce
I1201 02:35:00.659929  2045 net.cpp:435] inception_4e/relu_3x3_reduce <- inception_4e/3x3_reduce
I1201 02:35:00.659937  2045 net.cpp:396] inception_4e/relu_3x3_reduce -> inception_4e/3x3_reduce (in-place)
I1201 02:35:00.659948  2045 net.cpp:144] Setting up inception_4e/relu_3x3_reduce
I1201 02:35:00.659956  2045 net.cpp:151] Top shape: 32 160 14 14 (1003520)
I1201 02:35:00.659961  2045 net.cpp:159] Memory required for data: 1632077064
I1201 02:35:00.659966  2045 layer_factory.hpp:77] Creating layer inception_4e/3x3
I1201 02:35:00.659983  2045 net.cpp:94] Creating Layer inception_4e/3x3
I1201 02:35:00.659991  2045 net.cpp:435] inception_4e/3x3 <- inception_4e/3x3_reduce
I1201 02:35:00.659999  2045 net.cpp:409] inception_4e/3x3 -> inception_4e/3x3
I1201 02:35:00.666298  2045 net.cpp:144] Setting up inception_4e/3x3
I1201 02:35:00.666316  2045 net.cpp:151] Top shape: 32 320 14 14 (2007040)
I1201 02:35:00.666322  2045 net.cpp:159] Memory required for data: 1640105224
I1201 02:35:00.666332  2045 layer_factory.hpp:77] Creating layer inception_4e/relu_3x3
I1201 02:35:00.666342  2045 net.cpp:94] Creating Layer inception_4e/relu_3x3
I1201 02:35:00.666348  2045 net.cpp:435] inception_4e/relu_3x3 <- inception_4e/3x3
I1201 02:35:00.666358  2045 net.cpp:396] inception_4e/relu_3x3 -> inception_4e/3x3 (in-place)
I1201 02:35:00.666369  2045 net.cpp:144] Setting up inception_4e/relu_3x3
I1201 02:35:00.666376  2045 net.cpp:151] Top shape: 32 320 14 14 (2007040)
I1201 02:35:00.666381  2045 net.cpp:159] Memory required for data: 1648133384
I1201 02:35:00.666388  2045 layer_factory.hpp:77] Creating layer inception_4e/5x5_reduce
I1201 02:35:00.666401  2045 net.cpp:94] Creating Layer inception_4e/5x5_reduce
I1201 02:35:00.666406  2045 net.cpp:435] inception_4e/5x5_reduce <- inception_4d/output_inception_4d/output_0_split_3
I1201 02:35:00.666434  2045 net.cpp:409] inception_4e/5x5_reduce -> inception_4e/5x5_reduce
I1201 02:35:00.666976  2045 net.cpp:144] Setting up inception_4e/5x5_reduce
I1201 02:35:00.666987  2045 net.cpp:151] Top shape: 32 32 14 14 (200704)
I1201 02:35:00.666992  2045 net.cpp:159] Memory required for data: 1648936200
I1201 02:35:00.667001  2045 layer_factory.hpp:77] Creating layer inception_4e/relu_5x5_reduce
I1201 02:35:00.667011  2045 net.cpp:94] Creating Layer inception_4e/relu_5x5_reduce
I1201 02:35:00.667017  2045 net.cpp:435] inception_4e/relu_5x5_reduce <- inception_4e/5x5_reduce
I1201 02:35:00.667026  2045 net.cpp:396] inception_4e/relu_5x5_reduce -> inception_4e/5x5_reduce (in-place)
I1201 02:35:00.667035  2045 net.cpp:144] Setting up inception_4e/relu_5x5_reduce
I1201 02:35:00.667043  2045 net.cpp:151] Top shape: 32 32 14 14 (200704)
I1201 02:35:00.667047  2045 net.cpp:159] Memory required for data: 1649739016
I1201 02:35:00.667052  2045 layer_factory.hpp:77] Creating layer inception_4e/5x5
I1201 02:35:00.667098  2045 net.cpp:94] Creating Layer inception_4e/5x5
I1201 02:35:00.667105  2045 net.cpp:435] inception_4e/5x5 <- inception_4e/5x5_reduce
I1201 02:35:00.667114  2045 net.cpp:409] inception_4e/5x5 -> inception_4e/5x5
I1201 02:35:00.668495  2045 net.cpp:144] Setting up inception_4e/5x5
I1201 02:35:00.668509  2045 net.cpp:151] Top shape: 32 128 14 14 (802816)
I1201 02:35:00.668514  2045 net.cpp:159] Memory required for data: 1652950280
I1201 02:35:00.668524  2045 layer_factory.hpp:77] Creating layer inception_4e/relu_5x5
I1201 02:35:00.668534  2045 net.cpp:94] Creating Layer inception_4e/relu_5x5
I1201 02:35:00.668540  2045 net.cpp:435] inception_4e/relu_5x5 <- inception_4e/5x5
I1201 02:35:00.668550  2045 net.cpp:396] inception_4e/relu_5x5 -> inception_4e/5x5 (in-place)
I1201 02:35:00.668560  2045 net.cpp:144] Setting up inception_4e/relu_5x5
I1201 02:35:00.668566  2045 net.cpp:151] Top shape: 32 128 14 14 (802816)
I1201 02:35:00.668571  2045 net.cpp:159] Memory required for data: 1656161544
I1201 02:35:00.668577  2045 layer_factory.hpp:77] Creating layer inception_4e/pool
I1201 02:35:00.668587  2045 net.cpp:94] Creating Layer inception_4e/pool
I1201 02:35:00.668592  2045 net.cpp:435] inception_4e/pool <- inception_4d/output_inception_4d/output_0_split_4
I1201 02:35:00.668601  2045 net.cpp:409] inception_4e/pool -> inception_4e/pool
I1201 02:35:00.668658  2045 net.cpp:144] Setting up inception_4e/pool
I1201 02:35:00.668668  2045 net.cpp:151] Top shape: 32 528 14 14 (3311616)
I1201 02:35:00.668671  2045 net.cpp:159] Memory required for data: 1669408008
I1201 02:35:00.668676  2045 layer_factory.hpp:77] Creating layer inception_4e/pool_proj
I1201 02:35:00.668690  2045 net.cpp:94] Creating Layer inception_4e/pool_proj
I1201 02:35:00.668695  2045 net.cpp:435] inception_4e/pool_proj <- inception_4e/pool
I1201 02:35:00.668705  2045 net.cpp:409] inception_4e/pool_proj -> inception_4e/pool_proj
I1201 02:35:00.669777  2045 net.cpp:144] Setting up inception_4e/pool_proj
I1201 02:35:00.669792  2045 net.cpp:151] Top shape: 32 128 14 14 (802816)
I1201 02:35:00.669797  2045 net.cpp:159] Memory required for data: 1672619272
I1201 02:35:00.669806  2045 layer_factory.hpp:77] Creating layer inception_4e/relu_pool_proj
I1201 02:35:00.669816  2045 net.cpp:94] Creating Layer inception_4e/relu_pool_proj
I1201 02:35:00.669822  2045 net.cpp:435] inception_4e/relu_pool_proj <- inception_4e/pool_proj
I1201 02:35:00.669831  2045 net.cpp:396] inception_4e/relu_pool_proj -> inception_4e/pool_proj (in-place)
I1201 02:35:00.669842  2045 net.cpp:144] Setting up inception_4e/relu_pool_proj
I1201 02:35:00.669848  2045 net.cpp:151] Top shape: 32 128 14 14 (802816)
I1201 02:35:00.669853  2045 net.cpp:159] Memory required for data: 1675830536
I1201 02:35:00.669858  2045 layer_factory.hpp:77] Creating layer inception_4e/output
I1201 02:35:00.669867  2045 net.cpp:94] Creating Layer inception_4e/output
I1201 02:35:00.669872  2045 net.cpp:435] inception_4e/output <- inception_4e/1x1
I1201 02:35:00.669880  2045 net.cpp:435] inception_4e/output <- inception_4e/3x3
I1201 02:35:00.669900  2045 net.cpp:435] inception_4e/output <- inception_4e/5x5
I1201 02:35:00.669908  2045 net.cpp:435] inception_4e/output <- inception_4e/pool_proj
I1201 02:35:00.669915  2045 net.cpp:409] inception_4e/output -> inception_4e/output
I1201 02:35:00.669955  2045 net.cpp:144] Setting up inception_4e/output
I1201 02:35:00.669963  2045 net.cpp:151] Top shape: 32 832 14 14 (5218304)
I1201 02:35:00.669967  2045 net.cpp:159] Memory required for data: 1696703752
I1201 02:35:00.669972  2045 layer_factory.hpp:77] Creating layer pool4/3x3_s2
I1201 02:35:00.669983  2045 net.cpp:94] Creating Layer pool4/3x3_s2
I1201 02:35:00.669988  2045 net.cpp:435] pool4/3x3_s2 <- inception_4e/output
I1201 02:35:00.669997  2045 net.cpp:409] pool4/3x3_s2 -> pool4/3x3_s2
I1201 02:35:00.670054  2045 net.cpp:144] Setting up pool4/3x3_s2
I1201 02:35:00.670064  2045 net.cpp:151] Top shape: 32 832 7 7 (1304576)
I1201 02:35:00.670068  2045 net.cpp:159] Memory required for data: 1701922056
I1201 02:35:00.670073  2045 layer_factory.hpp:77] Creating layer pool4/3x3_s2_pool4/3x3_s2_0_split
I1201 02:35:00.670083  2045 net.cpp:94] Creating Layer pool4/3x3_s2_pool4/3x3_s2_0_split
I1201 02:35:00.670089  2045 net.cpp:435] pool4/3x3_s2_pool4/3x3_s2_0_split <- pool4/3x3_s2
I1201 02:35:00.670099  2045 net.cpp:409] pool4/3x3_s2_pool4/3x3_s2_0_split -> pool4/3x3_s2_pool4/3x3_s2_0_split_0
I1201 02:35:00.670109  2045 net.cpp:409] pool4/3x3_s2_pool4/3x3_s2_0_split -> pool4/3x3_s2_pool4/3x3_s2_0_split_1
I1201 02:35:00.670119  2045 net.cpp:409] pool4/3x3_s2_pool4/3x3_s2_0_split -> pool4/3x3_s2_pool4/3x3_s2_0_split_2
I1201 02:35:00.670128  2045 net.cpp:409] pool4/3x3_s2_pool4/3x3_s2_0_split -> pool4/3x3_s2_pool4/3x3_s2_0_split_3
I1201 02:35:00.670212  2045 net.cpp:144] Setting up pool4/3x3_s2_pool4/3x3_s2_0_split
I1201 02:35:00.670219  2045 net.cpp:151] Top shape: 32 832 7 7 (1304576)
I1201 02:35:00.670225  2045 net.cpp:151] Top shape: 32 832 7 7 (1304576)
I1201 02:35:00.670233  2045 net.cpp:151] Top shape: 32 832 7 7 (1304576)
I1201 02:35:00.670239  2045 net.cpp:151] Top shape: 32 832 7 7 (1304576)
I1201 02:35:00.670243  2045 net.cpp:159] Memory required for data: 1722795272
I1201 02:35:00.670248  2045 layer_factory.hpp:77] Creating layer inception_5a/1x1
I1201 02:35:00.670262  2045 net.cpp:94] Creating Layer inception_5a/1x1
I1201 02:35:00.670269  2045 net.cpp:435] inception_5a/1x1 <- pool4/3x3_s2_pool4/3x3_s2_0_split_0
I1201 02:35:00.670279  2045 net.cpp:409] inception_5a/1x1 -> inception_5a/1x1
I1201 02:35:00.673558  2045 net.cpp:144] Setting up inception_5a/1x1
I1201 02:35:00.673576  2045 net.cpp:151] Top shape: 32 256 7 7 (401408)
I1201 02:35:00.673581  2045 net.cpp:159] Memory required for data: 1724400904
I1201 02:35:00.673591  2045 layer_factory.hpp:77] Creating layer inception_5a/relu_1x1
I1201 02:35:00.673601  2045 net.cpp:94] Creating Layer inception_5a/relu_1x1
I1201 02:35:00.673609  2045 net.cpp:435] inception_5a/relu_1x1 <- inception_5a/1x1
I1201 02:35:00.673617  2045 net.cpp:396] inception_5a/relu_1x1 -> inception_5a/1x1 (in-place)
I1201 02:35:00.673629  2045 net.cpp:144] Setting up inception_5a/relu_1x1
I1201 02:35:00.673635  2045 net.cpp:151] Top shape: 32 256 7 7 (401408)
I1201 02:35:00.673640  2045 net.cpp:159] Memory required for data: 1726006536
I1201 02:35:00.673645  2045 layer_factory.hpp:77] Creating layer inception_5a/3x3_reduce
I1201 02:35:00.673657  2045 net.cpp:94] Creating Layer inception_5a/3x3_reduce
I1201 02:35:00.673663  2045 net.cpp:435] inception_5a/3x3_reduce <- pool4/3x3_s2_pool4/3x3_s2_0_split_1
I1201 02:35:00.673676  2045 net.cpp:409] inception_5a/3x3_reduce -> inception_5a/3x3_reduce
I1201 02:35:00.676162  2045 net.cpp:144] Setting up inception_5a/3x3_reduce
I1201 02:35:00.676177  2045 net.cpp:151] Top shape: 32 160 7 7 (250880)
I1201 02:35:00.676182  2045 net.cpp:159] Memory required for data: 1727010056
I1201 02:35:00.676193  2045 layer_factory.hpp:77] Creating layer inception_5a/relu_3x3_reduce
I1201 02:35:00.676203  2045 net.cpp:94] Creating Layer inception_5a/relu_3x3_reduce
I1201 02:35:00.676224  2045 net.cpp:435] inception_5a/relu_3x3_reduce <- inception_5a/3x3_reduce
I1201 02:35:00.676234  2045 net.cpp:396] inception_5a/relu_3x3_reduce -> inception_5a/3x3_reduce (in-place)
I1201 02:35:00.676246  2045 net.cpp:144] Setting up inception_5a/relu_3x3_reduce
I1201 02:35:00.676254  2045 net.cpp:151] Top shape: 32 160 7 7 (250880)
I1201 02:35:00.676259  2045 net.cpp:159] Memory required for data: 1728013576
I1201 02:35:00.676262  2045 layer_factory.hpp:77] Creating layer inception_5a/3x3
I1201 02:35:00.676277  2045 net.cpp:94] Creating Layer inception_5a/3x3
I1201 02:35:00.676282  2045 net.cpp:435] inception_5a/3x3 <- inception_5a/3x3_reduce
I1201 02:35:00.676292  2045 net.cpp:409] inception_5a/3x3 -> inception_5a/3x3
I1201 02:35:00.682636  2045 net.cpp:144] Setting up inception_5a/3x3
I1201 02:35:00.682656  2045 net.cpp:151] Top shape: 32 320 7 7 (501760)
I1201 02:35:00.682660  2045 net.cpp:159] Memory required for data: 1730020616
I1201 02:35:00.682670  2045 layer_factory.hpp:77] Creating layer inception_5a/relu_3x3
I1201 02:35:00.682680  2045 net.cpp:94] Creating Layer inception_5a/relu_3x3
I1201 02:35:00.682687  2045 net.cpp:435] inception_5a/relu_3x3 <- inception_5a/3x3
I1201 02:35:00.682696  2045 net.cpp:396] inception_5a/relu_3x3 -> inception_5a/3x3 (in-place)
I1201 02:35:00.682708  2045 net.cpp:144] Setting up inception_5a/relu_3x3
I1201 02:35:00.682714  2045 net.cpp:151] Top shape: 32 320 7 7 (501760)
I1201 02:35:00.682720  2045 net.cpp:159] Memory required for data: 1732027656
I1201 02:35:00.682724  2045 layer_factory.hpp:77] Creating layer inception_5a/5x5_reduce
I1201 02:35:00.682737  2045 net.cpp:94] Creating Layer inception_5a/5x5_reduce
I1201 02:35:00.682744  2045 net.cpp:435] inception_5a/5x5_reduce <- pool4/3x3_s2_pool4/3x3_s2_0_split_2
I1201 02:35:00.682754  2045 net.cpp:409] inception_5a/5x5_reduce -> inception_5a/5x5_reduce
I1201 02:35:00.683418  2045 net.cpp:144] Setting up inception_5a/5x5_reduce
I1201 02:35:00.683429  2045 net.cpp:151] Top shape: 32 32 7 7 (50176)
I1201 02:35:00.683434  2045 net.cpp:159] Memory required for data: 1732228360
I1201 02:35:00.683444  2045 layer_factory.hpp:77] Creating layer inception_5a/relu_5x5_reduce
I1201 02:35:00.683452  2045 net.cpp:94] Creating Layer inception_5a/relu_5x5_reduce
I1201 02:35:00.683459  2045 net.cpp:435] inception_5a/relu_5x5_reduce <- inception_5a/5x5_reduce
I1201 02:35:00.683467  2045 net.cpp:396] inception_5a/relu_5x5_reduce -> inception_5a/5x5_reduce (in-place)
I1201 02:35:00.683478  2045 net.cpp:144] Setting up inception_5a/relu_5x5_reduce
I1201 02:35:00.683485  2045 net.cpp:151] Top shape: 32 32 7 7 (50176)
I1201 02:35:00.683490  2045 net.cpp:159] Memory required for data: 1732429064
I1201 02:35:00.683495  2045 layer_factory.hpp:77] Creating layer inception_5a/5x5
I1201 02:35:00.683513  2045 net.cpp:94] Creating Layer inception_5a/5x5
I1201 02:35:00.683519  2045 net.cpp:435] inception_5a/5x5 <- inception_5a/5x5_reduce
I1201 02:35:00.683528  2045 net.cpp:409] inception_5a/5x5 -> inception_5a/5x5
I1201 02:35:00.684950  2045 net.cpp:144] Setting up inception_5a/5x5
I1201 02:35:00.684963  2045 net.cpp:151] Top shape: 32 128 7 7 (200704)
I1201 02:35:00.684967  2045 net.cpp:159] Memory required for data: 1733231880
I1201 02:35:00.684976  2045 layer_factory.hpp:77] Creating layer inception_5a/relu_5x5
I1201 02:35:00.684986  2045 net.cpp:94] Creating Layer inception_5a/relu_5x5
I1201 02:35:00.684993  2045 net.cpp:435] inception_5a/relu_5x5 <- inception_5a/5x5
I1201 02:35:00.685001  2045 net.cpp:396] inception_5a/relu_5x5 -> inception_5a/5x5 (in-place)
I1201 02:35:00.685011  2045 net.cpp:144] Setting up inception_5a/relu_5x5
I1201 02:35:00.685017  2045 net.cpp:151] Top shape: 32 128 7 7 (200704)
I1201 02:35:00.685024  2045 net.cpp:159] Memory required for data: 1734034696
I1201 02:35:00.685029  2045 layer_factory.hpp:77] Creating layer inception_5a/pool
I1201 02:35:00.685036  2045 net.cpp:94] Creating Layer inception_5a/pool
I1201 02:35:00.685041  2045 net.cpp:435] inception_5a/pool <- pool4/3x3_s2_pool4/3x3_s2_0_split_3
I1201 02:35:00.685101  2045 net.cpp:409] inception_5a/pool -> inception_5a/pool
I1201 02:35:00.685169  2045 net.cpp:144] Setting up inception_5a/pool
I1201 02:35:00.685179  2045 net.cpp:151] Top shape: 32 832 7 7 (1304576)
I1201 02:35:00.685184  2045 net.cpp:159] Memory required for data: 1739253000
I1201 02:35:00.685190  2045 layer_factory.hpp:77] Creating layer inception_5a/pool_proj
I1201 02:35:00.685204  2045 net.cpp:94] Creating Layer inception_5a/pool_proj
I1201 02:35:00.685210  2045 net.cpp:435] inception_5a/pool_proj <- inception_5a/pool
I1201 02:35:00.685221  2045 net.cpp:409] inception_5a/pool_proj -> inception_5a/pool_proj
I1201 02:35:00.687407  2045 net.cpp:144] Setting up inception_5a/pool_proj
I1201 02:35:00.687423  2045 net.cpp:151] Top shape: 32 128 7 7 (200704)
I1201 02:35:00.687428  2045 net.cpp:159] Memory required for data: 1740055816
I1201 02:35:00.687438  2045 layer_factory.hpp:77] Creating layer inception_5a/relu_pool_proj
I1201 02:35:00.687449  2045 net.cpp:94] Creating Layer inception_5a/relu_pool_proj
I1201 02:35:00.687455  2045 net.cpp:435] inception_5a/relu_pool_proj <- inception_5a/pool_proj
I1201 02:35:00.687463  2045 net.cpp:396] inception_5a/relu_pool_proj -> inception_5a/pool_proj (in-place)
I1201 02:35:00.687474  2045 net.cpp:144] Setting up inception_5a/relu_pool_proj
I1201 02:35:00.687482  2045 net.cpp:151] Top shape: 32 128 7 7 (200704)
I1201 02:35:00.687487  2045 net.cpp:159] Memory required for data: 1740858632
I1201 02:35:00.687492  2045 layer_factory.hpp:77] Creating layer inception_5a/output
I1201 02:35:00.687503  2045 net.cpp:94] Creating Layer inception_5a/output
I1201 02:35:00.687510  2045 net.cpp:435] inception_5a/output <- inception_5a/1x1
I1201 02:35:00.687516  2045 net.cpp:435] inception_5a/output <- inception_5a/3x3
I1201 02:35:00.687521  2045 net.cpp:435] inception_5a/output <- inception_5a/5x5
I1201 02:35:00.687527  2045 net.cpp:435] inception_5a/output <- inception_5a/pool_proj
I1201 02:35:00.687536  2045 net.cpp:409] inception_5a/output -> inception_5a/output
I1201 02:35:00.687578  2045 net.cpp:144] Setting up inception_5a/output
I1201 02:35:00.687587  2045 net.cpp:151] Top shape: 32 832 7 7 (1304576)
I1201 02:35:00.687590  2045 net.cpp:159] Memory required for data: 1746076936
I1201 02:35:00.687597  2045 layer_factory.hpp:77] Creating layer inception_5a/output_inception_5a/output_0_split
I1201 02:35:00.687608  2045 net.cpp:94] Creating Layer inception_5a/output_inception_5a/output_0_split
I1201 02:35:00.687613  2045 net.cpp:435] inception_5a/output_inception_5a/output_0_split <- inception_5a/output
I1201 02:35:00.687621  2045 net.cpp:409] inception_5a/output_inception_5a/output_0_split -> inception_5a/output_inception_5a/output_0_split_0
I1201 02:35:00.687635  2045 net.cpp:409] inception_5a/output_inception_5a/output_0_split -> inception_5a/output_inception_5a/output_0_split_1
I1201 02:35:00.687645  2045 net.cpp:409] inception_5a/output_inception_5a/output_0_split -> inception_5a/output_inception_5a/output_0_split_2
I1201 02:35:00.687654  2045 net.cpp:409] inception_5a/output_inception_5a/output_0_split -> inception_5a/output_inception_5a/output_0_split_3
I1201 02:35:00.687742  2045 net.cpp:144] Setting up inception_5a/output_inception_5a/output_0_split
I1201 02:35:00.687752  2045 net.cpp:151] Top shape: 32 832 7 7 (1304576)
I1201 02:35:00.687758  2045 net.cpp:151] Top shape: 32 832 7 7 (1304576)
I1201 02:35:00.687764  2045 net.cpp:151] Top shape: 32 832 7 7 (1304576)
I1201 02:35:00.687770  2045 net.cpp:151] Top shape: 32 832 7 7 (1304576)
I1201 02:35:00.687777  2045 net.cpp:159] Memory required for data: 1766950152
I1201 02:35:00.687782  2045 layer_factory.hpp:77] Creating layer inception_5b/1x1
I1201 02:35:00.687795  2045 net.cpp:94] Creating Layer inception_5b/1x1
I1201 02:35:00.687800  2045 net.cpp:435] inception_5b/1x1 <- inception_5a/output_inception_5a/output_0_split_0
I1201 02:35:00.687814  2045 net.cpp:409] inception_5b/1x1 -> inception_5b/1x1
I1201 02:35:00.696337  2045 net.cpp:144] Setting up inception_5b/1x1
I1201 02:35:00.696355  2045 net.cpp:151] Top shape: 32 384 7 7 (602112)
I1201 02:35:00.696375  2045 net.cpp:159] Memory required for data: 1769358600
I1201 02:35:00.696388  2045 layer_factory.hpp:77] Creating layer inception_5b/relu_1x1
I1201 02:35:00.696399  2045 net.cpp:94] Creating Layer inception_5b/relu_1x1
I1201 02:35:00.696405  2045 net.cpp:435] inception_5b/relu_1x1 <- inception_5b/1x1
I1201 02:35:00.696413  2045 net.cpp:396] inception_5b/relu_1x1 -> inception_5b/1x1 (in-place)
I1201 02:35:00.696429  2045 net.cpp:144] Setting up inception_5b/relu_1x1
I1201 02:35:00.696435  2045 net.cpp:151] Top shape: 32 384 7 7 (602112)
I1201 02:35:00.696440  2045 net.cpp:159] Memory required for data: 1771767048
I1201 02:35:00.696445  2045 layer_factory.hpp:77] Creating layer inception_5b/3x3_reduce
I1201 02:35:00.696460  2045 net.cpp:94] Creating Layer inception_5b/3x3_reduce
I1201 02:35:00.696466  2045 net.cpp:435] inception_5b/3x3_reduce <- inception_5a/output_inception_5a/output_0_split_1
I1201 02:35:00.696475  2045 net.cpp:409] inception_5b/3x3_reduce -> inception_5b/3x3_reduce
I1201 02:35:00.703303  2045 net.cpp:144] Setting up inception_5b/3x3_reduce
I1201 02:35:00.703323  2045 net.cpp:151] Top shape: 32 192 7 7 (301056)
I1201 02:35:00.703328  2045 net.cpp:159] Memory required for data: 1772971272
I1201 02:35:00.703338  2045 layer_factory.hpp:77] Creating layer inception_5b/relu_3x3_reduce
I1201 02:35:00.703351  2045 net.cpp:94] Creating Layer inception_5b/relu_3x3_reduce
I1201 02:35:00.703358  2045 net.cpp:435] inception_5b/relu_3x3_reduce <- inception_5b/3x3_reduce
I1201 02:35:00.703366  2045 net.cpp:396] inception_5b/relu_3x3_reduce -> inception_5b/3x3_reduce (in-place)
I1201 02:35:00.703377  2045 net.cpp:144] Setting up inception_5b/relu_3x3_reduce
I1201 02:35:00.703387  2045 net.cpp:151] Top shape: 32 192 7 7 (301056)
I1201 02:35:00.703392  2045 net.cpp:159] Memory required for data: 1774175496
I1201 02:35:00.703397  2045 layer_factory.hpp:77] Creating layer inception_5b/3x3
I1201 02:35:00.703409  2045 net.cpp:94] Creating Layer inception_5b/3x3
I1201 02:35:00.703414  2045 net.cpp:435] inception_5b/3x3 <- inception_5b/3x3_reduce
I1201 02:35:00.703428  2045 net.cpp:409] inception_5b/3x3 -> inception_5b/3x3
I1201 02:35:00.710639  2045 net.cpp:144] Setting up inception_5b/3x3
I1201 02:35:00.710654  2045 net.cpp:151] Top shape: 32 384 7 7 (602112)
I1201 02:35:00.710657  2045 net.cpp:159] Memory required for data: 1776583944
I1201 02:35:00.710665  2045 layer_factory.hpp:77] Creating layer inception_5b/relu_3x3
I1201 02:35:00.710675  2045 net.cpp:94] Creating Layer inception_5b/relu_3x3
I1201 02:35:00.710678  2045 net.cpp:435] inception_5b/relu_3x3 <- inception_5b/3x3
I1201 02:35:00.710685  2045 net.cpp:396] inception_5b/relu_3x3 -> inception_5b/3x3 (in-place)
I1201 02:35:00.710693  2045 net.cpp:144] Setting up inception_5b/relu_3x3
I1201 02:35:00.710697  2045 net.cpp:151] Top shape: 32 384 7 7 (602112)
I1201 02:35:00.710700  2045 net.cpp:159] Memory required for data: 1778992392
I1201 02:35:00.710703  2045 layer_factory.hpp:77] Creating layer inception_5b/5x5_reduce
I1201 02:35:00.710714  2045 net.cpp:94] Creating Layer inception_5b/5x5_reduce
I1201 02:35:00.710718  2045 net.cpp:435] inception_5b/5x5_reduce <- inception_5a/output_inception_5a/output_0_split_2
I1201 02:35:00.710726  2045 net.cpp:409] inception_5b/5x5_reduce -> inception_5b/5x5_reduce
I1201 02:35:00.711800  2045 net.cpp:144] Setting up inception_5b/5x5_reduce
I1201 02:35:00.711813  2045 net.cpp:151] Top shape: 32 48 7 7 (75264)
I1201 02:35:00.711817  2045 net.cpp:159] Memory required for data: 1779293448
I1201 02:35:00.711822  2045 layer_factory.hpp:77] Creating layer inception_5b/relu_5x5_reduce
I1201 02:35:00.711829  2045 net.cpp:94] Creating Layer inception_5b/relu_5x5_reduce
I1201 02:35:00.711833  2045 net.cpp:435] inception_5b/relu_5x5_reduce <- inception_5b/5x5_reduce
I1201 02:35:00.711840  2045 net.cpp:396] inception_5b/relu_5x5_reduce -> inception_5b/5x5_reduce (in-place)
I1201 02:35:00.711848  2045 net.cpp:144] Setting up inception_5b/relu_5x5_reduce
I1201 02:35:00.711853  2045 net.cpp:151] Top shape: 32 48 7 7 (75264)
I1201 02:35:00.711868  2045 net.cpp:159] Memory required for data: 1779594504
I1201 02:35:00.711870  2045 layer_factory.hpp:77] Creating layer inception_5b/5x5
I1201 02:35:00.711880  2045 net.cpp:94] Creating Layer inception_5b/5x5
I1201 02:35:00.711884  2045 net.cpp:435] inception_5b/5x5 <- inception_5b/5x5_reduce
I1201 02:35:00.711892  2045 net.cpp:409] inception_5b/5x5 -> inception_5b/5x5
I1201 02:35:00.712954  2045 net.cpp:144] Setting up inception_5b/5x5
I1201 02:35:00.712961  2045 net.cpp:151] Top shape: 32 128 7 7 (200704)
I1201 02:35:00.712965  2045 net.cpp:159] Memory required for data: 1780397320
I1201 02:35:00.712970  2045 layer_factory.hpp:77] Creating layer inception_5b/relu_5x5
I1201 02:35:00.712975  2045 net.cpp:94] Creating Layer inception_5b/relu_5x5
I1201 02:35:00.712980  2045 net.cpp:435] inception_5b/relu_5x5 <- inception_5b/5x5
I1201 02:35:00.712985  2045 net.cpp:396] inception_5b/relu_5x5 -> inception_5b/5x5 (in-place)
I1201 02:35:00.712991  2045 net.cpp:144] Setting up inception_5b/relu_5x5
I1201 02:35:00.712994  2045 net.cpp:151] Top shape: 32 128 7 7 (200704)
I1201 02:35:00.712997  2045 net.cpp:159] Memory required for data: 1781200136
I1201 02:35:00.713001  2045 layer_factory.hpp:77] Creating layer inception_5b/pool
I1201 02:35:00.713007  2045 net.cpp:94] Creating Layer inception_5b/pool
I1201 02:35:00.713011  2045 net.cpp:435] inception_5b/pool <- inception_5a/output_inception_5a/output_0_split_3
I1201 02:35:00.713016  2045 net.cpp:409] inception_5b/pool -> inception_5b/pool
I1201 02:35:00.713083  2045 net.cpp:144] Setting up inception_5b/pool
I1201 02:35:00.713094  2045 net.cpp:151] Top shape: 32 832 7 7 (1304576)
I1201 02:35:00.713098  2045 net.cpp:159] Memory required for data: 1786418440
I1201 02:35:00.713100  2045 layer_factory.hpp:77] Creating layer inception_5b/pool_proj
I1201 02:35:00.713110  2045 net.cpp:94] Creating Layer inception_5b/pool_proj
I1201 02:35:00.713115  2045 net.cpp:435] inception_5b/pool_proj <- inception_5b/pool
I1201 02:35:00.713122  2045 net.cpp:409] inception_5b/pool_proj -> inception_5b/pool_proj
I1201 02:35:00.714505  2045 net.cpp:144] Setting up inception_5b/pool_proj
I1201 02:35:00.714516  2045 net.cpp:151] Top shape: 32 128 7 7 (200704)
I1201 02:35:00.714520  2045 net.cpp:159] Memory required for data: 1787221256
I1201 02:35:00.714526  2045 layer_factory.hpp:77] Creating layer inception_5b/relu_pool_proj
I1201 02:35:00.714532  2045 net.cpp:94] Creating Layer inception_5b/relu_pool_proj
I1201 02:35:00.714536  2045 net.cpp:435] inception_5b/relu_pool_proj <- inception_5b/pool_proj
I1201 02:35:00.714545  2045 net.cpp:396] inception_5b/relu_pool_proj -> inception_5b/pool_proj (in-place)
I1201 02:35:00.714551  2045 net.cpp:144] Setting up inception_5b/relu_pool_proj
I1201 02:35:00.714555  2045 net.cpp:151] Top shape: 32 128 7 7 (200704)
I1201 02:35:00.714558  2045 net.cpp:159] Memory required for data: 1788024072
I1201 02:35:00.714562  2045 layer_factory.hpp:77] Creating layer inception_5b/output
I1201 02:35:00.714567  2045 net.cpp:94] Creating Layer inception_5b/output
I1201 02:35:00.714570  2045 net.cpp:435] inception_5b/output <- inception_5b/1x1
I1201 02:35:00.714574  2045 net.cpp:435] inception_5b/output <- inception_5b/3x3
I1201 02:35:00.714579  2045 net.cpp:435] inception_5b/output <- inception_5b/5x5
I1201 02:35:00.714582  2045 net.cpp:435] inception_5b/output <- inception_5b/pool_proj
I1201 02:35:00.714588  2045 net.cpp:409] inception_5b/output -> inception_5b/output
I1201 02:35:00.714615  2045 net.cpp:144] Setting up inception_5b/output
I1201 02:35:00.714622  2045 net.cpp:151] Top shape: 32 1024 7 7 (1605632)
I1201 02:35:00.714623  2045 net.cpp:159] Memory required for data: 1794446600
I1201 02:35:00.714627  2045 layer_factory.hpp:77] Creating layer pool5/7x7_s1
I1201 02:35:00.714633  2045 net.cpp:94] Creating Layer pool5/7x7_s1
I1201 02:35:00.714638  2045 net.cpp:435] pool5/7x7_s1 <- inception_5b/output
I1201 02:35:00.714643  2045 net.cpp:409] pool5/7x7_s1 -> pool5/7x7_s1
I1201 02:35:00.714669  2045 net.cpp:144] Setting up pool5/7x7_s1
I1201 02:35:00.714685  2045 net.cpp:151] Top shape: 32 1024 1 1 (32768)
I1201 02:35:00.714689  2045 net.cpp:159] Memory required for data: 1794577672
I1201 02:35:00.714692  2045 layer_factory.hpp:77] Creating layer pool5/drop_7x7_s1
I1201 02:35:00.714700  2045 net.cpp:94] Creating Layer pool5/drop_7x7_s1
I1201 02:35:00.714704  2045 net.cpp:435] pool5/drop_7x7_s1 <- pool5/7x7_s1
I1201 02:35:00.714709  2045 net.cpp:396] pool5/drop_7x7_s1 -> pool5/7x7_s1 (in-place)
I1201 02:35:00.714735  2045 net.cpp:144] Setting up pool5/drop_7x7_s1
I1201 02:35:00.714740  2045 net.cpp:151] Top shape: 32 1024 1 1 (32768)
I1201 02:35:00.714741  2045 net.cpp:159] Memory required for data: 1794708744
I1201 02:35:00.714745  2045 layer_factory.hpp:77] Creating layer loss3/classifier
I1201 02:35:00.714752  2045 net.cpp:94] Creating Layer loss3/classifier
I1201 02:35:00.714756  2045 net.cpp:435] loss3/classifier <- pool5/7x7_s1
I1201 02:35:00.714762  2045 net.cpp:409] loss3/classifier -> loss3/classifier
I1201 02:35:00.714889  2045 net.cpp:144] Setting up loss3/classifier
I1201 02:35:00.714895  2045 net.cpp:151] Top shape: 32 3 (96)
I1201 02:35:00.714897  2045 net.cpp:159] Memory required for data: 1794709128
I1201 02:35:00.714902  2045 layer_factory.hpp:77] Creating layer loss3/loss
I1201 02:35:00.714910  2045 net.cpp:94] Creating Layer loss3/loss
I1201 02:35:00.714912  2045 net.cpp:435] loss3/loss <- loss3/classifier
I1201 02:35:00.714916  2045 net.cpp:435] loss3/loss <- label_train-data_1_split_2
I1201 02:35:00.714920  2045 net.cpp:409] loss3/loss -> loss
…
I1201 02:35:00.717636  2045 net.cpp:323] The NetState phase (1) differed from the phase (0) specified by a rule in layer train-data
I1201 02:35:00.718662  2045 net.cpp:52] Initializing net from parameters:
state {
phase: TEST
}
layer {
name: "val-data"
type: "Data"
top: "data"
top: "label"
include {
phase: TEST
}
transform_param {
mirror: false
crop_size: 224
mean_file: "/home/ubuntu/digits/digits/jobs/20171201-022351-be3c/mean.binaryproto"
}
data_param {
source: "/home/ubuntu/digits/digits/jobs/20171201-022351-be3c/val_db"
batch_size: 16
backend: LMDB
}
}
layer {
name: "conv1/7x7_s2"
type: "Convolution"
bottom: "data"
top: "conv1/7x7_s2"
param {
lr_mult: 1
decay_mult: 1
}
param {
lr_mult: 2
decay_mult: 0
}
convolution_param {
num_output: 64
pad: 3
kernel_size: 7
stride: 2
weight_filler {
type: "xavier"
std: 0.1
}
bias_filler {
type: "constant"
value: 0.2
}
}
}
layer {
name: "conv1/relu_7x7"
type: "ReLU"
bottom: "conv1/7x7_s2"
top: "conv1/7x7_s2"
}
layer {
name: "pool1/3x3_s2"
type: "Pooling"
bottom: "conv1/7x7_s2"
top: "pool1/3x3_s2"
pooling_param {
pool: MAX
kernel_size: 3
stride: 2
}
}
layer {
name: "pool1/norm1"
type: "LRN"
bottom: "pool1/3x3_s2"
top: "pool1/norm1"
lrn_param {
local_size: 5
alpha: 0.0001
beta: 0.75
}
}
layer {
name: "conv2/3x3_reduce"
type: "Convolution"
bottom: "pool1/norm1"
top: "conv2/3x3_reduce"
param {
lr_mult: 1
decay_mult: 1
}
param {
lr_mult: 2
decay_mult: 0
}
convolution_param {
num_output: 64
kernel_size: 1
weight_filler {
type: "xavier"
std: 0.1
}
bias_filler {
type: "constant"
value: 0.2
}
}
}
layer {
name: "conv2/relu_3x3_reduce"
type: "ReLU"
bottom: "conv2/3x3_reduce"
top: "conv2/3x3_reduce"
}
layer {
name: "conv2/3x3"
type: "Convolution"
bottom: "conv2/3x3_reduce"
top: "conv2/3x3"
param {
lr_mult: 1
decay_mult: 1
}
param {
lr_mult: 2
decay_mult: 0
}
convolution_param {
num_output: 192
pad: 1
kernel_size: 3
weight_filler {
type: "xavier"
std: 0.03
}
bias_filler {
type: "constant"
value: 0.2
}
}
}
layer {
name: "conv2/relu_3x3"
type: "ReLU"
bottom: "conv2/3x3"
top: "conv2/3x3"
}
layer {
name: "conv2/norm2"
type: "LRN"
bottom: "conv2/3x3"
top: "conv2/norm2"
lrn_param {
local_size: 5
alpha: 0.0001
beta: 0.75
}
}
layer {
name: "pool2/3x3_s2"
type: "Pooling"
bottom: "conv2/norm2"
top: "pool2/3x3_s2"
pooling_param {
pool: MAX
kernel_size: 3
stride: 2
}
}
layer {
name: "inception_3a/1x1"
type: "Convolution"
bottom: "pool2/3x3_s2"
top: "inception_3a/1x1"
param {
lr_mult: 1
decay_mult: 1
}
param {
lr_mult: 2
decay_mult: 0
}
convolution_param {
num_output: 64
kernel_size: 1
weight_filler {
type: "xavier"
std: 0.03
}
bias_filler {
type: "constant"
value: 0.2
}
}
}
layer {
name: "inception_3a/relu_1x1"
type: "ReLU"
bottom: "inception_3a/1x1"
top: "inception_3a/1x1"
}
layer {
name: "inception_3a/3x3_reduce"
type: "Convolution"
bottom: "pool2/3x3_s2"
top: "inception_3a/3x3_reduce"
param {
lr_mult: 1
decay_mult: 1
}
param {
lr_mult: 2
decay_mult: 0
}
convolution_param {
num_output: 96
kernel_size: 1
weight_filler {
type: "xavier"
std: 0.09
}
bias_filler {
type: "constant"
value: 0.2
}
}
}
layer {
name: "inception_3a/relu_3x3_reduce"
type: "ReLU"
bottom: "inception_3a/3x3_reduce"
top: "inception_3a/3x3_reduce"
}
layer {
name: "inception_3a/3x3"
type: "Convolution"
bottom: "inception_3a/3x3_reduce"
top: "inception_3a/3x3"
param {
lr_mult: 1
decay_mult: 1
}
param {
lr_mult: 2
decay_mult: 0
}
convolution_param {
num_output: 128
pad: 1
kernel_size: 3
weight_filler {
type: "xavier"
std: 0.03
}
bias_filler {
type: "constant"
value: 0.2
}
}
}
layer {
name: "inception_3a/relu_3x3"
type: "ReLU"
bottom: "inception_3a/3x3"
top: "inception_3a/3x3"
}
layer {
name: "inception_3a/5x5_reduce"
type: "Convolution"
bottom: "pool2/3x3_s2"
top: "inception_3a/5x5_reduce"
param {
lr_mult: 1
decay_mult: 1
}
param {
lr_mult: 2
decay_mult: 0
}
convolution_param {
num_output: 16
kernel_size: 1
weight_filler {
type: "xavier"
std: 0.2
}
bias_filler {
type: "constant"
value: 0.2
}
}
}
layer {
name: "inception_3a/relu_5x5_reduce"
type: "ReLU"
bottom: "inception_3a/5x5_reduce"
top: "inception_3a/5x5_reduce"
}
layer {
name: "inception_3a/5x5"
type: "Convolution"
bottom: "inception_3a/5x5_reduce"
top: "inception_3a/5x5"
param {
lr_mult: 1
decay_mult: 1
}
param {
lr_mult: 2
decay_mult: 0
}
convolution_param {
num_output: 32
pad: 2
kernel_size: 5
weight_filler {
type: "xavier"
std: 0.03
}
bias_filler {
type: "constant"
value: 0.2
}
}
}
layer {
name: "inception_3a/relu_5x5"
type: "ReLU"
bottom: "inception_3a/5x5"
top: "inception_3a/5x5"
}
layer {
name: "inception_3a/pool"
type: "Pooling"
bottom: "pool2/3x3_s2"
top: "inception_3a/pool"
pooling_param {
pool: MAX
kernel_size: 3
stride: 1
pad: 1
}
}
layer {
name: "inception_3a/pool_proj"
type: "Convolution"
bottom: "inception_3a/pool"
top: "inception_3a/pool_proj"
param {
lr_mult: 1
decay_mult: 1
}
param {
lr_mult: 2
decay_mult: 0
}
convolution_param {
num_output: 32
kernel_size: 1
weight_filler {
type: "xavier"
std: 0.1
}
bias_filler {
type: "constant"
value: 0.2
}
}
}
layer {
name: "inception_3a/relu_pool_proj"
type: "ReLU"
bottom: "inception_3a/pool_proj"
top: "inception_3a/pool_proj"
}
layer {
name: "inception_3a/output"
type: "Concat"
bottom: "inception_3a/1x1"
bottom: "inception_3a/3x3"
bottom: "inception_3a/5x5"
bottom: "inception_3a/pool_proj"
top: "inception_3a/output"
}
layer {
name: "inception_3b/1x1"
type: "Convolution"
bottom: "inception_3a/output"
top: "inception_3b/1x1"
param {
lr_mult: 1
decay_mult: 1
}
param {
lr_mult: 2
decay_mult: 0
}
convolution_param {
num_output: 128
kernel_size: 1
weight_filler {
type: "xavier"
std: 0.03
}
bias_filler {
type: "constant"
value: 0.2
}
}
}
layer {
name: "inception_3b/relu_1x1"
type: "ReLU"
bottom: "inception_3b/1x1"
top: "inception_3b/1x1"
}
layer {
name: "inception_3b/3x3_reduce"
type: "Convolution"
bottom: "inception_3a/output"
top: "inception_3b/3x3_reduce"
param {
lr_mult: 1
decay_mult: 1
}
param {
lr_mult: 2
decay_mult: 0
}
convolution_param {
num_output: 128
kernel_size: 1
weight_filler {
type: "xavier"
std: 0.09
}
bias_filler {
type: "constant"
value: 0.2
}
}
}
layer {
name: "inception_3b/relu_3x3_reduce"
type: "ReLU"
bottom: "inception_3b/3x3_reduce"
top: "inception_3b/3x3_reduce"
}
layer {
name: "inception_3b/3x3"
type: "Convolution"
bottom: "inception_3b/3x3_reduce"
top: "inception_3b/3x3"
param {
lr_mult: 1
decay_mult: 1
}
param {
lr_mult: 2
decay_mult: 0
}
convolution_param {
num_output: 192
pad: 1
kernel_size: 3
weight_filler {
type: "xavier"
std: 0.03
}
bias_filler {
type: "constant"
value: 0.2
}
}
}
layer {
name: "inception_3b/relu_3x3"
type: "ReLU"
bottom: "inception_3b/3x3"
top: "inception_3b/3x3"
}
layer {
name: "inception_3b/5x5_reduce"
type: "Convolution"
bottom: "inception_3a/output"
top: "inception_3b/5x5_reduce"
param {
lr_mult: 1
decay_mult: 1
}
param {
lr_mult: 2
decay_mult: 0
}
convolution_param {
num_output: 32
kernel_size: 1
weight_filler {
type: "xavier"
std: 0.2
}
bias_filler {
type: "constant"
value: 0.2
}
}
}
layer {
name: "inception_3b/relu_5x5_reduce"
type: "ReLU"
bottom: "inception_3b/5x5_reduce"
top: "inception_3b/5x5_reduce"
}
layer {
name: "inception_3b/5x5"
type: "Convolution"
bottom: "inception_3b/5x5_reduce"
top: "inception_3b/5x5"
param {
lr_mult: 1
decay_mult: 1
}
param {
lr_mult: 2
decay_mult: 0
}
convolution_param {
num_output: 96
pad: 2
kernel_size: 5
weight_filler {
type: "xavier"
std: 0.03
}
bias_filler {
type: "constant"
value: 0.2
}
}
}
layer {
name: "inception_3b/relu_5x5"
type: "ReLU"
bottom: "inception_3b/5x5"
top: "inception_3b/5x5"
}
layer {
name: "inception_3b/pool"
type: "Pooling"
bottom: "inception_3a/output"
top: "inception_3b/pool"
pooling_param {
pool: MAX
kernel_size: 3
stride: 1
pad: 1
}
}
layer {
name: "inception_3b/pool_proj"
type: "Convolution"
bottom: "inception_3b/pool"
top: "inception_3b/pool_proj"
param {
lr_mult: 1
decay_mult: 1
}
param {
lr_mult: 2
decay_mult: 0
}
convolution_param {
num_output: 64
kernel_size: 1
weight_filler {
type: "xavier"
std: 0.1
}
bias_filler {
type: "constant"
value: 0.2
}
}
}
layer {
name: "inception_3b/relu_pool_proj"
type: "ReLU"
bottom: "inception_3b/pool_proj"
top: "inception_3b/pool_proj"
}
layer {
name: "inception_3b/output"
type: "Concat"
bottom: "inception_3b/1x1"
bottom: "inception_3b/3x3"
bottom: "inception_3b/5x5"
bottom: "inception_3b/pool_proj"
top: "inception_3b/output"
}
layer {
name: "pool3/3x3_s2"
type: "Pooling"
bottom: "inception_3b/output"
top: "pool3/3x3_s2"
pooling_param {
pool: MAX
kernel_size: 3
stride: 2
}
}
layer {
name: "inception_4a/1x1"
type: "Convolution"
bottom: "pool3/3x3_s2"
top: "inception_4a/1x1"
param {
lr_mult: 1
decay_mult: 1
}
param {
lr_mult: 2
decay_mult: 0
}
convolution_param {
num_output: 192
kernel_size: 1
weight_filler {
type: "xavier"
std: 0.03
}
bias_filler {
type: "constant"
value: 0.2
}
}
}
layer {
name: "inception_4a/relu_1x1"
type: "ReLU"
bottom: "inception_4a/1x1"
top: "inception_4a/1x1"
}
layer {
name: "inception_4a/3x3_reduce"
type: "Convolution"
bottom: "pool3/3x3_s2"
top: "inception_4a/3x3_reduce"
param {
lr_mult: 1
decay_mult: 1
}
param {
lr_mult: 2
decay_mult: 0
}
convolution_param {
num_output: 96
kernel_size: 1
weight_filler {
type: "xavier"
std: 0.09
}
bias_filler {
type: "constant"
value: 0.2
}
}
}
layer {
name: "inception_4a/relu_3x3_reduce"
type: "ReLU"
bottom: "inception_4a/3x3_reduce"
top: "inception_4a/3x3_reduce"
}
layer {
name: "inception_4a/3x3"
type: "Convolution"
bottom: "inception_4a/3x3_reduce"
top: "inception_4a/3x3"
param {
lr_mult: 1
decay_mult: 1
}
param {
lr_mult: 2
decay_mult: 0
}
convolution_param {
num_output: 208
pad: 1
kernel_size: 3
weight_filler {
type: "xavier"
std: 0.03
}
bias_filler {
type: "constant"
value: 0.2
}
}
}
layer {
name: "inception_4a/relu_3x3"
type: "ReLU"
bottom: "inception_4a/3x3"
top: "inception_4a/3x3"
}
layer {
name: "inception_4a/5x5_reduce"
type: "Convolution"
bottom: "pool3/3x3_s2"
top: "inception_4a/5x5_reduce"
param {
lr_mult: 1
decay_mult: 1
}
param {
lr_mult: 2
decay_mult: 0
}
convolution_param {
num_output: 16
kernel_size: 1
weight_filler {
type: "xavier"
std: 0.2
}
bias_filler {
type: "constant"
value: 0.2
}
}
}
layer {
name: "inception_4a/relu_5x5_reduce"
type: "ReLU"
bottom: "inception_4a/5x5_reduce"
top: "inception_4a/5x5_reduce"
}
layer {
name: "inception_4a/5x5"
type: "Convolution"
bottom: "inception_4a/5x5_reduce"
top: "inception_4a/5x5"
param {
lr_mult: 1
decay_mult: 1
}
param {
lr_mult: 2
decay_mult: 0
}
convolution_param {
num_output: 48
pad: 2
kernel_size: 5
weight_filler {
type: "xavier"
std: 0.03
}
bias_filler {
type: "constant"
value: 0.2
}
}
}
layer {
name: "inception_4a/relu_5x5"
type: "ReLU"
bottom: "inception_4a/5x5"
top: "inception_4a/5x5"
}
layer {
name: "inception_4a/pool"
type: "Pooling"
bottom: "pool3/3x3_s2"
top: "inception_4a/pool"
pooling_param {
pool: MAX
kernel_size: 3
stride: 1
pad: 1
}
}
layer {
name: "inception_4a/pool_proj"
type: "Convolution"
bottom: "inception_4a/pool"
top: "inception_4a/pool_proj"
param {
lr_mult: 1
decay_mult: 1
}
param {
lr_mult: 2
decay_mult: 0
}
convolution_param {
num_output: 64
kernel_size: 1
weight_filler {
type: "xavier"
std: 0.1
}
bias_filler {
type: "constant"
value: 0.2
}
}
}
layer {
name: "inception_4a/relu_pool_proj"
type: "ReLU"
bottom: "inception_4a/pool_proj"
top: "inception_4a/pool_proj"
}
layer {
name: "inception_4a/output"
type: "Concat"
bottom: "inception_4a/1x1"
bottom: "inception_4a/3x3"
bottom: "inception_4a/5x5"
bottom: "inception_4a/pool_proj"
top: "inception_4a/output"
}
layer {
name: "loss1/ave_pool"
type: "Pooling"
bottom: "inception_4a/output"
top: "loss1/ave_pool"
pooling_param {
pool: AVE
kernel_size: 5
stride: 3
}
}
layer {
name: "loss1/conv"
type: "Convolution"
bottom: "loss1/ave_pool"
top: "loss1/conv"
param {
lr_mult: 1
decay_mult: 1
}
param {
lr_mult: 2
decay_mult: 0
}
convolution_param {
num_output: 128
kernel_size: 1
weight_filler {
type: "xavier"
std: 0.08
}
bias_filler {
type: "constant"
value: 0.2
}
}
}
layer {
name: "loss1/relu_conv"
type: "ReLU"
bottom: "loss1/conv"
top: "loss1/conv"
}
layer {
name: "loss1/fc"
type: "InnerProduct"
bottom: "loss1/conv"
top: "loss1/fc"
param {
lr_mult: 1
decay_mult: 1
}
param {
lr_mult: 2
decay_mult: 0
}
inner_product_param {
num_output: 1024
weight_filler {
type: "xavier"
std: 0.02
}
bias_filler {
type: "constant"
value: 0.2
}
}
}
layer {
name: "loss1/relu_fc"
type: "ReLU"
bottom: "loss1/fc"
top: "loss1/fc"
}
layer {
name: "loss1/drop_fc"
type: "Dropout"
bottom: "loss1/fc"
top: "loss1/fc"
dropout_param {
dropout_ratio: 0.7
}
}
layer {
name: "loss1/classifier"
type: "InnerProduct"
bottom: "loss1/fc"
top: "loss1/classifier"
param {
lr_mult: 1
decay_mult: 1
}
param {
lr_mult: 2
decay_mult: 0
}
inner_product_param {
num_output: 3
weight_filler {
type: "xavier"
std: 0.0009765625
}
bias_filler {
type: "constant"
value: 0
}
}
}
layer {
name: "loss1/loss"
type: "SoftmaxWithLoss"
bottom: "loss1/classifier"
bottom: "label"
top: "loss1/loss"
loss_weight: 0.3
}
layer {
name: "loss1/top-1"
type: "Accuracy"
bottom: "loss1/classifier"
bottom: "label"
top: "loss1/accuracy"
include {
phase: TEST
}
}
layer {
name: "inception_4b/1x1"
type: "Convolution"
bottom: "inception_4a/output"
top: "inception_4b/1x1"
param {
lr_mult: 1
decay_mult: 1
}
param {
lr_mult: 2
decay_mult: 0
}
convolution_param {
num_output: 160
kernel_size: 1
weight_filler {
type: "xavier"
std: 0.03
}
bias_filler {
type: "constant"
value: 0.2
}
}
}
layer {
name: "inception_4b/relu_1x1"
type: "ReLU"
bottom: "inception_4b/1x1"
top: "inception_4b/1x1"
}
layer {
name: "inception_4b/3x3_reduce"
type: "Convolution"
bottom: "inception_4a/output"
top: "inception_4b/3x3_reduce"
param {
lr_mult: 1
decay_mult: 1
}
param {
lr_mult: 2
decay_mult: 0
}
convolution_param {
num_output: 112
kernel_size: 1
weight_filler {
type: "xavier"
std: 0.09
}
bias_filler {
type: "constant"
value: 0.2
}
}
}
layer {
name: "inception_4b/relu_3x3_reduce"
type: "ReLU"
bottom: "inception_4b/3x3_reduce"
top: "inception_4b/3x3_reduce"
}
layer {
name: "inception_4b/3x3"
type: "Convolution"
bottom: "inception_4b/3x3_reduce"
top: "inception_4b/3x3"
param {
lr_mult: 1
decay_mult: 1
}
param {
lr_mult: 2
decay_mult: 0
}
convolution_param {
num_output: 224
pad: 1
kernel_size: 3
weight_filler {
type: "xavier"
std: 0.03
}
bias_filler {
type: "constant"
value: 0.2
}
}
}
layer {
name: "inception_4b/relu_3x3"
type: "ReLU"
bottom: "inception_4b/3x3"
top: "inception_4b/3x3"
}
layer {
name: "inception_4b/5x5_reduce"
type: "Convolution"
bottom: "inception_4a/output"
top: "inception_4b/5x5_reduce"
param {
lr_mult: 1
decay_mult: 1
}
param {
lr_mult: 2
decay_mult: 0
}
convolution_param {
num_output: 24
kernel_size: 1
weight_filler {
type: "xavier"
std: 0.2
}
bias_filler {
type: "constant"
value: 0.2
}
}
}
layer {
name: "inception_4b/relu_5x5_reduce"
type: "ReLU"
bottom: "inception_4b/5x5_reduce"
top: "inception_4b/5x5_reduce"
}
layer {
name: "inception_4b/5x5"
type: "Convolution"
bottom: "inception_4b/5x5_reduce"
top: "inception_4b/5x5"
param {
lr_mult: 1
decay_mult: 1
}
param {
lr_mult: 2
decay_mult: 0
}
convolution_param {
num_output: 64
pad: 2
kernel_size: 5
weight_filler {
type: "xavier"
std: 0.03
}
bias_filler {
type: "constant"
value: 0.2
}
}
}
layer {
name: "inception_4b/relu_5x5"
type: "ReLU"
bottom: "inception_4b/5x5"
top: "inception_4b/5x5"
}
layer {
name: "inception_4b/pool"
type: "Pooling"
bottom: "inception_4a/output"
top: "inception_4b/pool"
pooling_param {
pool: MAX
kernel_size: 3
stride: 1
pad: 1
}
}
layer {
name: "inception_4b/pool_proj"
type: "Convolution"
bottom: "inception_4b/pool"
top: "inception_4b/pool_proj"
param {
lr_mult: 1
decay_mult: 1
}
param {
lr_mult: 2
decay_mult: 0
}
convolution_param {
num_output: 64
kernel_size: 1
weight_filler {
type: "xavier"
std: 0.1
}
bias_filler {
type: "constant"
value: 0.2
}
}
}
layer {
name: "inception_4b/relu_pool_proj"
type: "ReLU"
bottom: "inception_4b/pool_proj"
top: "inception_4b/pool_proj"
}
layer {
name: "inception_4b/output"
type: "Concat"
bottom: "inception_4b/1x1"
bottom: "inception_4b/3x3"
bottom: "inception_4b/5x5"
bottom: "inception_4b/pool_proj"
top: "inception_4b/output"
}
layer {
name: "inception_4c/1x1"
type: "Convolution"
bottom: "inception_4b/output"
top: "inception_4c/1x1"
param {
lr_mult: 1
decay_mult: 1
}
param {
lr_mult: 2
decay_mult: 0
}
convolution_param {
num_output: 128
kernel_size: 1
weight_filler {
type: "xavier"
std: 0.03
}
bias_filler {
type: "constant"
value: 0.2
}
}
}
layer {
name: "inception_4c/relu_1x1"
type: "ReLU"
bottom: "inception_4c/1x1"
top: "inception_4c/1x1"
}
layer {
name: "inception_4c/3x3_reduce"
type: "Convolution"
bottom: "inception_4b/output"
top: "inception_4c/3x3_reduce"
param {
lr_mult: 1
decay_mult: 1
}
param {
lr_mult: 2
decay_mult: 0
}
convolution_param {
num_output: 128
kernel_size: 1
weight_filler {
type: "xavier"
std: 0.09
}
bias_filler {
type: "constant"
value: 0.2
}
}
}
layer {
name: "inception_4c/relu_3x3_reduce"
type: "ReLU"
bottom: "inception_4c/3x3_reduce"
top: "inception_4c/3x3_reduce"
}
layer {
name: "inception_4c/3x3"
type: "Convolution"
bottom: "inception_4c/3x3_reduce"
top: "inception_4c/3x3"
param {
lr_mult: 1
decay_mult: 1
}
param {
lr_mult: 2
decay_mult: 0
}
convolution_param {
num_output: 256
pad: 1
kernel_size: 3
weight_filler {
type: "xavier"
std: 0.03
}
bias_filler {
type: "constant"
value: 0.2
}
}
}
layer {
name: "inception_4c/relu_3x3"
type: "ReLU"
bottom: "inception_4c/3x3"
top: "inception_4c/3x3"
}
layer {
name: "inception_4c/5x5_reduce"
type: "Convolution"
bottom: "inception_4b/output"
top: "inception_4c/5x5_reduce"
param {
lr_mult: 1
decay_mult: 1
}
param {
lr_mult: 2
decay_mult: 0
}
convolution_param {
num_output: 24
kernel_size: 1
weight_filler {
type: "xavier"
std: 0.2
}
bias_filler {
type: "constant"
value: 0.2
}
}
}
layer {
name: "inception_4c/relu_5x5_reduce"
type: "ReLU"
bottom: "inception_4c/5x5_reduce"
top: "inception_4c/5x5_reduce"
}
layer {
name: "inception_4c/5x5"
type: "Convolution"
bottom: "inception_4c/5x5_reduce"
top: "inception_4c/5x5"
param {
lr_mult: 1
decay_mult: 1
}
param {
lr_mult: 2
decay_mult: 0
}
convolution_param {
num_output: 64
pad: 2
kernel_size: 5
weight_filler {
type: "xavier"
std: 0.03
}
bias_filler {
type: "constant"
value: 0.2
}
}
}
layer {
name: "inception_4c/relu_5x5"
type: "ReLU"
bottom: "inception_4c/5x5"
top: "inception_4c/5x5"
}
layer {
name: "inception_4c/pool"
type: "Pooling"
bottom: "inception_4b/output"
top: "inception_4c/pool"
pooling_param {
pool: MAX
kernel_size: 3
stride: 1
pad: 1
}
}
layer {
name: "inception_4c/pool_proj"
type: "Convolution"
bottom: "inception_4c/pool"
top: "inception_4c/pool_proj"
param {
lr_mult: 1
decay_mult: 1
}
param {
lr_mult: 2
decay_mult: 0
}
convolution_param {
num_output: 64
kernel_size: 1
weight_filler {
type: "xavier"
std: 0.1
}
bias_filler {
type: "constant"
value: 0.2
}
}
}
layer {
name: "inception_4c/relu_pool_proj"
type: "ReLU"
bottom: "inception_4c/pool_proj"
top: "inception_4c/pool_proj"
}
layer {
name: "inception_4c/output"
type: "Concat"
bottom: "inception_4c/1x1"
bottom: "inception_4c/3x3"
bottom: "inception_4c/5x5"
bottom: "inception_4c/pool_proj"
top: "inception_4c/output"
}
layer {
name: "inception_4d/1x1"
type: "Convolution"
bottom: "inception_4c/output"
top: "inception_4d/1x1"
param {
lr_mult: 1
decay_mult: 1
}
param {
lr_mult: 2
decay_mult: 0
}
convolution_param {
num_output: 112
kernel_size: 1
weight_filler {
type: "xavier"
std: 0.03
}
bias_filler {
type: "constant"
value: 0.2
}
}
}
layer {
name: "inception_4d/relu_1x1"
type: "ReLU"
bottom: "inception_4d/1x1"
top: "inception_4d/1x1"
}
layer {
name: "inception_4d/3x3_reduce"
…
I1201 02:35:00.846060  2045 net.cpp:159] Memory required for data: 699835400
I1201 02:35:00.846069  2045 layer_factory.hpp:77] Creating layer inception_4c/relu_5x5
I1201 02:35:00.846094  2045 net.cpp:94] Creating Layer inception_4c/relu_5x5
I1201 02:35:00.846101  2045 net.cpp:435] inception_4c/relu_5x5 <- inception_4c/5x5
I1201 02:35:00.846109  2045 net.cpp:396] inception_4c/relu_5x5 -> inception_4c/5x5 (in-place)
I1201 02:35:00.846118  2045 net.cpp:144] Setting up inception_4c/relu_5x5
I1201 02:35:00.846125  2045 net.cpp:151] Top shape: 16 64 14 14 (200704)
I1201 02:35:00.846129  2045 net.cpp:159] Memory required for data: 700638216
I1201 02:35:00.846135  2045 layer_factory.hpp:77] Creating layer inception_4c/pool
I1201 02:35:00.846146  2045 net.cpp:94] Creating Layer inception_4c/pool
I1201 02:35:00.846153  2045 net.cpp:435] inception_4c/pool <- inception_4b/output_inception_4b/output_0_split_3
I1201 02:35:00.846159  2045 net.cpp:409] inception_4c/pool -> inception_4c/pool
I1201 02:35:00.846225  2045 net.cpp:144] Setting up inception_4c/pool
I1201 02:35:00.846231  2045 net.cpp:151] Top shape: 16 512 14 14 (1605632)
I1201 02:35:00.846235  2045 net.cpp:159] Memory required for data: 707060744
I1201 02:35:00.846237  2045 layer_factory.hpp:77] Creating layer inception_4c/pool_proj
I1201 02:35:00.846247  2045 net.cpp:94] Creating Layer inception_4c/pool_proj
I1201 02:35:00.846251  2045 net.cpp:435] inception_4c/pool_proj <- inception_4c/pool
I1201 02:35:00.846259  2045 net.cpp:409] inception_4c/pool_proj -> inception_4c/pool_proj
I1201 02:35:00.846688  2045 net.cpp:144] Setting up inception_4c/pool_proj
I1201 02:35:00.846696  2045 net.cpp:151] Top shape: 16 64 14 14 (200704)
I1201 02:35:00.846699  2045 net.cpp:159] Memory required for data: 707863560
I1201 02:35:00.846704  2045 layer_factory.hpp:77] Creating layer inception_4c/relu_pool_proj
I1201 02:35:00.846709  2045 net.cpp:94] Creating Layer inception_4c/relu_pool_proj
I1201 02:35:00.846714  2045 net.cpp:435] inception_4c/relu_pool_proj <- inception_4c/pool_proj
I1201 02:35:00.846720  2045 net.cpp:396] inception_4c/relu_pool_proj -> inception_4c/pool_proj (in-place)
I1201 02:35:00.846725  2045 net.cpp:144] Setting up inception_4c/relu_pool_proj
I1201 02:35:00.846729  2045 net.cpp:151] Top shape: 16 64 14 14 (200704)
I1201 02:35:00.846734  2045 net.cpp:159] Memory required for data: 708666376
I1201 02:35:00.846735  2045 layer_factory.hpp:77] Creating layer inception_4c/output
I1201 02:35:00.846742  2045 net.cpp:94] Creating Layer inception_4c/output
I1201 02:35:00.846745  2045 net.cpp:435] inception_4c/output <- inception_4c/1x1
I1201 02:35:00.846750  2045 net.cpp:435] inception_4c/output <- inception_4c/3x3
I1201 02:35:00.846753  2045 net.cpp:435] inception_4c/output <- inception_4c/5x5
I1201 02:35:00.846756  2045 net.cpp:435] inception_4c/output <- inception_4c/pool_proj
I1201 02:35:00.846761  2045 net.cpp:409] inception_4c/output -> inception_4c/output
I1201 02:35:00.846788  2045 net.cpp:144] Setting up inception_4c/output
I1201 02:35:00.846796  2045 net.cpp:151] Top shape: 16 512 14 14 (1605632)
I1201 02:35:00.846797  2045 net.cpp:159] Memory required for data: 715088904
I1201 02:35:00.846801  2045 layer_factory.hpp:77] Creating layer inception_4c/output_inception_4c/output_0_split
I1201 02:35:00.846807  2045 net.cpp:94] Creating Layer inception_4c/output_inception_4c/output_0_split
I1201 02:35:00.846810  2045 net.cpp:435] inception_4c/output_inception_4c/output_0_split <- inception_4c/output
I1201 02:35:00.846817  2045 net.cpp:409] inception_4c/output_inception_4c/output_0_split -> inception_4c/output_inception_4c/output_0_split_0
I1201 02:35:00.846823  2045 net.cpp:409] inception_4c/output_inception_4c/output_0_split -> inception_4c/output_inception_4c/output_0_split_1
I1201 02:35:00.846829  2045 net.cpp:409] inception_4c/output_inception_4c/output_0_split -> inception_4c/output_inception_4c/output_0_split_2
I1201 02:35:00.846837  2045 net.cpp:409] inception_4c/output_inception_4c/output_0_split -> inception_4c/output_inception_4c/output_0_split_3
I1201 02:35:00.846901  2045 net.cpp:144] Setting up inception_4c/output_inception_4c/output_0_split
I1201 02:35:00.846915  2045 net.cpp:151] Top shape: 16 512 14 14 (1605632)
I1201 02:35:00.846920  2045 net.cpp:151] Top shape: 16 512 14 14 (1605632)
I1201 02:35:00.846922  2045 net.cpp:151] Top shape: 16 512 14 14 (1605632)
I1201 02:35:00.846925  2045 net.cpp:151] Top shape: 16 512 14 14 (1605632)
I1201 02:35:00.846928  2045 net.cpp:159] Memory required for data: 740779016
I1201 02:35:00.846931  2045 layer_factory.hpp:77] Creating layer inception_4d/1x1
I1201 02:35:00.846941  2045 net.cpp:94] Creating Layer inception_4d/1x1
I1201 02:35:00.846946  2045 net.cpp:435] inception_4d/1x1 <- inception_4c/output_inception_4c/output_0_split_0
I1201 02:35:00.846951  2045 net.cpp:409] inception_4d/1x1 -> inception_4d/1x1
I1201 02:35:00.847512  2045 net.cpp:144] Setting up inception_4d/1x1
I1201 02:35:00.847518  2045 net.cpp:151] Top shape: 16 112 14 14 (351232)
I1201 02:35:00.847522  2045 net.cpp:159] Memory required for data: 742183944
I1201 02:35:00.847527  2045 layer_factory.hpp:77] Creating layer inception_4d/relu_1x1
I1201 02:35:00.847532  2045 net.cpp:94] Creating Layer inception_4d/relu_1x1
I1201 02:35:00.847535  2045 net.cpp:435] inception_4d/relu_1x1 <- inception_4d/1x1
I1201 02:35:00.847542  2045 net.cpp:396] inception_4d/relu_1x1 -> inception_4d/1x1 (in-place)
I1201 02:35:00.847548  2045 net.cpp:144] Setting up inception_4d/relu_1x1
I1201 02:35:00.847553  2045 net.cpp:151] Top shape: 16 112 14 14 (351232)
I1201 02:35:00.847554  2045 net.cpp:159] Memory required for data: 743588872
I1201 02:35:00.847558  2045 layer_factory.hpp:77] Creating layer inception_4d/3x3_reduce
I1201 02:35:00.847565  2045 net.cpp:94] Creating Layer inception_4d/3x3_reduce
I1201 02:35:00.847570  2045 net.cpp:435] inception_4d/3x3_reduce <- inception_4c/output_inception_4c/output_0_split_1
I1201 02:35:00.847575  2045 net.cpp:409] inception_4d/3x3_reduce -> inception_4d/3x3_reduce
I1201 02:35:00.848251  2045 net.cpp:144] Setting up inception_4d/3x3_reduce
I1201 02:35:00.848260  2045 net.cpp:151] Top shape: 16 144 14 14 (451584)
I1201 02:35:00.848263  2045 net.cpp:159] Memory required for data: 745395208
I1201 02:35:00.848268  2045 layer_factory.hpp:77] Creating layer inception_4d/relu_3x3_reduce
I1201 02:35:00.848273  2045 net.cpp:94] Creating Layer inception_4d/relu_3x3_reduce
I1201 02:35:00.848276  2045 net.cpp:435] inception_4d/relu_3x3_reduce <- inception_4d/3x3_reduce
I1201 02:35:00.848281  2045 net.cpp:396] inception_4d/relu_3x3_reduce -> inception_4d/3x3_reduce (in-place)
I1201 02:35:00.848287  2045 net.cpp:144] Setting up inception_4d/relu_3x3_reduce
I1201 02:35:00.848292  2045 net.cpp:151] Top shape: 16 144 14 14 (451584)
I1201 02:35:00.848295  2045 net.cpp:159] Memory required for data: 747201544
I1201 02:35:00.848299  2045 layer_factory.hpp:77] Creating layer inception_4d/3x3
I1201 02:35:00.848306  2045 net.cpp:94] Creating Layer inception_4d/3x3
I1201 02:35:00.848309  2045 net.cpp:435] inception_4d/3x3 <- inception_4d/3x3_reduce
I1201 02:35:00.848315  2045 net.cpp:409] inception_4d/3x3 -> inception_4d/3x3
I1201 02:35:00.851305  2045 net.cpp:144] Setting up inception_4d/3x3
I1201 02:35:00.851316  2045 net.cpp:151] Top shape: 16 288 14 14 (903168)
I1201 02:35:00.851320  2045 net.cpp:159] Memory required for data: 750814216
I1201 02:35:00.851325  2045 layer_factory.hpp:77] Creating layer inception_4d/relu_3x3
I1201 02:35:00.851335  2045 net.cpp:94] Creating Layer inception_4d/relu_3x3
I1201 02:35:00.851338  2045 net.cpp:435] inception_4d/relu_3x3 <- inception_4d/3x3
I1201 02:35:00.851346  2045 net.cpp:396] inception_4d/relu_3x3 -> inception_4d/3x3 (in-place)
I1201 02:35:00.851352  2045 net.cpp:144] Setting up inception_4d/relu_3x3
I1201 02:35:00.851356  2045 net.cpp:151] Top shape: 16 288 14 14 (903168)
I1201 02:35:00.851359  2045 net.cpp:159] Memory required for data: 754426888
I1201 02:35:00.851362  2045 layer_factory.hpp:77] Creating layer inception_4d/5x5_reduce
I1201 02:35:00.851371  2045 net.cpp:94] Creating Layer inception_4d/5x5_reduce
I1201 02:35:00.851374  2045 net.cpp:435] inception_4d/5x5_reduce <- inception_4c/output_inception_4c/output_0_split_2
I1201 02:35:00.851393  2045 net.cpp:409] inception_4d/5x5_reduce -> inception_4d/5x5_reduce
I1201 02:35:00.851758  2045 net.cpp:144] Setting up inception_4d/5x5_reduce
I1201 02:35:00.851766  2045 net.cpp:151] Top shape: 16 32 14 14 (100352)
I1201 02:35:00.851769  2045 net.cpp:159] Memory required for data: 754828296
I1201 02:35:00.851775  2045 layer_factory.hpp:77] Creating layer inception_4d/relu_5x5_reduce
I1201 02:35:00.851783  2045 net.cpp:94] Creating Layer inception_4d/relu_5x5_reduce
I1201 02:35:00.851786  2045 net.cpp:435] inception_4d/relu_5x5_reduce <- inception_4d/5x5_reduce
I1201 02:35:00.851793  2045 net.cpp:396] inception_4d/relu_5x5_reduce -> inception_4d/5x5_reduce (in-place)
I1201 02:35:00.851797  2045 net.cpp:144] Setting up inception_4d/relu_5x5_reduce
I1201 02:35:00.851801  2045 net.cpp:151] Top shape: 16 32 14 14 (100352)
I1201 02:35:00.851804  2045 net.cpp:159] Memory required for data: 755229704
I1201 02:35:00.851809  2045 layer_factory.hpp:77] Creating layer inception_4d/5x5
I1201 02:35:00.851817  2045 net.cpp:94] Creating Layer inception_4d/5x5
I1201 02:35:00.851820  2045 net.cpp:435] inception_4d/5x5 <- inception_4d/5x5_reduce
I1201 02:35:00.851827  2045 net.cpp:409] inception_4d/5x5 -> inception_4d/5x5
I1201 02:35:00.852357  2045 net.cpp:144] Setting up inception_4d/5x5
I1201 02:35:00.852365  2045 net.cpp:151] Top shape: 16 64 14 14 (200704)
I1201 02:35:00.852367  2045 net.cpp:159] Memory required for data: 756032520
I1201 02:35:00.852372  2045 layer_factory.hpp:77] Creating layer inception_4d/relu_5x5
I1201 02:35:00.852377  2045 net.cpp:94] Creating Layer inception_4d/relu_5x5
I1201 02:35:00.852381  2045 net.cpp:435] inception_4d/relu_5x5 <- inception_4d/5x5
I1201 02:35:00.852387  2045 net.cpp:396] inception_4d/relu_5x5 -> inception_4d/5x5 (in-place)
I1201 02:35:00.852393  2045 net.cpp:144] Setting up inception_4d/relu_5x5
I1201 02:35:00.852397  2045 net.cpp:151] Top shape: 16 64 14 14 (200704)
I1201 02:35:00.852401  2045 net.cpp:159] Memory required for data: 756835336
I1201 02:35:00.852403  2045 layer_factory.hpp:77] Creating layer inception_4d/pool
I1201 02:35:00.852409  2045 net.cpp:94] Creating Layer inception_4d/pool
I1201 02:35:00.852414  2045 net.cpp:435] inception_4d/pool <- inception_4c/output_inception_4c/output_0_split_3
I1201 02:35:00.852418  2045 net.cpp:409] inception_4d/pool -> inception_4d/pool
I1201 02:35:00.852459  2045 net.cpp:144] Setting up inception_4d/pool
I1201 02:35:00.852466  2045 net.cpp:151] Top shape: 16 512 14 14 (1605632)
I1201 02:35:00.852469  2045 net.cpp:159] Memory required for data: 763257864
I1201 02:35:00.852473  2045 layer_factory.hpp:77] Creating layer inception_4d/pool_proj
I1201 02:35:00.852479  2045 net.cpp:94] Creating Layer inception_4d/pool_proj
I1201 02:35:00.852483  2045 net.cpp:435] inception_4d/pool_proj <- inception_4d/pool
I1201 02:35:00.852493  2045 net.cpp:409] inception_4d/pool_proj -> inception_4d/pool_proj
I1201 02:35:00.852933  2045 net.cpp:144] Setting up inception_4d/pool_proj
I1201 02:35:00.852941  2045 net.cpp:151] Top shape: 16 64 14 14 (200704)
I1201 02:35:00.852944  2045 net.cpp:159] Memory required for data: 764060680
I1201 02:35:00.852951  2045 layer_factory.hpp:77] Creating layer inception_4d/relu_pool_proj
I1201 02:35:00.852955  2045 net.cpp:94] Creating Layer inception_4d/relu_pool_proj
I1201 02:35:00.852959  2045 net.cpp:435] inception_4d/relu_pool_proj <- inception_4d/pool_proj
I1201 02:35:00.852964  2045 net.cpp:396] inception_4d/relu_pool_proj -> inception_4d/pool_proj (in-place)
I1201 02:35:00.852970  2045 net.cpp:144] Setting up inception_4d/relu_pool_proj
I1201 02:35:00.852974  2045 net.cpp:151] Top shape: 16 64 14 14 (200704)
I1201 02:35:00.852977  2045 net.cpp:159] Memory required for data: 764863496
I1201 02:35:00.852979  2045 layer_factory.hpp:77] Creating layer inception_4d/output
I1201 02:35:00.852994  2045 net.cpp:94] Creating Layer inception_4d/output
I1201 02:35:00.852998  2045 net.cpp:435] inception_4d/output <- inception_4d/1x1
I1201 02:35:00.853001  2045 net.cpp:435] inception_4d/output <- inception_4d/3x3
I1201 02:35:00.853013  2045 net.cpp:435] inception_4d/output <- inception_4d/5x5
I1201 02:35:00.853018  2045 net.cpp:435] inception_4d/output <- inception_4d/pool_proj
I1201 02:35:00.853022  2045 net.cpp:409] inception_4d/output -> inception_4d/output
I1201 02:35:00.853071  2045 net.cpp:144] Setting up inception_4d/output
I1201 02:35:00.853078  2045 net.cpp:151] Top shape: 16 528 14 14 (1655808)
I1201 02:35:00.853082  2045 net.cpp:159] Memory required for data: 771486728
I1201 02:35:00.853085  2045 layer_factory.hpp:77] Creating layer inception_4d/output_inception_4d/output_0_split
I1201 02:35:00.853093  2045 net.cpp:94] Creating Layer inception_4d/output_inception_4d/output_0_split
I1201 02:35:00.853097  2045 net.cpp:435] inception_4d/output_inception_4d/output_0_split <- inception_4d/output
I1201 02:35:00.853103  2045 net.cpp:409] inception_4d/output_inception_4d/output_0_split -> inception_4d/output_inception_4d/output_0_split_0
I1201 02:35:00.853111  2045 net.cpp:409] inception_4d/output_inception_4d/output_0_split -> inception_4d/output_inception_4d/output_0_split_1
I1201 02:35:00.853117  2045 net.cpp:409] inception_4d/output_inception_4d/output_0_split -> inception_4d/output_inception_4d/output_0_split_2
I1201 02:35:00.853122  2045 net.cpp:409] inception_4d/output_inception_4d/output_0_split -> inception_4d/output_inception_4d/output_0_split_3
I1201 02:35:00.853128  2045 net.cpp:409] inception_4d/output_inception_4d/output_0_split -> inception_4d/output_inception_4d/output_0_split_4
I1201 02:35:00.853209  2045 net.cpp:144] Setting up inception_4d/output_inception_4d/output_0_split
I1201 02:35:00.853214  2045 net.cpp:151] Top shape: 16 528 14 14 (1655808)
I1201 02:35:00.853217  2045 net.cpp:151] Top shape: 16 528 14 14 (1655808)
I1201 02:35:00.853221  2045 net.cpp:151] Top shape: 16 528 14 14 (1655808)
I1201 02:35:00.853224  2045 net.cpp:151] Top shape: 16 528 14 14 (1655808)
I1201 02:35:00.853229  2045 net.cpp:151] Top shape: 16 528 14 14 (1655808)
I1201 02:35:00.853230  2045 net.cpp:159] Memory required for data: 804602888
I1201 02:35:00.853235  2045 layer_factory.hpp:77] Creating layer loss2/ave_pool
I1201 02:35:00.853240  2045 net.cpp:94] Creating Layer loss2/ave_pool
I1201 02:35:00.853243  2045 net.cpp:435] loss2/ave_pool <- inception_4d/output_inception_4d/output_0_split_0
I1201 02:35:00.853250  2045 net.cpp:409] loss2/ave_pool -> loss2/ave_pool
I1201 02:35:00.853274  2045 net.cpp:144] Setting up loss2/ave_pool
I1201 02:35:00.853279  2045 net.cpp:151] Top shape: 16 528 4 4 (135168)
I1201 02:35:00.853282  2045 net.cpp:159] Memory required for data: 805143560
I1201 02:35:00.853284  2045 layer_factory.hpp:77] Creating layer loss2/conv
I1201 02:35:00.853296  2045 net.cpp:94] Creating Layer loss2/conv
I1201 02:35:00.853299  2045 net.cpp:435] loss2/conv <- loss2/ave_pool
I1201 02:35:00.853304  2045 net.cpp:409] loss2/conv -> loss2/conv
I1201 02:35:00.854497  2045 net.cpp:144] Setting up loss2/conv
I1201 02:35:00.854509  2045 net.cpp:151] Top shape: 16 128 4 4 (32768)
I1201 02:35:00.854512  2045 net.cpp:159] Memory required for data: 805274632
I1201 02:35:00.854518  2045 layer_factory.hpp:77] Creating layer loss2/relu_conv
I1201 02:35:00.854526  2045 net.cpp:94] Creating Layer loss2/relu_conv
I1201 02:35:00.854532  2045 net.cpp:435] loss2/relu_conv <- loss2/conv
I1201 02:35:00.854537  2045 net.cpp:396] loss2/relu_conv -> loss2/conv (in-place)
I1201 02:35:00.854543  2045 net.cpp:144] Setting up loss2/relu_conv
I1201 02:35:00.854547  2045 net.cpp:151] Top shape: 16 128 4 4 (32768)
I1201 02:35:00.854550  2045 net.cpp:159] Memory required for data: 805405704
I1201 02:35:00.854553  2045 layer_factory.hpp:77] Creating layer loss2/fc
I1201 02:35:00.854562  2045 net.cpp:94] Creating Layer loss2/fc
I1201 02:35:00.854564  2045 net.cpp:435] loss2/fc <- loss2/conv
I1201 02:35:00.854570  2045 net.cpp:409] loss2/fc -> loss2/fc
I1201 02:35:00.869204  2045 net.cpp:144] Setting up loss2/fc
I1201 02:35:00.869215  2045 net.cpp:151] Top shape: 16 1024 (16384)
I1201 02:35:00.869218  2045 net.cpp:159] Memory required for data: 805471240
I1201 02:35:00.869236  2045 layer_factory.hpp:77] Creating layer loss2/relu_fc
I1201 02:35:00.869243  2045 net.cpp:94] Creating Layer loss2/relu_fc
I1201 02:35:00.869247  2045 net.cpp:435] loss2/relu_fc <- loss2/fc
I1201 02:35:00.869253  2045 net.cpp:396] loss2/relu_fc -> loss2/fc (in-place)
I1201 02:35:00.869262  2045 net.cpp:144] Setting up loss2/relu_fc
I1201 02:35:00.869266  2045 net.cpp:151] Top shape: 16 1024 (16384)
I1201 02:35:00.869268  2045 net.cpp:159] Memory required for data: 805536776
I1201 02:35:00.869271  2045 layer_factory.hpp:77] Creating layer loss2/drop_fc
I1201 02:35:00.869277  2045 net.cpp:94] Creating Layer loss2/drop_fc
I1201 02:35:00.869280  2045 net.cpp:435] loss2/drop_fc <- loss2/fc
I1201 02:35:00.869287  2045 net.cpp:396] loss2/drop_fc -> loss2/fc (in-place)
I1201 02:35:00.869314  2045 net.cpp:144] Setting up loss2/drop_fc
I1201 02:35:00.869320  2045 net.cpp:151] Top shape: 16 1024 (16384)
I1201 02:35:00.869323  2045 net.cpp:159] Memory required for data: 805602312
I1201 02:35:00.869325  2045 layer_factory.hpp:77] Creating layer loss2/classifier
I1201 02:35:00.869333  2045 net.cpp:94] Creating Layer loss2/classifier
I1201 02:35:00.869338  2045 net.cpp:435] loss2/classifier <- loss2/fc
I1201 02:35:00.869344  2045 net.cpp:409] loss2/classifier -> loss2/classifier
I1201 02:35:00.869472  2045 net.cpp:144] Setting up loss2/classifier
I1201 02:35:00.869477  2045 net.cpp:151] Top shape: 16 3 (48)
I1201 02:35:00.869482  2045 net.cpp:159] Memory required for data: 805602504
I1201 02:35:00.869487  2045 layer_factory.hpp:77] Creating layer loss2/classifier_loss2/classifier_0_split
I1201 02:35:00.869491  2045 net.cpp:94] Creating Layer loss2/classifier_loss2/classifier_0_split
I1201 02:35:00.869494  2045 net.cpp:435] loss2/classifier_loss2/classifier_0_split <- loss2/classifier
I1201 02:35:00.869503  2045 net.cpp:409] loss2/classifier_loss2/classifier_0_split -> loss2/classifier_loss2/classifier_0_split_0
I1201 02:35:00.869508  2045 net.cpp:409] loss2/classifier_loss2/classifier_0_split -> loss2/classifier_loss2/classifier_0_split_1
I1201 02:35:00.869549  2045 net.cpp:144] Setting up loss2/classifier_loss2/classifier_0_split
I1201 02:35:00.869552  2045 net.cpp:151] Top shape: 16 3 (48)
I1201 02:35:00.869556  2045 net.cpp:151] Top shape: 16 3 (48)
I1201 02:35:00.869560  2045 net.cpp:159] Memory required for data: 805602888
I1201 02:35:00.869561  2045 layer_factory.hpp:77] Creating layer loss2/loss
I1201 02:35:00.869567  2045 net.cpp:94] Creating Layer loss2/loss
I1201 02:35:00.869572  2045 net.cpp:435] loss2/loss <- loss2/classifier_loss2/classifier_0_split_0
I1201 02:35:00.869576  2045 net.cpp:435] loss2/loss <- label_val-data_1_split_2
…
I1201 02:35:00.869735  2045 net.cpp:144] Setting up loss2/top-1
I1201 02:35:00.869740  2045 net.cpp:151] Top shape: (1)
I1201 02:35:00.869742  2045 net.cpp:159] Memory required for data: 805602896
I1201 02:35:00.869745  2045 layer_factory.hpp:77] Creating layer inception_4e/1x1
I1201 02:35:00.869755  2045 net.cpp:94] Creating Layer inception_4e/1x1
I1201 02:35:00.869758  2045 net.cpp:435] inception_4e/1x1 <- inception_4d/output_inception_4d/output_0_split_1
I1201 02:35:00.869765  2045 net.cpp:409] inception_4e/1x1 -> inception_4e/1x1
I1201 02:35:00.870731  2045 net.cpp:144] Setting up inception_4e/1x1
I1201 02:35:00.870748  2045 net.cpp:151] Top shape: 16 256 14 14 (802816)
I1201 02:35:00.870751  2045 net.cpp:159] Memory required for data: 808814160
I1201 02:35:00.870756  2045 layer_factory.hpp:77] Creating layer inception_4e/relu_1x1
I1201 02:35:00.870762  2045 net.cpp:94] Creating Layer inception_4e/relu_1x1
I1201 02:35:00.870766  2045 net.cpp:435] inception_4e/relu_1x1 <- inception_4e/1x1
I1201 02:35:00.870771  2045 net.cpp:396] inception_4e/relu_1x1 -> inception_4e/1x1 (in-place)
I1201 02:35:00.870777  2045 net.cpp:144] Setting up inception_4e/relu_1x1
I1201 02:35:00.870782  2045 net.cpp:151] Top shape: 16 256 14 14 (802816)
I1201 02:35:00.870784  2045 net.cpp:159] Memory required for data: 812025424
I1201 02:35:00.870787  2045 layer_factory.hpp:77] Creating layer inception_4e/3x3_reduce
I1201 02:35:00.870797  2045 net.cpp:94] Creating Layer inception_4e/3x3_reduce
I1201 02:35:00.870801  2045 net.cpp:435] inception_4e/3x3_reduce <- inception_4d/output_inception_4d/output_0_split_2
I1201 02:35:00.870806  2045 net.cpp:409] inception_4e/3x3_reduce -> inception_4e/3x3_reduce
I1201 02:35:00.872090  2045 net.cpp:144] Setting up inception_4e/3x3_reduce
I1201 02:35:00.872102  2045 net.cpp:151] Top shape: 16 160 14 14 (501760)
I1201 02:35:00.872105  2045 net.cpp:159] Memory required for data: 814032464
I1201 02:35:00.872112  2045 layer_factory.hpp:77] Creating layer inception_4e/relu_3x3_reduce
I1201 02:35:00.872118  2045 net.cpp:94] Creating Layer inception_4e/relu_3x3_reduce
I1201 02:35:00.872123  2045 net.cpp:435] inception_4e/relu_3x3_reduce <- inception_4e/3x3_reduce
I1201 02:35:00.872129  2045 net.cpp:396] inception_4e/relu_3x3_reduce -> inception_4e/3x3_reduce (in-place)
I1201 02:35:00.872136  2045 net.cpp:144] Setting up inception_4e/relu_3x3_reduce
I1201 02:35:00.872140  2045 net.cpp:151] Top shape: 16 160 14 14 (501760)
I1201 02:35:00.872143  2045 net.cpp:159] Memory required for data: 816039504
I1201 02:35:00.872146  2045 layer_factory.hpp:77] Creating layer inception_4e/3x3
I1201 02:35:00.872176  2045 net.cpp:94] Creating Layer inception_4e/3x3
I1201 02:35:00.872180  2045 net.cpp:435] inception_4e/3x3 <- inception_4e/3x3_reduce
I1201 02:35:00.872185  2045 net.cpp:409] inception_4e/3x3 -> inception_4e/3x3
I1201 02:35:00.876288  2045 net.cpp:144] Setting up inception_4e/3x3
I1201 02:35:00.876301  2045 net.cpp:151] Top shape: 16 320 14 14 (1003520)
I1201 02:35:00.876303  2045 net.cpp:159] Memory required for data: 820053584
I1201 02:35:00.876310  2045 layer_factory.hpp:77] Creating layer inception_4e/relu_3x3
I1201 02:35:00.876317  2045 net.cpp:94] Creating Layer inception_4e/relu_3x3
I1201 02:35:00.876322  2045 net.cpp:435] inception_4e/relu_3x3 <- inception_4e/3x3
I1201 02:35:00.876327  2045 net.cpp:396] inception_4e/relu_3x3 -> inception_4e/3x3 (in-place)
I1201 02:35:00.876334  2045 net.cpp:144] Setting up inception_4e/relu_3x3
I1201 02:35:00.876339  2045 net.cpp:151] Top shape: 16 320 14 14 (1003520)
I1201 02:35:00.876341  2045 net.cpp:159] Memory required for data: 824067664
I1201 02:35:00.876344  2045 layer_factory.hpp:77] Creating layer inception_4e/5x5_reduce
I1201 02:35:00.876353  2045 net.cpp:94] Creating Layer inception_4e/5x5_reduce
I1201 02:35:00.876358  2045 net.cpp:435] inception_4e/5x5_reduce <- inception_4d/output_inception_4d/output_0_split_3
I1201 02:35:00.876364  2045 net.cpp:409] inception_4e/5x5_reduce -> inception_4e/5x5_reduce
I1201 02:35:00.876668  2045 net.cpp:144] Setting up inception_4e/5x5_reduce
I1201 02:35:00.876675  2045 net.cpp:151] Top shape: 16 32 14 14 (100352)
I1201 02:35:00.876678  2045 net.cpp:159] Memory required for data: 824469072
I1201 02:35:00.876683  2045 layer_factory.hpp:77] Creating layer inception_4e/relu_5x5_reduce
I1201 02:35:00.876689  2045 net.cpp:94] Creating Layer inception_4e/relu_5x5_reduce
I1201 02:35:00.876693  2045 net.cpp:435] inception_4e/relu_5x5_reduce <- inception_4e/5x5_reduce
I1201 02:35:00.876700  2045 net.cpp:396] inception_4e/relu_5x5_reduce -> inception_4e/5x5_reduce (in-place)
I1201 02:35:00.876708  2045 net.cpp:144] Setting up inception_4e/relu_5x5_reduce
I1201 02:35:00.876724  2045 net.cpp:151] Top shape: 16 32 14 14 (100352)
I1201 02:35:00.876726  2045 net.cpp:159] Memory required for data: 824870480
I1201 02:35:00.876730  2045 layer_factory.hpp:77] Creating layer inception_4e/5x5
I1201 02:35:00.876739  2045 net.cpp:94] Creating Layer inception_4e/5x5
I1201 02:35:00.876744  2045 net.cpp:435] inception_4e/5x5 <- inception_4e/5x5_reduce
I1201 02:35:00.876749  2045 net.cpp:409] inception_4e/5x5 -> inception_4e/5x5
I1201 02:35:00.877521  2045 net.cpp:144] Setting up inception_4e/5x5
I1201 02:35:00.877528  2045 net.cpp:151] Top shape: 16 128 14 14 (401408)
I1201 02:35:00.877532  2045 net.cpp:159] Memory required for data: 826476112
I1201 02:35:00.877537  2045 layer_factory.hpp:77] Creating layer inception_4e/relu_5x5
I1201 02:35:00.877543  2045 net.cpp:94] Creating Layer inception_4e/relu_5x5
I1201 02:35:00.877547  2045 net.cpp:435] inception_4e/relu_5x5 <- inception_4e/5x5
I1201 02:35:00.877552  2045 net.cpp:396] inception_4e/relu_5x5 -> inception_4e/5x5 (in-place)
I1201 02:35:00.877558  2045 net.cpp:144] Setting up inception_4e/relu_5x5
I1201 02:35:00.877563  2045 net.cpp:151] Top shape: 16 128 14 14 (401408)
I1201 02:35:00.877566  2045 net.cpp:159] Memory required for data: 828081744
I1201 02:35:00.877569  2045 layer_factory.hpp:77] Creating layer inception_4e/pool
I1201 02:35:00.877575  2045 net.cpp:94] Creating Layer inception_4e/pool
I1201 02:35:00.877580  2045 net.cpp:435] inception_4e/pool <- inception_4d/output_inception_4d/output_0_split_4
I1201 02:35:00.877586  2045 net.cpp:409] inception_4e/pool -> inception_4e/pool
I1201 02:35:00.877622  2045 net.cpp:144] Setting up inception_4e/pool
I1201 02:35:00.877627  2045 net.cpp:151] Top shape: 16 528 14 14 (1655808)
I1201 02:35:00.877631  2045 net.cpp:159] Memory required for data: 834704976
I1201 02:35:00.877634  2045 layer_factory.hpp:77] Creating layer inception_4e/pool_proj
I1201 02:35:00.877642  2045 net.cpp:94] Creating Layer inception_4e/pool_proj
I1201 02:35:00.877646  2045 net.cpp:435] inception_4e/pool_proj <- inception_4e/pool
I1201 02:35:00.877653  2045 net.cpp:409] inception_4e/pool_proj -> inception_4e/pool_proj
I1201 02:35:00.878212  2045 net.cpp:144] Setting up inception_4e/pool_proj
I1201 02:35:00.878219  2045 net.cpp:151] Top shape: 16 128 14 14 (401408)
I1201 02:35:00.878221  2045 net.cpp:159] Memory required for data: 836310608
I1201 02:35:00.878227  2045 layer_factory.hpp:77] Creating layer inception_4e/relu_pool_proj
I1201 02:35:00.878233  2045 net.cpp:94] Creating Layer inception_4e/relu_pool_proj
I1201 02:35:00.878237  2045 net.cpp:435] inception_4e/relu_pool_proj <- inception_4e/pool_proj
I1201 02:35:00.878242  2045 net.cpp:396] inception_4e/relu_pool_proj -> inception_4e/pool_proj (in-place)
I1201 02:35:00.878248  2045 net.cpp:144] Setting up inception_4e/relu_pool_proj
I1201 02:35:00.878252  2045 net.cpp:151] Top shape: 16 128 14 14 (401408)
I1201 02:35:00.878254  2045 net.cpp:159] Memory required for data: 837916240
I1201 02:35:00.878257  2045 layer_factory.hpp:77] Creating layer inception_4e/output
I1201 02:35:00.878264  2045 net.cpp:94] Creating Layer inception_4e/output
I1201 02:35:00.878268  2045 net.cpp:435] inception_4e/output <- inception_4e/1x1
I1201 02:35:00.878271  2045 net.cpp:435] inception_4e/output <- inception_4e/3x3
I1201 02:35:00.878275  2045 net.cpp:435] inception_4e/output <- inception_4e/5x5
I1201 02:35:00.878279  2045 net.cpp:435] inception_4e/output <- inception_4e/pool_proj
I1201 02:35:00.878284  2045 net.cpp:409] inception_4e/output -> inception_4e/output
I1201 02:35:00.878306  2045 net.cpp:144] Setting up inception_4e/output
I1201 02:35:00.878311  2045 net.cpp:151] Top shape: 16 832 14 14 (2609152)
I1201 02:35:00.878314  2045 net.cpp:159] Memory required for data: 848352848
I1201 02:35:00.878317  2045 layer_factory.hpp:77] Creating layer pool4/3x3_s2
I1201 02:35:00.878324  2045 net.cpp:94] Creating Layer pool4/3x3_s2
I1201 02:35:00.878329  2045 net.cpp:435] pool4/3x3_s2 <- inception_4e/output
I1201 02:35:00.878334  2045 net.cpp:409] pool4/3x3_s2 -> pool4/3x3_s2
I1201 02:35:00.878378  2045 net.cpp:144] Setting up pool4/3x3_s2
I1201 02:35:00.878383  2045 net.cpp:151] Top shape: 16 832 7 7 (652288)
I1201 02:35:00.878386  2045 net.cpp:159] Memory required for data: 850962000
I1201 02:35:00.878389  2045 layer_factory.hpp:77] Creating layer pool4/3x3_s2_pool4/3x3_s2_0_split
I1201 02:35:00.878396  2045 net.cpp:94] Creating Layer pool4/3x3_s2_pool4/3x3_s2_0_split
I1201 02:35:00.878398  2045 net.cpp:435] pool4/3x3_s2_pool4/3x3_s2_0_split <- pool4/3x3_s2
I1201 02:35:00.878404  2045 net.cpp:409] pool4/3x3_s2_pool4/3x3_s2_0_split -> pool4/3x3_s2_pool4/3x3_s2_0_split_0
I1201 02:35:00.878412  2045 net.cpp:409] pool4/3x3_s2_pool4/3x3_s2_0_split -> pool4/3x3_s2_pool4/3x3_s2_0_split_1
I1201 02:35:00.878417  2045 net.cpp:409] pool4/3x3_s2_pool4/3x3_s2_0_split -> pool4/3x3_s2_pool4/3x3_s2_0_split_2
I1201 02:35:00.878423  2045 net.cpp:409] pool4/3x3_s2_pool4/3x3_s2_0_split -> pool4/3x3_s2_pool4/3x3_s2_0_split_3
I1201 02:35:00.878473  2045 net.cpp:144] Setting up pool4/3x3_s2_pool4/3x3_s2_0_split
I1201 02:35:00.878478  2045 net.cpp:151] Top shape: 16 832 7 7 (652288)
I1201 02:35:00.878481  2045 net.cpp:151] Top shape: 16 832 7 7 (652288)
I1201 02:35:00.878484  2045 net.cpp:151] Top shape: 16 832 7 7 (652288)
I1201 02:35:00.878489  2045 net.cpp:151] Top shape: 16 832 7 7 (652288)
I1201 02:35:00.878491  2045 net.cpp:159] Memory required for data: 861398608
I1201 02:35:00.878494  2045 layer_factory.hpp:77] Creating layer inception_5a/1x1
I1201 02:35:00.878502  2045 net.cpp:94] Creating Layer inception_5a/1x1
I1201 02:35:00.878506  2045 net.cpp:435] inception_5a/1x1 <- pool4/3x3_s2_pool4/3x3_s2_0_split_0
I1201 02:35:00.878515  2045 net.cpp:409] inception_5a/1x1 -> inception_5a/1x1
I1201 02:35:00.880424  2045 net.cpp:144] Setting up inception_5a/1x1
I1201 02:35:00.880434  2045 net.cpp:151] Top shape: 16 256 7 7 (200704)
I1201 02:35:00.880437  2045 net.cpp:159] Memory required for data: 862201424
I1201 02:35:00.880445  2045 layer_factory.hpp:77] Creating layer inception_5a/relu_1x1
I1201 02:35:00.880451  2045 net.cpp:94] Creating Layer inception_5a/relu_1x1
I1201 02:35:00.880455  2045 net.cpp:435] inception_5a/relu_1x1 <- inception_5a/1x1
I1201 02:35:00.880461  2045 net.cpp:396] inception_5a/relu_1x1 -> inception_5a/1x1 (in-place)
I1201 02:35:00.880470  2045 net.cpp:144] Setting up inception_5a/relu_1x1
I1201 02:35:00.880473  2045 net.cpp:151] Top shape: 16 256 7 7 (200704)
I1201 02:35:00.880476  2045 net.cpp:159] Memory required for data: 863004240
I1201 02:35:00.880479  2045 layer_factory.hpp:77] Creating layer inception_5a/3x3_reduce
I1201 02:35:00.880488  2045 net.cpp:94] Creating Layer inception_5a/3x3_reduce
I1201 02:35:00.880492  2045 net.cpp:435] inception_5a/3x3_reduce <- pool4/3x3_s2_pool4/3x3_s2_0_split_1
I1201 02:35:00.880498  2045 net.cpp:409] inception_5a/3x3_reduce -> inception_5a/3x3_reduce
I1201 02:35:00.882004  2045 net.cpp:144] Setting up inception_5a/3x3_reduce
I1201 02:35:00.882016  2045 net.cpp:151] Top shape: 16 160 7 7 (125440)
I1201 02:35:00.882019  2045 net.cpp:159] Memory required for data: 863506000
I1201 02:35:00.882025  2045 layer_factory.hpp:77] Creating layer inception_5a/relu_3x3_reduce
I1201 02:35:00.882031  2045 net.cpp:94] Creating Layer inception_5a/relu_3x3_reduce
I1201 02:35:00.882036  2045 net.cpp:435] inception_5a/relu_3x3_reduce <- inception_5a/3x3_reduce
I1201 02:35:00.882043  2045 net.cpp:396] inception_5a/relu_3x3_reduce -> inception_5a/3x3_reduce (in-place)
I1201 02:35:00.882050  2045 net.cpp:144] Setting up inception_5a/relu_3x3_reduce
I1201 02:35:00.882055  2045 net.cpp:151] Top shape: 16 160 7 7 (125440)
I1201 02:35:00.882057  2045 net.cpp:159] Memory required for data: 864007760
I1201 02:35:00.882061  2045 layer_factory.hpp:77] Creating layer inception_5a/3x3
I1201 02:35:00.882069  2045 net.cpp:94] Creating Layer inception_5a/3x3
I1201 02:35:00.882073  2045 net.cpp:435] inception_5a/3x3 <- inception_5a/3x3_reduce
I1201 02:35:00.882081  2045 net.cpp:409] inception_5a/3x3 -> inception_5a/3x3
I1201 02:35:00.885617  2045 net.cpp:144] Setting up inception_5a/3x3
I1201 02:35:00.885639  2045 net.cpp:151] Top shape: 16 320 7 7 (250880)
I1201 02:35:00.885643  2045 net.cpp:159] Memory required for data: 865011280
I1201 02:35:00.885649  2045 layer_factory.hpp:77] Creating layer inception_5a/relu_3x3
I1201 02:35:00.885656  2045 net.cpp:94] Creating Layer inception_5a/relu_3x3
I1201 02:35:00.885660  2045 net.cpp:435] inception_5a/relu_3x3 <- inception_5a/3x3
I1201 02:35:00.885666  2045 net.cpp:396] inception_5a/relu_3x3 -> inception_5a/3x3 (in-place)
I1201 02:35:00.885674  2045 net.cpp:144] Setting up inception_5a/relu_3x3
I1201 02:35:00.885679  2045 net.cpp:151] Top shape: 16 320 7 7 (250880)
I1201 02:35:00.885681  2045 net.cpp:159] Memory required for data: 866014800
I1201 02:35:00.885684  2045 layer_factory.hpp:77] Creating layer inception_5a/5x5_reduce
I1201 02:35:00.885694  2045 net.cpp:94] Creating Layer inception_5a/5x5_reduce
I1201 02:35:00.885697  2045 net.cpp:435] inception_5a/5x5_reduce <- pool4/3x3_s2_pool4/3x3_s2_0_split_2
I1201 02:35:00.885705  2045 net.cpp:409] inception_5a/5x5_reduce -> inception_5a/5x5_reduce
I1201 02:35:00.886633  2045 net.cpp:144] Setting up inception_5a/5x5_reduce
I1201 02:35:00.886646  2045 net.cpp:151] Top shape: 16 32 7 7 (25088)
I1201 02:35:00.886648  2045 net.cpp:159] Memory required for data: 866115152
I1201 02:35:00.886653  2045 layer_factory.hpp:77] Creating layer inception_5a/relu_5x5_reduce
I1201 02:35:00.886660  2045 net.cpp:94] Creating Layer inception_5a/relu_5x5_reduce
I1201 02:35:00.886665  2045 net.cpp:435] inception_5a/relu_5x5_reduce <- inception_5a/5x5_reduce
I1201 02:35:00.886672  2045 net.cpp:396] inception_5a/relu_5x5_reduce -> inception_5a/5x5_reduce (in-place)
I1201 02:35:00.886678  2045 net.cpp:144] Setting up inception_5a/relu_5x5_reduce
I1201 02:35:00.886682  2045 net.cpp:151] Top shape: 16 32 7 7 (25088)
I1201 02:35:00.886685  2045 net.cpp:159] Memory required for data: 866215504
I1201 02:35:00.886688  2045 layer_factory.hpp:77] Creating layer inception_5a/5x5
I1201 02:35:00.886696  2045 net.cpp:94] Creating Layer inception_5a/5x5
I1201 02:35:00.886700  2045 net.cpp:435] inception_5a/5x5 <- inception_5a/5x5_reduce
I1201 02:35:00.886708  2045 net.cpp:409] inception_5a/5x5 -> inception_5a/5x5
I1201 02:35:00.887466  2045 net.cpp:144] Setting up inception_5a/5x5
I1201 02:35:00.887473  2045 net.cpp:151] Top shape: 16 128 7 7 (100352)
I1201 02:35:00.887475  2045 net.cpp:159] Memory required for data: 866616912
I1201 02:35:00.887481  2045 layer_factory.hpp:77] Creating layer inception_5a/relu_5x5
I1201 02:35:00.887487  2045 net.cpp:94] Creating Layer inception_5a/relu_5x5
I1201 02:35:00.887490  2045 net.cpp:435] inception_5a/relu_5x5 <- inception_5a/5x5
I1201 02:35:00.887496  2045 net.cpp:396] inception_5a/relu_5x5 -> inception_5a/5x5 (in-place)
I1201 02:35:00.887503  2045 net.cpp:144] Setting up inception_5a/relu_5x5
I1201 02:35:00.887506  2045 net.cpp:151] Top shape: 16 128 7 7 (100352)
I1201 02:35:00.887509  2045 net.cpp:159] Memory required for data: 867018320
I1201 02:35:00.887512  2045 layer_factory.hpp:77] Creating layer inception_5a/pool
I1201 02:35:00.887519  2045 net.cpp:94] Creating Layer inception_5a/pool
I1201 02:35:00.887522  2045 net.cpp:435] inception_5a/pool <- pool4/3x3_s2_pool4/3x3_s2_0_split_3
I1201 02:35:00.887528  2045 net.cpp:409] inception_5a/pool -> inception_5a/pool
I1201 02:35:00.887583  2045 net.cpp:144] Setting up inception_5a/pool
I1201 02:35:00.887590  2045 net.cpp:151] Top shape: 16 832 7 7 (652288)
I1201 02:35:00.887593  2045 net.cpp:159] Memory required for data: 869627472
I1201 02:35:00.887595  2045 layer_factory.hpp:77] Creating layer inception_5a/pool_proj
I1201 02:35:00.887603  2045 net.cpp:94] Creating Layer inception_5a/pool_proj
I1201 02:35:00.887607  2045 net.cpp:435] inception_5a/pool_proj <- inception_5a/pool
I1201 02:35:00.887614  2045 net.cpp:409] inception_5a/pool_proj -> inception_5a/pool_proj
I1201 02:35:00.888941  2045 net.cpp:144] Setting up inception_5a/pool_proj
I1201 02:35:00.888952  2045 net.cpp:151] Top shape: 16 128 7 7 (100352)
I1201 02:35:00.888967  2045 net.cpp:159] Memory required for data: 870028880
I1201 02:35:00.888972  2045 layer_factory.hpp:77] Creating layer inception_5a/relu_pool_proj
I1201 02:35:00.888979  2045 net.cpp:94] Creating Layer inception_5a/relu_pool_proj
I1201 02:35:00.888983  2045 net.cpp:435] inception_5a/relu_pool_proj <- inception_5a/pool_proj
I1201 02:35:00.888990  2045 net.cpp:396] inception_5a/relu_pool_proj -> inception_5a/pool_proj (in-place)
I1201 02:35:00.888998  2045 net.cpp:144] Setting up inception_5a/relu_pool_proj
I1201 02:35:00.889001  2045 net.cpp:151] Top shape: 16 128 7 7 (100352)
I1201 02:35:00.889003  2045 net.cpp:159] Memory required for data: 870430288
I1201 02:35:00.889008  2045 layer_factory.hpp:77] Creating layer inception_5a/output
I1201 02:35:00.889014  2045 net.cpp:94] Creating Layer inception_5a/output
I1201 02:35:00.889016  2045 net.cpp:435] inception_5a/output <- inception_5a/1x1
I1201 02:35:00.889020  2045 net.cpp:435] inception_5a/output <- inception_5a/3x3
I1201 02:35:00.889025  2045 net.cpp:435] inception_5a/output <- inception_5a/5x5
I1201 02:35:00.889029  2045 net.cpp:435] inception_5a/output <- inception_5a/pool_proj
I1201 02:35:00.889034  2045 net.cpp:409] inception_5a/output -> inception_5a/output
I1201 02:35:00.889075  2045 net.cpp:144] Setting up inception_5a/output
I1201 02:35:00.889082  2045 net.cpp:151] Top shape: 16 832 7 7 (652288)
I1201 02:35:00.889084  2045 net.cpp:159] Memory required for data: 873039440
I1201 02:35:00.889087  2045 layer_factory.hpp:77] Creating layer inception_5a/output_inception_5a/output_0_split
I1201 02:35:00.889094  2045 net.cpp:94] Creating Layer inception_5a/output_inception_5a/output_0_split
I1201 02:35:00.889098  2045 net.cpp:435] inception_5a/output_inception_5a/output_0_split <- inception_5a/output
I1201 02:35:00.889106  2045 net.cpp:409] inception_5a/output_inception_5a/output_0_split -> inception_5a/output_inception_5a/output_0_split_0
I1201 02:35:00.889113  2045 net.cpp:409] inception_5a/output_inception_5a/output_0_split -> inception_5a/output_inception_5a/output_0_split_1
I1201 02:35:00.889119  2045 net.cpp:409] inception_5a/output_inception_5a/output_0_split -> inception_5a/output_inception_5a/output_0_split_2
I1201 02:35:00.889127  2045 net.cpp:409] inception_5a/output_inception_5a/output_0_split -> inception_5a/output_inception_5a/output_0_split_3
I1201 02:35:00.889179  2045 net.cpp:144] Setting up inception_5a/output_inception_5a/output_0_split
I1201 02:35:00.889184  2045 net.cpp:151] Top shape: 16 832 7 7 (652288)
I1201 02:35:00.889187  2045 net.cpp:151] Top shape: 16 832 7 7 (652288)
I1201 02:35:00.889192  2045 net.cpp:151] Top shape: 16 832 7 7 (652288)
I1201 02:35:00.889195  2045 net.cpp:151] Top shape: 16 832 7 7 (652288)
I1201 02:35:00.889197  2045 net.cpp:159] Memory required for data: 883476048
I1201 02:35:00.889200  2045 layer_factory.hpp:77] Creating layer inception_5b/1x1
I1201 02:35:00.889210  2045 net.cpp:94] Creating Layer inception_5b/1x1
I1201 02:35:00.889214  2045 net.cpp:435] inception_5b/1x1 <- inception_5a/output_inception_5a/output_0_split_0
I1201 02:35:00.889220  2045 net.cpp:409] inception_5b/1x1 -> inception_5b/1x1
I1201 02:35:00.891772  2045 net.cpp:144] Setting up inception_5b/1x1
I1201 02:35:00.891783  2045 net.cpp:151] Top shape: 16 384 7 7 (301056)
I1201 02:35:00.891786  2045 net.cpp:159] Memory required for data: 884680272
I1201 02:35:00.891793  2045 layer_factory.hpp:77] Creating layer inception_5b/relu_1x1
I1201 02:35:00.891799  2045 net.cpp:94] Creating Layer inception_5b/relu_1x1
I1201 02:35:00.891804  2045 net.cpp:435] inception_5b/relu_1x1 <- inception_5b/1x1
I1201 02:35:00.891810  2045 net.cpp:396] inception_5b/relu_1x1 -> inception_5b/1x1 (in-place)
I1201 02:35:00.891818  2045 net.cpp:144] Setting up inception_5b/relu_1x1
I1201 02:35:00.891822  2045 net.cpp:151] Top shape: 16 384 7 7 (301056)
I1201 02:35:00.891826  2045 net.cpp:159] Memory required for data: 885884496
I1201 02:35:00.891829  2045 layer_factory.hpp:77] Creating layer inception_5b/3x3_reduce
I1201 02:35:00.891837  2045 net.cpp:94] Creating Layer inception_5b/3x3_reduce
I1201 02:35:00.891851  2045 net.cpp:435] inception_5b/3x3_reduce <- inception_5a/output_inception_5a/output_0_split_1
I1201 02:35:00.891860  2045 net.cpp:409] inception_5b/3x3_reduce -> inception_5b/3x3_reduce
I1201 02:35:00.893524  2045 net.cpp:144] Setting up inception_5b/3x3_reduce
I1201 02:35:00.893537  2045 net.cpp:151] Top shape: 16 192 7 7 (150528)
I1201 02:35:00.893539  2045 net.cpp:159] Memory required for data: 886486608
I1201 02:35:00.893546  2045 layer_factory.hpp:77] Creating layer inception_5b/relu_3x3_reduce
I1201 02:35:00.893553  2045 net.cpp:94] Creating Layer inception_5b/relu_3x3_reduce
I1201 02:35:00.893558  2045 net.cpp:435] inception_5b/relu_3x3_reduce <- inception_5b/3x3_reduce
I1201 02:35:00.893563  2045 net.cpp:396] inception_5b/relu_3x3_reduce -> inception_5b/3x3_reduce (in-place)
I1201 02:35:00.893571  2045 net.cpp:144] Setting up inception_5b/relu_3x3_reduce
I1201 02:35:00.893575  2045 net.cpp:151] Top shape: 16 192 7 7 (150528)
I1201 02:35:00.893579  2045 net.cpp:159] Memory required for data: 887088720
I1201 02:35:00.893581  2045 layer_factory.hpp:77] Creating layer inception_5b/3x3
I1201 02:35:00.893590  2045 net.cpp:94] Creating Layer inception_5b/3x3
I1201 02:35:00.893594  2045 net.cpp:435] inception_5b/3x3 <- inception_5b/3x3_reduce
I1201 02:35:00.893600  2045 net.cpp:409] inception_5b/3x3 -> inception_5b/3x3
I1201 02:35:00.898512  2045 net.cpp:144] Setting up inception_5b/3x3
I1201 02:35:00.898525  2045 net.cpp:151] Top shape: 16 384 7 7 (301056)
I1201 02:35:00.898528  2045 net.cpp:159] Memory required for data: 888292944
I1201 02:35:00.898535  2045 layer_factory.hpp:77] Creating layer inception_5b/relu_3x3
I1201 02:35:00.898541  2045 net.cpp:94] Creating Layer inception_5b/relu_3x3
I1201 02:35:00.898546  2045 net.cpp:435] inception_5b/relu_3x3 <- inception_5b/3x3
I1201 02:35:00.898552  2045 net.cpp:396] inception_5b/relu_3x3 -> inception_5b/3x3 (in-place)
I1201 02:35:00.898560  2045 net.cpp:144] Setting up inception_5b/relu_3x3
I1201 02:35:00.898563  2045 net.cpp:151] Top shape: 16 384 7 7 (301056)
I1201 02:35:00.898566  2045 net.cpp:159] Memory required for data: 889497168
I1201 02:35:00.898569  2045 layer_factory.hpp:77] Creating layer inception_5b/5x5_reduce
I1201 02:35:00.898578  2045 net.cpp:94] Creating Layer inception_5b/5x5_reduce
I1201 02:35:00.898582  2045 net.cpp:435] inception_5b/5x5_reduce <- inception_5a/output_inception_5a/output_0_split_2
I1201 02:35:00.898589  2045 net.cpp:409] inception_5b/5x5_reduce -> inception_5b/5x5_reduce
I1201 02:35:00.899027  2045 net.cpp:144] Setting up inception_5b/5x5_reduce
I1201 02:35:00.899034  2045 net.cpp:151] Top shape: 16 48 7 7 (37632)
I1201 02:35:00.899036  2045 net.cpp:159] Memory required for data: 889647696
I1201 02:35:00.899042  2045 layer_factory.hpp:77] Creating layer inception_5b/relu_5x5_reduce
I1201 02:35:00.899049  2045 net.cpp:94] Creating Layer inception_5b/relu_5x5_reduce
I1201 02:35:00.899052  2045 net.cpp:435] inception_5b/relu_5x5_reduce <- inception_5b/5x5_reduce
I1201 02:35:00.899057  2045 net.cpp:396] inception_5b/relu_5x5_reduce -> inception_5b/5x5_reduce (in-place)
I1201 02:35:00.899065  2045 net.cpp:144] Setting up inception_5b/relu_5x5_reduce
I1201 02:35:00.899067  2045 net.cpp:151] Top shape: 16 48 7 7 (37632)
I1201 02:35:00.899070  2045 net.cpp:159] Memory required for data: 889798224
I1201 02:35:00.899073  2045 layer_factory.hpp:77] Creating layer inception_5b/5x5
I1201 02:35:00.899082  2045 net.cpp:94] Creating Layer inception_5b/5x5
I1201 02:35:00.899085  2045 net.cpp:435] inception_5b/5x5 <- inception_5b/5x5_reduce
I1201 02:35:00.899091  2045 net.cpp:409] inception_5b/5x5 -> inception_5b/5x5
I1201 02:35:00.900118  2045 net.cpp:144] Setting up inception_5b/5x5
I1201 02:35:00.900127  2045 net.cpp:151] Top shape: 16 128 7 7 (100352)
I1201 02:35:00.900130  2045 net.cpp:159] Memory required for data: 890199632
I1201 02:35:00.900135  2045 layer_factory.hpp:77] Creating layer inception_5b/relu_5x5
I1201 02:35:00.900141  2045 net.cpp:94] Creating Layer inception_5b/relu_5x5
I1201 02:35:00.900146  2045 net.cpp:435] inception_5b/relu_5x5 <- inception_5b/5x5
I1201 02:35:00.900161  2045 net.cpp:396] inception_5b/relu_5x5 -> inception_5b/5x5 (in-place)
I1201 02:35:00.900168  2045 net.cpp:144] Setting up inception_5b/relu_5x5
I1201 02:35:00.900172  2045 net.cpp:151] Top shape: 16 128 7 7 (100352)
I1201 02:35:00.900176  2045 net.cpp:159] Memory required for data: 890601040
I1201 02:35:00.900178  2045 layer_factory.hpp:77] Creating layer inception_5b/pool
I1201 02:35:00.900184  2045 net.cpp:94] Creating Layer inception_5b/pool
I1201 02:35:00.900187  2045 net.cpp:435] inception_5b/pool <- inception_5a/output_inception_5a/output_0_split_3
I1201 02:35:00.900194  2045 net.cpp:409] inception_5b/pool -> inception_5b/pool
I1201 02:35:00.900230  2045 net.cpp:144] Setting up inception_5b/pool
I1201 02:35:00.900235  2045 net.cpp:151] Top shape: 16 832 7 7 (652288)
I1201 02:35:00.900238  2045 net.cpp:159] Memory required for data: 893210192
I1201 02:35:00.900241  2045 layer_factory.hpp:77] Creating layer inception_5b/pool_proj
I1201 02:35:00.900250  2045 net.cpp:94] Creating Layer inception_5b/pool_proj
I1201 02:35:00.900254  2045 net.cpp:435] inception_5b/pool_proj <- inception_5b/pool
I1201 02:35:00.900260  2045 net.cpp:409] inception_5b/pool_proj -> inception_5b/pool_proj
I1201 02:35:00.901621  2045 net.cpp:144] Setting up inception_5b/pool_proj
I1201 02:35:00.901633  2045 net.cpp:151] Top shape: 16 128 7 7 (100352)
I1201 02:35:00.901636  2045 net.cpp:159] Memory required for data: 893611600
I1201 02:35:00.901643  2045 layer_factory.hpp:77] Creating layer inception_5b/relu_pool_proj
I1201 02:35:00.901649  2045 net.cpp:94] Creating Layer inception_5b/relu_pool_proj
I1201 02:35:00.901654  2045 net.cpp:435] inception_5b/relu_pool_proj <- inception_5b/pool_proj
I1201 02:35:00.901660  2045 net.cpp:396] inception_5b/relu_pool_proj -> inception_5b/pool_proj (in-place)
I1201 02:35:00.901667  2045 net.cpp:144] Setting up inception_5b/relu_pool_proj
I1201 02:35:00.901672  2045 net.cpp:151] Top shape: 16 128 7 7 (100352)
I1201 02:35:00.901675  2045 net.cpp:159] Memory required for data: 894013008
I1201 02:35:00.901677  2045 layer_factory.hpp:77] Creating layer inception_5b/output
I1201 02:35:00.901684  2045 net.cpp:94] Creating Layer inception_5b/output
I1201 02:35:00.901688  2045 net.cpp:435] inception_5b/output <- inception_5b/1x1
I1201 02:35:00.901692  2045 net.cpp:435] inception_5b/output <- inception_5b/3x3
I1201 02:35:00.901696  2045 net.cpp:435] inception_5b/output <- inception_5b/5x5
I1201 02:35:00.901700  2045 net.cpp:435] inception_5b/output <- inception_5b/pool_proj
I1201 02:35:00.901705  2045 net.cpp:409] inception_5b/output -> inception_5b/output
I1201 02:35:00.901731  2045 net.cpp:144] Setting up inception_5b/output
I1201 02:35:00.901736  2045 net.cpp:151] Top shape: 16 1024 7 7 (802816)
I1201 02:35:00.901737  2045 net.cpp:159] Memory required for data: 897224272
I1201 02:35:00.901741  2045 layer_factory.hpp:77] Creating layer pool5/7x7_s1
I1201 02:35:00.901747  2045 net.cpp:94] Creating Layer pool5/7x7_s1
I1201 02:35:00.901751  2045 net.cpp:435] pool5/7x7_s1 <- inception_5b/output
I1201 02:35:00.901757  2045 net.cpp:409] pool5/7x7_s1 -> pool5/7x7_s1
I1201 02:35:00.901779  2045 net.cpp:144] Setting up pool5/7x7_s1
I1201 02:35:00.901784  2045 net.cpp:151] Top shape: 16 1024 1 1 (16384)
I1201 02:35:00.901787  2045 net.cpp:159] Memory required for data: 897289808
I1201 02:35:00.901789  2045 layer_factory.hpp:77] Creating layer pool5/drop_7x7_s1
I1201 02:35:00.901796  2045 net.cpp:94] Creating Layer pool5/drop_7x7_s1
I1201 02:35:00.901800  2045 net.cpp:435] pool5/drop_7x7_s1 <- pool5/7x7_s1
I1201 02:35:00.901805  2045 net.cpp:396] pool5/drop_7x7_s1 -> pool5/7x7_s1 (in-place)
I1201 02:35:00.901825  2045 net.cpp:144] Setting up pool5/drop_7x7_s1
I1201 02:35:00.901830  2045 net.cpp:151] Top shape: 16 1024 1 1 (16384)
I1201 02:35:00.901834  2045 net.cpp:159] Memory required for data: 897355344
I1201 02:35:00.901836  2045 layer_factory.hpp:77] Creating layer loss3/classifier
I1201 02:35:00.901844  2045 net.cpp:94] Creating Layer loss3/classifier
I1201 02:35:00.901859  2045 net.cpp:435] loss3/classifier <- pool5/7x7_s1
I1201 02:35:00.901865  2045 net.cpp:409] loss3/classifier -> loss3/classifier
I1201 02:35:00.901985  2045 net.cpp:144] Setting up loss3/classifier
I1201 02:35:00.901991  2045 net.cpp:151] Top shape: 16 3 (48)
I1201 02:35:00.901995  2045 net.cpp:159] Memory required for data: 897355536
I1201 02:35:00.902000  2045 layer_factory.hpp:77] Creating layer loss3/classifier_loss3/classifier_0_split
I1201 02:35:00.902006  2045 net.cpp:94] Creating Layer loss3/classifier_loss3/classifier_0_split
I1201 02:35:00.902009  2045 net.cpp:435] loss3/classifier_loss3/classifier_0_split <- loss3/classifier
I1201 02:35:00.902016  2045 net.cpp:409] loss3/classifier_loss3/classifier_0_split -> loss3/classifier_loss3/classifier_0_split_0
I1201 02:35:00.902022  2045 net.cpp:409] loss3/classifier_loss3/classifier_0_split -> loss3/classifier_loss3/classifier_0_split_1
I1201 02:35:00.902057  2045 net.cpp:144] Setting up loss3/classifier_loss3/classifier_0_split
I1201 02:35:00.902061  2045 net.cpp:151] Top shape: 16 3 (48)
I1201 02:35:00.902065  2045 net.cpp:151] Top shape: 16 3 (48)
I1201 02:35:00.902068  2045 net.cpp:159] Memory required for data: 897355920
I1201 02:35:00.902070  2045 layer_factory.hpp:77] Creating layer loss3/loss
I1201 02:35:00.902076  2045 net.cpp:94] Creating Layer loss3/loss
I1201 02:35:00.902081  2045 net.cpp:435] loss3/loss <- loss3/classifier_loss3/classifier_0_split_0
I1201 02:35:00.902086  2045 net.cpp:435] loss3/loss <- label_val-data_1_split_4
…
